animation_dqn/models/first.pt (torch, 565487 bytes, 8 tensors)

weight f4 [256, 16]
0	0xbeb501d3	-0.35352954
1	0x3ec1abf6	0.37826508
2	0x3ef16195	0.47144762
3	0xbde24327	-0.110479645
4	0xbedd3b55	-0.4320933
5	0x3ece7f28	0.40331388
6	0xbee889e9	-0.45417717
7	0xbda458d8	-0.08024758
8	0xbe407581	-0.18794824
9	0x3ce8f909	0.028439062
10	0xbeae4d01	-0.34043124
11	0xbeac1e2c	-0.3361677
12	0xbef8ec37	-0.48617718
13	0x3e613f4f	0.21996807
14	0xbd4f6c42	-0.050640352
15	0x3e07c8c2	0.13260177
16	0xbe579412	-0.21052578
17	0x3e792c16	0.24333224
18	0x3dce8636	0.100841925
19	0xbe69d009	-0.22833265
20	0x3eb8dbfc	0.36105335
21	0x3e7780fb	0.24170296
22	0xbd662535	-0.056187827
23	0xbed7cb0b	-0.42147097
24	0xbea0a8bb	-0.3137873
25	0xbebc3c65	-0.36764827
26	0xbec51437	-0.38491985
27	0xbed95a99	-0.42451933
28	0x3eed7352	0.46377045
29	0xbe649620	-0.22322893
30	0xbe7ed5a0	-0.24886179
31	0xbe3f8e5e	-0.18706653
32	0xbd5bd669	-0.053671274
33	0xbe213106	-0.15741357
34	0xbea1364f	-0.31486747
35	0xbe02c359	-0.12769832
36	0x3e090142	0.13379386
37	0xbe0b9b70	-0.13633513
38	0x3ee345f2	0.44389302
39	0xbe45bf12	-0.19311169
40	0x3ea4545a	0.32095605
41	0xbeda4146	-0.42627925
42	0x3d5d1c11	0.053981844
43	0x3eef3d23	0.4672633
44	0xbf17cb79	-0.5929485
45	0x3d3d5710	0.046225607
46	0xbeba2758	-0.36358142
47	0x3de085ff	0.10963058
48	0x3cfda2b8	0.03096138
49	0xbef18576	-0.47172135
50	0x3c0229fa	0.007944578
51	0xbe32ae32	-0.17449263
52	0x3e1d5663	0.15364985
53	0x3edb2f11	0.42809346
54	0x3e96b6b8	0.29436278
55	0xbdbb1a98	-0.09135932
56	0x3e7dc148	0.24780762
57	0xbe415796	-0.18881068
58	0xbea988b3	-0.33112106
59	0xbec56f5f	-0.38561532
60	0xbf392902	-0.723282
61	0xbece294e	-0.40265888
62	0xbf05a632	-0.5220672
63	0xbf0402c7	-0.5156674
64	0x3d2f245e	0.04275929
65	0x3eb5b67e	0.35490793
66	0xbd08a844	-0.033363596
67	0x3cc30fd9	0.023811268
68	0x3dc4b5ee	0.09605013
69	0x3e40ed4f	0.18840526
70	0xbf1319d6	-0.574613
71	0x3e9a5a61	0.3014708
72	0x3ea5e266	0.3239929
73	0x3ed24a09	0.4107211
74	0x3ebe2a31	0.37141564
75	0xbeeb7798	-0.4598968
76	0xbeedd258	-0.46449542
77	0x3e0fbadf	0.1403613
78	0xbe89103f	-0.26770207
79	0x3e05a168	0.13049853
80	0xbe9d3b49	-0.30709293
81	0x3e2326bb	0.15932743
82	0xbe5e6e60	-0.21721792
83	0xbdf52576	-0.11970036
84	0x3ec50778	0.3848226
85	0xbe8740ce	-0.2641663
86	0xbebb6211	-0.36598256
87	0xbed04b34	-0.40682375
88	0xbe8dabe0	-0.27670193
89	0x3ea9c0d4	0.3315493
90	0x3c90caf3	0.017674899
91	0xbeab5997	-0.3346679
92	0xbe950a0f	-0.29109237
93	0x3e33393b	0.175023
94	0xbe6252a1	-0.22101833
95	0xbe16fd65	-0.147451
96	0xbde6c41c	-0.11267874
97	0xbdb8cb88	-0.090231955
98	0x3e27fdbb	0.16405384
99	0x3e878e36	0.26475686
100	0xbec716d2	-0.38884598
101	0xbcb2d33e	-0.021829244
102	0x3ddc7190	0.10763848
103	0xbef1076f	-0.47075984
104	0xbec17c39	-0.37790087
105	0xbdfb6605	-0.12275318
106	0x3e367270	0.17817092
107	0x3eec9ba7	0.46212503
108	0x3ee12a17	0.43977425
109	0xbe9727dc	-0.29522598
110	0xbe55ac34	-0.20866472
111	0xbee73496	-0.45157307
112	0x3ec3dee6	0.38255996
113	0xbc9cc8c4	-0.019138701
114	0xbdf5b664	-0.11997679
115	0x3ef14e11	0.47129872
116	0x3e3d6b23	0.184979
117	0x3e38c66a	0.18044439
118	0xbeaddd3a	-0.33957845
119	0x3c8f46c9	0.017489808
120	0xbf4d051b	-0.80085915
121	0xbeac54ae	-0.33658355
122	0x3a70c2e3	0.0009184314
123	0x3e8492a4	0.25893128
124	0xbde57ca5	-0.11205415
125	0xbbeeed0a	-0.007291441
126	0xbd1e61ae	-0.038667373
127	0xbe6024b7	-0.21889006
128	0x3ca422d3	0.020036137
129	0x3e492adb	0.19645254
130	0xbb852188	-0.004062835
131	0x3e246331	0.16053464
132	0x3ecc8658	0.39946246
133	0xbed8bcf4	-0.4233166
134	0xbe88e7be	-0.26739305
135	0xbec4788a	-0.38373214
136	0x3e99f0c3	0.300665
137	0x3ee73538	0.4515779
138	0xbe79e91a	-0.24405327
139	0xbdd32a86	-0.10310845
140	0xbe021ab3	-0.12705497
141	0x3e59170d	0.212002
142	0xbe3f335d	-0.18671937
143	0xbcdee749	-0.027209895
144	0xbc247fc8	-0.010040231
145	0x3e6062c7	0.2191268
146	0xbe824f09	-0.25450924
147	0xbe9c9f5a	-0.30590326
148	0x3e60e373	0.21961765
149	0xbeeea7c5	-0.46612373
150	0xbe4becab	-0.199145
151	0x3d28d659	0.041220043
152	0xbede8791	-0.43462804
153	0x3e8c575d	0.27410403
154	0xbe498c82	-0.19682506
155	0xbf312a45	-0.69205123
156	0xbcc4e9b6	-0.024037223
157	0x3eff09e8	0.49812245
158	0xbe5820c4	-0.21106249
159	0x3e94e9a5	0.29084507
160	0xbd5de5e4	-0.05417432
161	0xbedf07eb	-0.43560728
162	0x3d146759	0.036231373
163	0xbef0cd76	-0.47031754
164	0x3ea96102	0.33081824
165	0x3e84cb4e	0.2593636
166	0xbe36d326	-0.17853984
167	0x3df10ae0	0.11769652
168	0xbeb83de7	-0.35984728
169	0x3ea25e17	0.3171241
170	0xbe83dd74	-0.25754893
171	0xbf28bbf8	-0.6591182
172	0xbee35256	-0.44398755
173	0x3e63539f	0.22199868
174	0x3e194749	0.149686
175	0xbe94c7b6	-0.29058617
176	0x3ec45511	0.3834615
177	0xbd0ea2aa	-0.034823097
178	0x3e197b9a	0.14988557
179	0xbe6bba6a	-0.2302033
180	0xbee68ac0	-0.45027733
181	0x3ddf4001	0.1090088
182	0xbdfafb88	-0.12255007
183	0x3ebea81a	0.37237626
184	0x3e4d7975	0.20065863
185	0x3e16f11c	0.14740413
186	0xbe6f1c5b	-0.2335066
187	0xbd815c48	-0.063164294
188	0xbda0ed17	-0.07857721
189	0x3de4f534	0.11179581
190	0x3e87f384	0.26552975
191	0xbd914298	-0.0709278
192	0x3e72fcbc	0.23729223
193	0xbf02a101	-0.5102692
194	0xbe22a700	-0.15884018
195	0x3dc627ee	0.09675585
196	0xbe8a2f2a	-0.26989108
197	0x3e3e58cc	0.18588561
198	0x3e46194f	0.19345592
199	0xbeb0b230	-0.34510946
200	0xbee345e4	-0.4438926
201	0xbec09192	-0.3761106
202	0x3ea1cb6a	0.31600505
203	0xbe52ceff	-0.20586775
204	0x3ec86708	0.39141107
205	0x3eaffb72	0.34371525
206	0xbe04fb4b	-0.12986486
207	0x3ebcac04	0.36849988
208	0x3ed3066e	0.41215843
209	0xbebf6427	-0.37381098
210	0xbee57581	-0.4481621
211	0xbd5905fb	-0.05298422
212	0x3dca75d1	0.09885753
213	0xbd50dc78	-0.050991505
214	0x3e9ce5b1	0.3064399
215	0xbed10c17	-0.40829536
216	0x3d92cc1f	0.07167839
217	0xbced007d	-0.028930897
218	0xbe3ccdf4	-0.1843794
219	0xbdf8c17f	-0.121462815
220	0xbec926b4	-0.3928734
221	0xbdd9d66c	-0.10636601
222	0x3e8556ca	0.26042777
223	0x3e502995	0.20328362
224	0xbc9da47b	-0.01924347
225	0x3e1ec579	0.15505017
226	0xbc6aa775	-0.014322151
227	0xbe6cfd6d	-0.2314355
228	0x3ea1ff4d	0.31640092
229	0xbeb30034	-0.34961092
230	0xbe61551f	-0.22005127
231	0x3eb681ac	0.35645807
232	0xbdf6ada1	-0.12044836
233	0xbf145215	-0.5793775
234	0xbead1229	-0.33802918
235	0x3e92a806	0.28643817
236	0xbef492e6	-0.47768325
237	0x3e524674	0.20534688
238	0xbdc77c57	-0.09740513
239	0x3cc68516	0.024233382
240	0xbe6dedc8	-0.23235238
241	0x3e77bcd8	0.24193132
242	0xbc42c4e8	-0.011887766
243	0x3ec81c72	0.39084202
244	0x3e4bf2b3	0.19916801
245	0x3c4f92ea	0.012669304
246	0x3ec20c46	0.3789999
247	0x3de0ad2e	0.109705314
248	0x3e581497	0.21101604
249	0x3e521295	0.20514901
250	0xbec39dfe	-0.38206476
251	0xbefd007c	-0.49414432
252	0xbce86d60	-0.028372467
253	0xbebe6816	-0.37188786
254	0x3e740c3a	0.23832789
255	0xbe36cde2	-0.17851976

bias f4 [256]
0	0x3cd3a6b1	0.02583632
1	0xbc4ae8cf	-0.012384607
2	0xbd4cc2e7	-0.04999056
3	0xbd2bf92b	-0.041985672
4	0xbd6a262b	-0.057165306
5	0xbbe9bc67	-0.007133055
6	0x3ce98c97	0.028509421
7	0x3ba69b5a	0.0050844373
8	0xbc1141f4	-0.008865822
9	0x3c004350	0.007828549
10	0x3c3dbfe2	0.011581393
11	0xbd2061c3	-0.039155733
12	0xbd6f4284	-0.058413044
13	0xbd93f9a8	-0.072253525
14	0x3c300ad6	0.010744771
15	0xbd057e7e	-0.032591335
16	0xbd86eff8	-0.06588739
17	0xbd58a156	-0.052888237
18	0xbcd9e81d	-0.026599938
19	0x00000000	0.0
20	0xbc9bf8f0	-0.019039601
21	0xbbce5fb7	-0.006298031
22	0xbdb5832a	-0.08862908
23	0x3d3c37c8	0.045951635
24	0xbd4fd3a9	-0.050738964
25	0xbe0d2a3d	-0.13785644
26	0x00000000	0.0
27	0x3d7635fc	0.060110077
28	0xbcd98782	-0.026553873
29	0xbde320c8	-0.11090237
30	0xbde7e36e	-0.11322676
31	0xbda0a465	-0.07843856
32	0xbe040b2d	-0.12894888
33	0xbd03cae7	-0.032175925
34	0xbd89f751	-0.06736625
35	0x3d7ba917	0.061440554
36	0x3d6e53d9	0.058185432
37	0xbc691933	-0.014227199
38	0xbdf5b697	-0.11997717
39	0xbced0b27	-0.028935982
40	0x3d0aea61	0.033914927
41	0xbc0e5acc	-0.00868864
42	0xbd46a01f	-0.048492547
43	0xbd03f6c5	-0.03221776
44	0x3d0f9f10	0.035063803
45	0xbd914b17	-0.070944004
46	0xbbf660ad	-0.007518849
47	0xbd996f4a	-0.0749193
48	0xbd0105f6	-0.031499825
49	0xbdba2bc7	-0.09090381
50	0xbd3f7e85	-0.046751518
51	0xbd5f7d4f	-0.054562863
52	0xbd608ab2	-0.05481977
53	0xbda21c0e	-0.07915507
54	0x3c9cc410	0.019136459
55	0xbcde79ac	-0.027157627
56	0xbd2765d9	-0.040868614
57	0xbb917ddc	-0.0044400524
58	0xbb4b42a4	-0.0031015063
59	0xbca26da1	-0.019827666
60	0x3cdfc253	0.02731434
61	0xbded916c	-0.11600003
62	0x3ced1597	0.028940959
63	0xbd530a65	-0.051523585
64	0x00000000	0.0
65	0x3d1b5fa2	0.037933
66	0xbd5e6bcf	-0.054302033
67	0xbd20744c	-0.03917341
68	0xbdf0def0	-0.11761272
69	0xbcecf864	-0.028927036
70	0x3c0828a4	0.008310471
71	0xbdc55efe	-0.09637259
72	0xbe1eef91	-0.15521075
73	0xbd41ff63	-0.047362696
74	0xb9ab505b	-0.0003267553
75	0xbd89c46e	-0.06726919
76	0xbdc1eaa2	-0.09468581
77	0x3b8622a3	0.0040934845
78	0x3d10c209	0.035341296
79	0xbd4e26d8	-0.050330013
80	0xbd38f45a	-0.045154907
81	0xbd30c60f	-0.043157633
82	0xbc9d3d5d	-0.0191943
83	0xbd42cb84	-0.04755737
84	0xbd8a81db	-0.06763049
85	0x3d2486dc	0.040167674
86	0x3d19100d	0.037368823
87	0xbd55bbdb	-0.052181106
88	0xbdf3269a	-0.11872597
89	0xba5b0b3b	-0.00083558605
90	0x3daa7231	0.083225615
91	0x3c79b7d2	0.01524158
92	0x39fd1618	0.00048272382
93	0x3b800b36	0.0039075864
94	0xbdd488ed	-0.10377679
95	0xbdc4d0e8	-0.09610158
96	0x3d01c665	0.031683344
97	0xbd8e9732	-0.06962432
98	0xbd5bc904	-0.0536585
99	0x00000000	0.0
100	0x3d44bc55	0.04803117
101	0x3c26a541	0.010171236
102	0xbd757b2d	-0.059931923
103	0x3c0f3690	0.008741036
104	0xbd8d934e	-0.06912862
105	0xbcc12bc4	-0.02358044
106	0xbbf2ecd8	-0.007413488
107	0xbda7dca6	-0.08196382
108	0x3dc92b2d	0.09822688
109	0xbc07d001	-0.008289338
110	0xbd95d17e	-0.07315348
111	0xbd9f89c3	-0.07789948
112	0x3d164d5c	0.03669487
113	0xbd5b1934	-0.053490832
114	0x3cb7fe9e	0.022460278
115	0x3bcb6450	0.0062070265
116	0xbd8a98ec	-0.06767449
117	0x3d28d246	0.041216157
118	0x3cc5444b	0.024080416
119	0x3cc025b0	0.02345547
120	0xbc012d7c	-0.0078843795
121	0xbdc8c1e8	-0.0980261
122	0xbd99e741	-0.07514811
123	0xbdb3e2cf	-0.08783495
124	0x3d70209d	0.058624852
125	0xbd1c3517	-0.038136568
126	0xbd2cbb7f	-0.042170998
127	0xbcbc8ca9	-0.02301629
128	0xbdca9db4	-0.09893361
129	0xbddc97a5	-0.107711114
130	0xbd8a01bf	-0.06738614
131	0xbbb13c8a	-0.005408828
132	0x3d8d6a6a	0.069050625
133	0xbe148d68	-0.14507067
134	0x3d02dec4	0.031950727
135	0x3c7fc228	0.015610255
136	0x3ccaa80f	0.02473834
137	0xbdb11b5e	-0.08647798
138	0xbdd75f1b	-0.10516187
139	0x3c4a5765	0.012349938
140	0xbcd0f27d	-0.025506252
141	0x3d531d50	0.051541626
142	0x3d620e6c	0.055189535
143	0xbd4752c8	-0.04866293
144	0xbbbef4f7	-0.005827542
145	0xbe16d81d	-0.14730878
146	0x3c53035d	0.01287922
147	0xbb9f38c0	-0.00485906
148	0xbdc15e5f	-0.09441828
149	0xbd5498f3	-0.051903676
150	0x3d2b4686	0.041815303
151	0x3d82828a	0.063725546
152	0xbd6298c3	-0.055321466
153	0x3cf0e097	0.029403968
154	0xbd193c9d	-0.03741132
155	0xbd544dd0	-0.05183202
156	0x3d7d4169	0.061829958
157	0xbd8730da	-0.066011146
158	0xbe1e75b2	-0.15474585
159	0x3d097e37	0.033567633
160	0x3c9da4a4	0.019243546
161	0xbe1e6e77	-0.15471826
162	0x39c0af47	0.00036751686
163	0xbbdb9391	-0.006700941
164	0xbd98cd75	-0.07461063
165	0xbdc28752	-0.094984666
166	0xbd8e822d	-0.06958423
167	0xbd66fb64	-0.05639209
168	0x3c01b0ff	0.007915734
169	0x00000000	0.0
170	0xbbdf58db	-0.0068160123
171	0xbbf30bc9	-0.0074171764
172	0x3c9d2dbf	0.019186852
173	0xbd99df89	-0.07513339
174	0x3c976bf5	0.018484095
175	0xbccefbd6	-0.02526657
176	0xbcd9fbda	-0.02660935
177	0xbd6a783d	-0.057243574
178	0x3cff37c5	0.031154523
179	0xbd012dba	-0.03153775
180	0xbd81de8b	-0.06341275
181	0x00000000	0.0
182	0xbdc08ee6	-0.09402256
183	0x3cc7cdd5	0.02439014
184	0x3c84093b	0.016117683
185	0x3c29a0ff	0.010353326
186	0xbd5b5908	-0.053551704
187	0x3af518c2	0.0018699395
188	0xbc37110e	-0.0111735
189	0xbd63fc69	-0.05566064
190	0x3c73a59d	0.014871028
191	0xbde8a9df	-0.11360525
192	0xbdb5714d	-0.08859501
193	0xbda5b7a8	-0.0809167
194	0xbc019ddc	-0.007911172
195	0xbd521cdc	-0.051297054
196	0xbd4c4190	-0.049867213
197	0xbd8b16e6	-0.06791477
198	0xbd22327f	-0.039598938
199	0xbcfd308e	-0.030906942
200	0x3b9f2250	0.0048563853
201	0xbbe34bdf	-0.006936535
202	0xbd96823a	-0.073490575
203	0xbcfc7c53	-0.030821001
204	0xbcfa57e0	-0.03055948
205	0xbd419641	-0.047262434
206	0xbcc76527	-0.024340225
207	0x3d1ecd8a	0.038770236
208	0xbdbd7b70	-0.092520595
209	0xbd12dd55	-0.03585561
210	0x3d3f61d3	0.04672415
211	0xbd40309a	-0.04692135
212	0xbde8ac94	-0.11361042
213	0x3c78b7a3	0.015180501
214	0x00000000	0.0
215	0x3d48872e	0.048957042
216	0x3d8ed017	0.06973284
217	0xb955272c	-0.00020327856
218	0xbd88ccef	-0.06679713
219	0x3c098a7d	0.008394835
220	0xbd21e5ef	-0.039525922
221	0xbd7b6f16	-0.061385237
222	0xbddaece0	-0.106897116
223	0x00000000	0.0
224	0x3c8cb0a0	0.017174065
225	0xbd646bea	-0.055766977
226	0xbd56e9a0	-0.052468896
227	0xbc95ba9d	-0.01827746
228	0xbd106096	-0.03524836
229	0x00000000	0.0
230	0xbceefbd8	-0.029172823
231	0xbb951da9	-0.004550655
232	0xbd3357b4	-0.043784812
233	0xbdafdcc1	-0.08587027
234	0xbd5724ce	-0.052525334
235	0xbde8ea02	-0.113727584
236	0x3c35d67d	0.011098501
237	0xbdeb88a5	-0.11500672
238	0x3d40f879	0.047111962
239	0xbc60c9a6	-0.013719952
240	0x3d5aba82	0.053400524
241	0x3d4fdc63	0.050747287
242	0x3c862f68	0.016380027
243	0xbbbf6f36	-0.005842115
244	0x00000000	0.0
245	0xbc3f265e	-0.011666862
246	0xbd039714	-0.0321265
247	0xbcadb2e8	-0.021203473
248	0x00000000	0.0
249	0x3c2e8c64	0.010653589
250	0x3ccbeba6	0.02489264
251	0xbd680a00	-0.05665016
252	0x3cbf37a9	0.02334197
253	0xbd011658	-0.03151545
254	0xbce72f57	-0.028220816
255	0xbc3a0e2b	-0.011355917

weight f4 [256, 256]
0	0xbd6a57c4	-0.057212606
1	0x3dd0d9bc	0.101977795
2	0xbe5037f4	-0.20333844
3	0xbcd0b846	-0.025478493
4	0xbcbdc148	-0.023163453
5	0xbb003ebe	-0.0019568647
6	0x3e01dee2	0.1268268
7	0xbd6750d4	-0.056473568
8	0x3e724510	0.23659158
9	0xbdedc1f2	-0.11609258
10	0x3d06d9cc	0.03292255
11	0xbe74653b	-0.23866741
12	0x3d95be5a	0.07311697
13	0x3e05b920	0.13058901
14	0xbe0a0e48	-0.1348201
15	0xbbbf1c58	-0.0058322363
16	0xbd84825e	-0.06470178
17	0xbdabf10a	-0.08395584
18	0xbc6dd00f	-0.014514937
19	0xbd0c605d	-0.034271587
20	0xbdef5ff0	-0.116882205
21	0xbd853120	-0.065035105
22	0x3d88be35	0.06676904
23	0x3d659396	0.056048952
24	0xbd8d79df	-0.06908011
25	0x3d425b84	0.047450557
26	0xbd255158	-0.04036078
27	0xbdb25285	-0.087071456
28	0xbb9b4540	-0.00473848
29	0xbcb3eee1	-0.021964492
30	0xbc32ce19	-0.010913395
31	0xbd273328	-0.04082027
32	0xbd94cba4	-0.07265404
33	0x3d7ca91e	0.06168472
34	0x3d4c3e44	0.04986407
35	0x3d3da8dd	0.04630362
36	0xbdb40b8d	-0.08791266
37	0x3d9fee2d	0.078091
38	0x3d3cfb05	0.04613783
39	0xbd136927	-0.035988953
40	0xbe14f369	-0.14545979
41	0xbe336c7f	-0.17521857
42	0x3cf178bf	0.029476522
43	0xbdfc1c65	-0.12310103
44	0x3c575e05	0.013144975
45	0x3d8b1ed4	0.067929894
46	0xbde02639	-0.109447904
47	0xbd03a048	-0.032135278
48	0x3e34bac0	0.17649364
49	0x3dd20e25	0.10256604
50	0x3ddff9d8	0.10936326
51	0xbe17a721	-0.14809848
52	0x3d908188	0.07055956
53	0x3c8fb62d	0.017542923
54	0x3d1ae028	0.03781143
55	0x3c254960	0.010088295
56	0x3d904ee7	0.070462994
57	0x3cac90e5	0.021065185
58	0x3d82669f	0.0636723
59	0x3dff39f7	0.12462228
60	0xbd29cfa2	-0.04145778
61	0xbd76b95f	-0.060235377
62	0xbb6541f3	-0.0034981936
63	0x3d363f0b	0.044493716
64	0x3df6d36a	0.12052043
65	0x3d3be89b	0.045876127
66	0x3cd9c5b8	0.026583537
67	0xbcba6ad2	-0.022756014
68	0x3deefd82	0.116694465
69	0x3deb4820	0.11488366
70	0xbdbcf677	-0.09226697
71	0x3d4cd9d0	0.05001241
72	0x3cfae002	0.030624393
73	0xbcd0833c	-0.025453202
74	0x3d5dfc33	0.054195594
75	0xbd6f8d86	-0.058484577
76	0xbd897c4e	-0.06713162
77	0xbb9d729d	-0.0048049227
78	0x3d9ae2c3	0.075627826
79	0xbda9d4d8	-0.0829255
80	0x3cf170e7	0.029472781
81	0xbcd97f1e	-0.026549872
82	0x3c42b82d	0.011884731
83	0xbda8f762	-0.082503095
84	0x3d54b0f6	0.051926576
85	0x3d68d5b7	0.05684444
86	0x3dc53c78	0.09630674
87	0x3b97fd32	0.0046383375
88	0xbe30a139	-0.17249002
89	0x3d159b30	0.03652495
90	0xbc27cb45	-0.010241334
91	0x3d663f4c	0.05621271
92	0xbd48f520	-0.049061894
93	0x3d527a66	0.05138626
94	0xbcde0c36	-0.027105432
95	0x3d68d158	0.05684027
96	0xbd8c971a	-0.06864758
97	0x3d99c755	0.07508723
98	0xbc37fbb3	-0.011229443
99	0x3deb51d4	0.11490217
100	0x3e6bc0b6	0.23022732
101	0x3c672895	0.014108797
102	0x3dc0945c	0.09403297
103	0xbe7708b5	-0.24124415
104	0xbe2ed2fc	-0.17072672
105	0xbccc126a	-0.024911124
106	0x3e176183	0.14783292
107	0x3d573c50	0.052547753
108	0xbdd5ecf9	-0.104455896
109	0x3d9a37f4	0.075302035
110	0xbd2aaf4c	-0.041671082
111	0xbe3409ab	-0.17581813
112	0x3dccf3e5	0.10007457
113	0xbe4dd995	-0.20102532
114	0xbcd3a8d0	-0.025837332
115	0x3c09aa55	0.008402427
116	0xbe66237c	-0.22474474
117	0x3c952e14	0.018210448
118	0x3cf7e3d4	0.030260004
119	0xbd5d4c4c	-0.05402784
120	0x3df5e01d	0.12005637
121	0xbccc3f3b	-0.024932494
122	0xbdb8e664	-0.090283185
123	0x3dc01178	0.09378332
124	0x3dc71c20	0.09722161
125	0xbd895f94	-0.06707683
126	0x3e202b87	0.15641604
127	0x3c44d76e	0.012014253
128	0xbd557e91	-0.052122656
129	0x3decb639	0.11558194
130	0x3d0c127b	0.03419731
131	0xbde09b5a	-0.10967131
132	0x3d8ab383	0.067725204
133	0xbd578dfc	-0.05262564
134	0xbd0c342b	-0.03422944
135	0x3dc5c5ea	0.0965689
136	0x3d36bddf	0.04461467
137	0xbd39f3df	-0.04539859
138	0x3c524493	0.012833732
139	0x3e063deb	0.13109557
140	0x3d7a68c2	0.06113506
141	0xbcf63afe	-0.030057427
142	0x3dc1adc1	0.09456969
143	0x3d3b41c9	0.045717034
144	0xbe31efc6	-0.17376623
145	0x3ad20640	0.0016023591
146	0x3cb90032	0.022583101
147	0x3c822137	0.015884979
148	0x3cd5e054	0.026107945
149	0x3d9beb17	0.07613199
150	0x3d1c6ddd	0.03819071
151	0xbcd94584	-0.026522405
152	0x3d2e5daf	0.042569812
153	0xbd9d9b38	-0.07695621
154	0x3c9f2a53	0.019429361
155	0xbc99d6b2	-0.018779133
156	0x3dbc39d5	0.09190718
157	0xbc75baac	-0.014998119
158	0xbd8189e5	-0.063251294
159	0xbda8ebe1	-0.08248115
160	0x3d595641	0.053060774
161	0xbc21f44b	-0.009884904
162	0xbd76214e	-0.060090356
163	0xbe04335a	-0.12910214
164	0x3d739593	0.059468817
165	0x3d97573b	0.07389685
166	0x3d110382	0.035403736
167	0x3dd3079c	0.10304186
168	0xbda45a7f	-0.08025073
169	0xbd2cea67	-0.04221573
170	0x3c64ee12	0.013972776
171	0x3dcaab03	0.09895899
172	0xbb5f0940	-0.0034032613
173	0xbdb7e9dc	-0.08980152
174	0x3d7e6e45	0.06211688
175	0x3dc892b4	0.097936064
176	0xbe312200	-0.17298126
177	0x3debb1da	0.11508532
178	0x3e1ac7e3	0.15115313
179	0xbe035ab4	-0.12827569
180	0x3de9d9ca	0.11418493
181	0x3d3286d3	0.04358561
182	0x3bcd616f	0.0062677185
183	0xbddca427	-0.10773497
184	0x3d99be50	0.07507002
185	0xbdab62e9	-0.08368475
186	0xbe0fb786	-0.14034852
187	0xbdf093c7	-0.11746936
188	0x3de71b46	0.11284499
189	0xbe6e8907	-0.2329446
190	0x3ca514ed	0.02015158
191	0x3d5bda60	0.053675056
192	0x3cba63d7	0.022752685
193	0xbdfd8027	-0.12377959
194	0x3e61e035	0.22058184
195	0xbdd2721c	-0.10275671
196	0xbd9d3d8f	-0.07677757
197	0x3e0ce15e	0.13757846
198	0xbd28d234	-0.04121609
199	0xbd244590	-0.040105402
200	0x3d49433a	0.049136378
201	0x3d865abd	0.06560276
202	0xbd40984a	-0.047020234
203	0xbe5993b6	-0.21247754
204	0x3ccacb14	0.024755038
205	0xbcd39128	-0.025826052
206	0x3dad35ce	0.08457528
207	0x3d851e24	0.064998895
208	0x3cc29243	0.023751384
209	0xbdadd591	-0.08488
210	0x3badaf7c	0.0053004604
211	0xbe0d81a0	-0.1381898
212	0xbe011286	-0.12604722
213	0x3dd701c9	0.10498387
214	0xbd6c1077	-0.05763289
215	0xbd9cf12b	-0.07663187
216	0xbda6910e	-0.08133136
217	0xbd00ab60	-0.031413436
218	0xbdba003e	-0.090820774
219	0x3e44b82a	0.19210878
220	0x3e0e9696	0.13924631
221	0xbe0b6ca6	-0.13615665
222	0xbe777b73	-0.24168186
223	0xbdd25f14	-0.10272041
224	0xbd452e2d	-0.04813974
225	0x3e147f81	0.14501764
226	0x3d1d5f20	0.038420796
227	0x3db3625c	0.08758995
228	0xbd079031	-0.033096496
229	0x3cad9c04	0.021192558
230	0x3e1905c0	0.149436
231	0xbd660f6f	-0.056167062
232	0x3cc7bd35	0.024382213
233	0x3c530697	0.012879989
234	0xbdacbc81	-0.08434392
235	0x3d793654	0.060842827
236	0x3ad3a386	0.0016146756
237	0xbd540ede	-0.05177199
238	0xbd5d5a4b	-0.05404119
239	0xbe0633cf	-0.13105701
240	0x3d75e5b9	0.060033534
241	0x3d068932	0.032845683
242	0xbc7a48ad	-0.015276116
243	0xbcd4c89a	-0.02597456
244	0x3d41dce6	0.047329806
245	0x3e1965a9	0.14980187
246	0xbe00d2da	-0.12580433
247	0xbd0a9b45	-0.033839483
248	0x3c95ddfb	0.018294325
249	0xbd394c00	-0.045238495
250	0x3c908b2b	0.017644485
251	0x3c4742a1	0.012161882
252	0xbdd78b62	-0.10524632
253	0xbc3c1adc	-0.011481013
254	0x3dc7d2d3	0.097570084
255	0xba8a064a	-0.0010530439

bias f4 [256]
0	0xbd60a051	-0.05484039
1	0x3c9de91e	0.019276198
2	0xbcddfacb	-0.027097126
3	0xbcd0c63a	-0.025485147
4	0xbc8e7339	-0.017388927
5	0x3d0e2624	0.034704342
6	0xbbf4e4b8	-0.0074735545
7	0xbc41828e	-0.011810912
8	0x3d1b2390	0.037875712
9	0xbc85bfa4	-0.016326733
10	0x3c2b4ba5	0.010455047
11	0x3d0a534c	0.033770844
12	0x3d9e9a1d	0.077442385
13	0x3ca27f2c	0.01983603
14	0x3d4b3455	0.049610455
15	0x3d54c34a	0.051944055
16	0xbc19a6b1	-0.009378121
17	0xbbbff7f4	-0.0058584157
18	0x3c065d59	0.008200967
19	0xbd47046f	-0.048588213
20	0xbbaafd09	-0.0052181524
21	0xbccfaae3	-0.02535004
22	0xbcaae26d	-0.020859921
23	0x3d80af2f	0.062834136
24	0xbc9cb2fa	-0.019128311
25	0xbda83868	-0.08213884
26	0xbba7c419	-0.005119812
27	0xbd417468	-0.047230154
28	0xbc99526b	-0.018716058
29	0xbd1a963c	-0.03774093
30	0xbd744b41	-0.05964208
31	0xbcdef85c	-0.027218036
32	0x3c8df81e	0.017330226
33	0x3cdba118	0.026810214
34	0x3c466974	0.012110103
35	0xbc94efcd	-0.018180752
36	0xbb8d31c0	-0.004308909
37	0x3ccff9bb	0.025387635
38	0xbcbde3c9	-0.023179905
39	0xbd0e43b0	-0.03473252
40	0x3b065537	0.002049757
41	0x3b8d63c7	0.004314873
42	0x3bb39db1	0.0054814448
43	0x3c5bc3ba	0.013413364
44	0xbd25f1da	-0.04051385
45	0x3b9678a0	0.0045920163
46	0x3d308a34	0.04310055
47	0xbd021f13	-0.031767916
48	0x3cd55ed6	0.026046198
49	0xbcf7da74	-0.030255534
50	0x3b16828c	0.0022965996
51	0xbd11ac79	-0.035564873
52	0xbd8a9b01	-0.06767846
53	0x3c783577	0.015149466
54	0xbd531696	-0.05153521
55	0xbc19a938	-0.009378724
56	0x3cd8eed3	0.026481068
57	0x3d8388bb	0.06422564
58	0x3d101354	0.035174683
59	0xbc375c8f	-0.011191501
60	0xbd4611ca	-0.04835681
61	0xbbeb5e42	-0.0071828673
62	0xbd09a7f0	-0.033607423
63	0xbd9cca7b	-0.076558076
64	0x3d32177c	0.043479428
65	0x3cd8570d	0.026408697
66	0xbc4b1380	-0.012394786
67	0xbcfdcd83	-0.030981785
68	0xbd5ed294	-0.05440004
69	0xbc3d382c	-0.011549037
70	0xbce5f4e9	-0.028070884
71	0x3bc33e19	0.0059583304
72	0x3d001f79	0.031280015
73	0xbd2fb1ce	-0.042894177
74	0x3d2539c0	0.040338278
75	0x3c954fc9	0.018226521
76	0x3c378b2f	0.011202618
77	0x3d1aade2	0.037763484
78	0x3dbd09dc	0.09230396
79	0x3cfc526c	0.03080102
80	0xbc9801d3	-0.018555557
81	0xbda2c3ee	-0.07947527
82	0xbd5c5f21	-0.05380166
83	0xbd1c1587	-0.038106468
84	0xbd12abda	-0.03580842
85	0xbd0d019e	-0.03442537
86	0xbcbb15e0	-0.02283758
87	0x3b908835	0.0044107684
88	0x3cc8a39e	0.024492081
89	0xbc8ee3e5	-0.017442653
90	0xbd983b57	-0.07433193
91	0xbcc08ec3	-0.023505574
92	0xbcb7a8e9	-0.02241941
93	0x3b66c898	0.0035214778
94	0x39c45f8a	0.00037455215
95	0xbc5d35f2	-0.013501631
96	0x3ca43834	0.020046331
97	0x3d3f4ff4	0.04670711
98	0xbcd85b78	-0.026410803
99	0xbc98e8e3	-0.018665737
100	0x3d57c4cf	0.052677926
101	0xbb801eb1	-0.0039099087
102	0xbdb40107	-0.087892585
103	0xbcc172e4	-0.023614354
104	0xbca225e0	-0.01979345
105	0xbcd008f8	-0.025394902
106	0xba5c5ebd	-0.0008406451
107	0xbd806c88	-0.06270701
108	0xbd60d065	-0.05488624
109	0x3d07fc12	0.033199377
110	0x3d9ce95f	0.076616995
111	0x3c4b7ace	0.012419416
112	0xbd2d4490	-0.042301714
113	0x3947079c	0.00018980954
114	0x3c0993ee	0.008397086
115	0xbcaf8232	-0.021424387
116	0x3da6d627	0.08146315
117	0xbcd27735	-0.025691608
118	0xbc070cf1	-0.008242832
119	0xbd80b717	-0.062849216
120	0x3b894e0f	0.0041902135
121	0xbce9dd14	-0.028547801
122	0x3dd0cc86	0.1019526
123	0x3ca424bc	0.020037048
124	0xbd656df0	-0.056013048
125	0x3d919731	0.071089156
126	0xbc07c7cb	-0.00828738
127	0xbcb56558	-0.022143051
128	0xbc60aa48	-0.013712473
129	0x3c9086b9	0.017642366
130	0x3c2fe57b	0.010735865
131	0x3c354af4	0.0110652335
132	0xbc57a362	-0.013161512
133	0xbd480557	-0.048833217
134	0xbc91cc92	-0.017797742
135	0xbcbc41ed	-0.022980655
136	0xbaf6db38	-0.0018833643
137	0x3ccc1aad	0.024915064
138	0x39bd070e	0.00036054145
139	0x3cb3be8f	0.021941451
140	0x3d5d400e	0.054016165
141	0xbd4b0f22	-0.04957498
142	0x3d755b29	0.05990139
143	0xbc5f872c	-0.013643067
144	0xbd7c007b	-0.061523896
145	0xbc2e51f8	-0.01063966
146	0x3cd1affd	0.025596613
147	0xbd1f922c	-0.03895776
148	0xbcd30130	-0.025757402
149	0xbcda9cf0	-0.026686162
150	0x3da73a22	0.08165385
151	0x3bb3187a	0.0054655643
152	0xbce0be89	-0.027434604
153	0xbc894330	-0.01675567
154	0x3d6901b7	0.0568864
155	0x3d9097c5	0.07060198
156	0x3c0e2486	0.0086757
157	0x3d1f5af5	0.038905103
158	0xbd2c0f95	-0.042007048
159	0xbccc1115	-0.02491049
160	0xbcd2274a	-0.0256535
161	0x3c759ad5	0.014990528
162	0xbcc65145	-0.024208674
163	0xbc4bfaa5	-0.012449895
164	0xbc9198c7	-0.017773045
165	0xbcef71ef	-0.029229132
166	0xbcff90d0	-0.031196982
167	0xbcbe394c	-0.02322068
168	0x3d337da8	0.043821007
169	0xbb8a3575	-0.0042177984
170	0x3d3cbcf1	0.046078626
171	0x3d1bcd08	0.03803733
172	0x3d7a99cc	0.06118183
173	0xbce18c50	-0.027532727
174	0x3d325e59	0.04354701
175	0x3d908f94	0.07058635
176	0xbc9a4183	-0.018830067
177	0x3d20f040	0.03929162
178	0xbd652549	-0.05594376
179	0x3c95a8aa	0.018268902
180	0xbc5a28c6	-0.013315385
181	0xbd35c06a	-0.044372953
182	0xbcb87169	-0.022515016
183	0x3b35fe3e	0.0027769948
184	0x3cd02061	0.025406064
185	0x3ce20f57	0.027595205
186	0xbc396190	-0.011314765
187	0xbd8152cf	-0.063146226
188	0x3c55d05b	0.013050164
189	0x3d299736	0.04140397
190	0xbd26582a	-0.040611424
191	0x3d6784ff	0.05652332
192	0xbca5ce6b	-0.02024003
193	0xbd95f91a	-0.07322903
194	0xbbecd464	-0.0072274674
195	0xbcd31cd7	-0.025770588
196	0xbc5ec3bd	-0.013596472
197	0x3b3ed619	0.0029119311
198	0x3d55e5b3	0.05222101
199	0xbaa8da6c	-0.0012882478
200	0x3c71fa33	0.014769125
201	0x3cb621c1	0.022232892
202	0xbc54b326	-0.012982165
203	0xbac03fa4	-0.0014667404
204	0xbc9270dd	-0.017876083
205	0xbd59e179	-0.053193543
206	0x3d1750c4	0.03694226
207	0xbb433d0a	-0.002979102
208	0x3ae8a607	0.0017749675
209	0xbb4f4a5c	-0.0031630015
210	0x3c01476a	0.007890562
211	0xbd4dfdc5	-0.05029084
212	0x3d825425	0.063637055
213	0x3d6685bc	0.056279883
214	0x3d5b09cb	0.053476136
215	0x3d6685e6	0.05628004
216	0x3d8b5d6c	0.06804928
217	0x3d08010c	0.033204123
218	0x3cc99b64	0.024610229
219	0xbd19ed5e	-0.037579887
220	0xbca07967	-0.01958914
221	0xba138c45	-0.0005628507
222	0x3d885d60	0.06658435
223	0x3d81082c	0.06300387
224	0xbdb7d01f	-0.08975243
225	0x3a8876e6	0.0010411411
226	0x3a8c70f0	0.001071481
227	0xbd8a4557	-0.06751507
228	0xbd1276b8	-0.03575775
229	0xbbaf22bb	-0.0053447164
230	0x3d2ebba8	0.04265943
231	0x3cc75a25	0.024334976
232	0xbd8a5a49	-0.06755502
233	0xbd2261ec	-0.039644167
234	0xbc637e9b	-0.013885166
235	0xbc3eea77	-0.01165258
236	0x3bdcb9b2	0.006736004
237	0x3cc1aa4f	0.02364078
238	0xbc507e47	-0.012725419
239	0xbca0db16	-0.019635718
240	0x3c4ef05e	0.01263055
241	0xbc58fd9c	-0.013244059
242	0xbb54df84	-0.0032481859
243	0xbcc046cd	-0.02347126
244	0xbbfbd565	-0.0076853507
245	0x3d2d3b38	0.042292804
246	0xbd143e37	-0.036192145
247	0xbda26b69	-0.07930643
248	0x3d2cc518	0.04218015
249	0xbc513388	-0.012768634
250	0xbbf53377	-0.0074829417
251	0x3cac83b0	0.021058887
252	0x3d268205	0.04065134
253	0xbccbdad1	-0.024884613
254	0xbb94c156	-0.004539649
255	0x3c9c6554	0.019091286

weight f4 [256, 256]
0	0xbe038bab	-0.12846248
1	0x3d34a547	0.044102933
2	0xbc2e335d	-0.010632363
3	0x3d321902	0.04348088
4	0x3d564419	0.052311037
5	0x3db53cd8	0.08849496
6	0x3ce02480	0.027361155
7	0xbd9347a3	-0.07191398
8	0x3d2faf91	0.042892043
9	0x3dba74ce	0.0910431
10	0xbc14f618	-0.009091876
11	0xbd9099b4	-0.070605665
12	0xbd172929	-0.036904488
13	0x3db1c125	0.086794175
14	0x3db1ad41	0.08675624
15	0xbd081492	-0.033222742
16	0x3d9cd15a	0.07657118
17	0xbc68648f	-0.014184131
18	0x3d7f99ca	0.062402524
19	0xbe00ff07	-0.12597285
20	0xbdcd07e3	-0.1001127
21	0x3ccb0ea1	0.024787249
22	0x3da50610	0.08057797
23	0x3d726296	0.05917605
24	0xbd69dca2	-0.057095177
25	0xbc9f9bbd	-0.019483441
26	0xbd9bc59f	-0.076060526
27	0x3d1f92e0	0.03895843
28	0xbc220147	-0.009888
29	0x3dedeb87	0.11617189
30	0x3d33bf09	0.043883357
31	0x3db22bbb	0.08699747
32	0xbd478b3a	-0.04871676
33	0x3c02fa5c	0.007994261
34	0xbcdd284c	-0.026996754
35	0xbc49ff54	-0.012328941
36	0xbdaf432a	-0.085577324
37	0x3dc4a30f	0.096014135
38	0xbc495961	-0.012289376
39	0x3d31758e	0.043325
40	0x3d1f8c4c	0.038952157
41	0xbd8f7ae0	-0.070058584
42	0xbc9342d2	-0.017976198
43	0x3c3e8058	0.011627279
44	0x3d65a057	0.056061115
45	0xbdd1524e	-0.102207765
46	0xbd549abf	-0.05190539
47	0xbe10d02f	-0.14141916
48	0x3dcff0f1	0.10153378
49	0x3d99c521	0.075083025
50	0xbd314f3a	-0.043288447
51	0xbd922607	-0.071361594
52	0xbdc53f6b	-0.09631237
53	0x3cbde46c	0.02318021
54	0xbd914784	-0.07093719
55	0x3b897268	0.0041945465
56	0x3daa0fdb	0.083038054
57	0xbda4ba47	-0.08043342
58	0x3cfd5f01	0.03092909
59	0x3d1ca162	0.038239844
60	0xbd2d3294	-0.042284563
61	0x3cef2268	0.02919121
62	0xbd8c0327	-0.06836539
63	0x3d3d4b61	0.046214465
64	0x3d121f9e	0.035674684
65	0xbd49a7ec	-0.04923241
66	0x3dd3470e	0.10316287
67	0xbd5c21ac	-0.05374305
68	0xbde4ef39	-0.111784406
69	0xbd542257	-0.05179056
70	0xbd9810da	-0.07425089
71	0xbd91c024	-0.07116726
72	0xbd3f2cf8	-0.046673745
73	0xbe108682	-0.1411381
74	0xbb893a98	-0.004187893
75	0x3db20682	0.086926475
76	0x3d508699	0.050909612
77	0xbd97fe2a	-0.07421525
78	0x3d634aff	0.055491444
79	0xbd99a292	-0.07501711
80	0xbdb829b3	-0.089923285
81	0x3d5460b9	0.051850054
82	0xbd90fb6a	-0.070792034
83	0x3daa267c	0.083081216
84	0xbd7add40	-0.061246157
85	0x3d736be1	0.059429053
86	0x3dcb43f2	0.09925069
87	0x3dfeceef	0.12441813
88	0x3d04030e	0.032229476
89	0x3cac22ac	0.021012627
90	0x3d53aa53	0.051676106
91	0xbd1d52ea	-0.03840915
92	0xbc64e595	-0.013970752
93	0xbd3c9a65	-0.04604568
94	0xbdba3f05	-0.09094051
95	0xbcff1627	-0.031138493
96	0xbd8c4180	-0.06848431
97	0x3cd2c3b1	0.025728079
98	0x3dc50985	0.09620956
99	0x3d630717	0.055426683
100	0x3d489718	0.04897222
101	0xbd61cf2a	-0.055129208
102	0xbe03fa87	-0.12888537
103	0x3ddb7152	0.107149735
104	0x3dfd4927	0.12367468
105	0x3dfea45e	0.12433694
106	0x3c0697c5	0.008214896
107	0xbd5645f7	-0.052312817
108	0xbdd2b1d4	-0.10287824
109	0x3d067ceb	0.032833975
110	0x3d5db551	0.054127995
111	0x3dbf805e	0.09350656
112	0xbdda26b3	-0.106519125
113	0xbda3f8bf	-0.08006429
114	0xbce81058	-0.028328106
115	0xbe0ca9aa	-0.13736597
116	0xbd8e0325	-0.069341935
117	0x3d47af5d	0.048751224
118	0x3d747a3b	0.05968688
119	0xbe567596	-0.20943293
120	0xbdedb865	-0.11607436
121	0xbdc7e99a	-0.09761353
122	0x3cb12a6e	0.021626677
123	0xbd9cf37a	-0.07663627
124	0xbc990244	-0.018677838
125	0xbd405419	-0.0469552
126	0xbc6241e5	-0.013809656
127	0xbe037cdb	-0.12840597
128	0x3d3ebc66	0.04656639
129	0x3d21a56f	0.03946441
130	0x3c3b9fd8	0.011451684
131	0xbdac708d	-0.08419905
132	0x3d91bd39	0.071161695
133	0x3a6947ba	0.0008898933
134	0x3d295b70	0.041346967
135	0xbe062723	-0.13100867
136	0x3d0c6fb2	0.03428621
137	0x3d29f751	0.041495625
138	0xbc29951b	-0.010350491
139	0x3cef3066	0.029197883
140	0xbd4860fb	-0.048920613
141	0xbe175d04	-0.14781576
142	0xbd29fc29	-0.041500244
143	0xbdb9e54a	-0.090769365
144	0xbd03c8a0	-0.032173753
145	0xbd603af8	-0.054743737
146	0xbdcdd34f	-0.100500695
147	0xbaf8fc8e	-0.0018996166
148	0x3d609db9	0.054837916
149	0x3be53a97	0.00699551
150	0xbd55771a	-0.052115537
151	0xbd25fae1	-0.04052246
152	0xbdfb97db	-0.122848235
153	0x3d74cac8	0.0597637
154	0xbcaef713	-0.021358049
155	0xbdf1068b	-0.11768826
156	0xbdbce0e7	-0.09222584
157	0x3cb54463	0.022127336
158	0xbd3fc8a6	-0.046822213
159	0xbdf06f72	-0.117400065
160	0x3d2166f7	0.039404836
161	0x3d84e7d6	0.06489532
162	0xbd928ae1	-0.07155395
163	0xbd5ae791	-0.053443495
164	0x3de927a3	0.11384513
165	0xbe0511d5	-0.12995084
166	0xbd2e062c	-0.042486355
167	0x3deff088	0.117157996
168	0x3d1536a7	0.036429074
169	0xbdde68e1	-0.10859848
170	0xbbf6611a	-0.0075188996
171	0x3d103756	0.035209022
172	0x3b90462e	0.0044028973
173	0x3c575f40	0.013145268
174	0xbde2e312	-0.110784665
175	0xbada3b36	-0.0016649726
176	0x3df5314f	0.119722955
177	0xbcc938f4	-0.02456329
178	0xbe58436a	-0.21119466
179	0xbd48e6c3	-0.049048197
180	0x3bee42f0	0.007271163
181	0x3d30ac19	0.043132875
182	0x3d965b91	0.07341684
183	0xbdbd58ed	-0.09245477
184	0x3d3ae45f	0.045627948
185	0xbc4ffd31	-0.012694643
186	0xbb664ee9	-0.003514225
187	0xbe1bf62f	-0.1523063
188	0x3d3c5596	0.04598006
189	0xbd2d508a	-0.042313136
190	0xbd53fe91	-0.051756445
191	0xbbe5ebaf	-0.007016621
192	0x3d8c76e7	0.06858616
193	0xbd10201f	-0.035186883
194	0x3de6df54	0.11273065
195	0x3e0500d7	0.12988602
196	0xbd81abd0	-0.06331599
197	0xbd104fa8	-0.035232216
198	0x3da2214a	0.07916506
199	0x3b4de73f	0.003141835
200	0x3d74dba1	0.059779767
201	0x3cd46758	0.025928184
202	0x3d34a046	0.04409816
203	0x3c84232b	0.01613005
204	0x3db1bb30	0.08678281
205	0xbca2f38a	-0.01989152
206	0xbdf8d197	-0.12149351
207	0x3dd71e9b	0.105038844
208	0xbbe3ba08	-0.006949667
209	0xbdf2bf3f	-0.118528835
210	0x3d7de27f	0.06198358
211	0xbe128bdd	-0.14311166
212	0xbdd7f7fe	-0.10545348
213	0xbd8aeb42	-0.06783153
214	0xbdaf4898	-0.08558768
215	0xbd2d96b5	-0.042380054
216	0xbc9a047e	-0.01880097
217	0xbdee28f3	-0.11628904
218	0xbd16c01c	-0.036804304
219	0x3dea0bff	0.11428069
220	0xbd9aa649	-0.075512476
221	0x3c5b7934	0.013395596
222	0xbd834775	-0.06410114
223	0x3cfacb8d	0.030614639
224	0xbe081bb9	-0.13291825
225	0x3de8742a	0.113502815
226	0x3da87f24	0.08227375
227	0xbd989d91	-0.074519284
228	0x3b757666	0.0037454604
229	0xbd8bfa39	-0.068348356
230	0x3d4a53ba	0.049396254
231	0xbd2601ce	-0.040529065
232	0xbd83aca9	-0.06429417
233	0xbe01121a	-0.12604561
234	0xbd89ac21	-0.06722284
235	0xbdd056df	-0.10172819
236	0xbc6e98b2	-0.014562773
237	0x3c917e39	0.017760383
238	0xbd928795	-0.071547665
239	0x3dc57636	0.096416876
240	0xbde544ff	-0.111948006
241	0xbd4c1243	-0.049822103
242	0xbc4c27a1	-0.01246062
243	0x3d4029ee	0.046914987
244	0xbd377593	-0.044789862
245	0x3c5af28b	0.013363491
246	0x3ddcb526	0.10776739
247	0xbd440857	-0.047859516
248	0xbd00135c	-0.031268463
249	0x3deebe56	0.116573974
250	0xbd344698	-0.044012636
251	0xbdc51732	-0.09623565
252	0x3d9c06dc	0.07618496
253	0x3e06b57f	0.13155173
254	0x3dc70a36	0.097187445
255	0xbdc1b958	-0.0945918

bias f4 [256]
0	0x3ea82c72	0.3284641
1	0xbb3038ed	-0.00268894
2	0x3e49003f	0.19629
3	0x3e337d2d	0.1752822
4	0x3dec8c5e	0.115502104
5	0xbd8a873f	-0.067640774
6	0xbcdd5ef2	-0.027022813
7	0x3caa9d70	0.020827025
8	0x3b966db1	0.004590713
9	0x3e1f40ed	0.15552111
10	0x3ea2e69a	0.3181656
11	0x3b3a2309	0.002840223
12	0xbcdf9a41	-0.027295234
13	0xbc47cb47	-0.012194461
14	0x3e71cb96	0.23612818
15	0xbd5a2fdf	-0.05326831
16	0xbc853e36	-0.016265016
17	0xbc84c723	-0.016208237
18	0x3e9bebdf	0.30453393
19	0x3d9d2f3a	0.076750234
20	0x3e39202b	0.18078677
21	0x3ea987e8	0.331115
22	0xbd3d9b3e	-0.04629063
23	0xbcf0d261	-0.029397191
24	0x3e7d2f1a	0.24724999
25	0x3e0854d7	0.13313614
26	0x3df99e39	0.12188382
27	0x3e5ca4ee	0.2154729
28	0x3e554488	0.20826924
29	0x3e8c85cd	0.27445832
30	0x3e454470	0.19264388
31	0xbbb9508c	-0.005655354
32	0x3e4560ac	0.19275159
33	0x3e82c0df	0.25537774
34	0x3e11ca6e	0.14237377
35	0x3c5f34bb	0.013623412
36	0x3e6db279	0.23212613
37	0x3e5cf404	0.2157746
38	0x3e6a717a	0.2289485
39	0xbdbfa0f6	-0.09356873
40	0xbc130c21	-0.00897506
41	0x3e83e8d4	0.2576357
42	0x3e58855b	0.21144621
43	0x3b41eac0	0.0029589385
44	0x39c6f406	0.00037947315
45	0x3e8f45a4	0.2798282
46	0x3e821293	0.25404796
47	0x3e62efa0	0.22161722
48	0x3e37eb29	0.179608
49	0xbc26d9cf	-0.010183766
50	0xbb44edf6	-0.0030049062
51	0x3eadc89d	0.33942118
52	0x3e90ea8c	0.28303945
53	0x3e83ebe5	0.2576591
54	0x396cebad	0.0002259451
55	0x3e0d3d8b	0.13793008
56	0x3e9946ad	0.29936734
57	0xbc6ccdd1	-0.014453367
58	0x3df7a49f	0.12091946
59	0x3e385aed	0.18003435
60	0xbd229a35	-0.039697845
61	0x3c363a1b	0.011122252
62	0x3e809b63	0.2511855
63	0x3e562aaa	0.20914713
64	0xbd2ba398	-0.041904062
65	0x3be91623	0.0071132346
66	0x3e18dcf5	0.14928038
67	0x3e902114	0.28150237
68	0x3e553a50	0.20823026
69	0x3eab64ec	0.33475435
70	0x3e786795	0.24258263
71	0xbc9aa7d0	-0.018878847
72	0x3e4a19bf	0.19736384
73	0x3ea8d8c0	0.32977867
74	0x3e861abc	0.26192272
75	0xbc165c76	-0.009177318
76	0x3ead443a	0.33841115
77	0xbb927842	-0.0044699023
78	0x3e16e6ff	0.14736556
79	0xbcf1889c	-0.029484086
80	0x3c5c1b48	0.013434239
81	0x3e82508c	0.25452077
82	0x3e916326	0.28395957
83	0x3b1a70f6	0.0023565865
84	0x3bf81be6	0.007571685
85	0x3dbf2565	0.09333304
86	0xbb773d81	-0.0037725868
87	0xbcb985e9	-0.022646861
88	0x3ea6e7f2	0.32598835
89	0x3e45c234	0.19312364
90	0xbd11799a	-0.03551636
91	0x3d24480c	0.04010777
92	0x3ca6e619	0.020373391
93	0x3be21826	0.0068998514
94	0x3dae3aac	0.085072845
95	0x3e56c738	0.20974433
96	0x3ea053a4	0.31313813
97	0xbd385610	-0.04500395
98	0x3e937634	0.2880112
99	0x3e81c06a	0.25342113
100	0x3e879dc1	0.26487544
101	0xbcff62d9	-0.031175064
102	0xbd2cdf07	-0.042204883
103	0x3d8a8bbc	0.067649335
104	0x3e4b6d56	0.19865927
105	0x3e6a35c6	0.22872075
106	0x3e65c12d	0.22436972
107	0xbbb95110	-0.0056554154
108	0x3e8ab271	0.27089265
109	0x3e8d0d65	0.27549282
110	0x3e8cc63c	0.2749499
111	0x3e86b1e7	0.26307604
112	0x3ea4aa45	0.32161155
113	0xbc991d69	-0.018690782
114	0x3ebef1d4	0.37293875
115	0x3e6adefb	0.22936623
116	0x3be11b34	0.006869698
117	0x3e8d0bf2	0.27548176
118	0xbc617f5e	-0.013763277
119	0xbca1f763	-0.019771283
120	0x3e7038b0	0.23459125
121	0xbbba2b3a	-0.0056814225
122	0x3e5320da	0.20618
123	0x3e764e25	0.24053247
124	0x3ea86b42	0.3289433
125	0xbca982ec	-0.020692311
126	0x3e79ba62	0.24387506
127	0x3c0a5fb7	0.008445672
128	0xbb2857b8	-0.002568705
129	0x3e8d75b0	0.2762885
130	0x3bffbd9d	0.007804586
131	0x3e50d6a2	0.20394376
132	0xbccd48ae	-0.02505907
133	0x3e836b35	0.2566773
134	0x3a57dc31	0.000823441
135	0x3e807d28	0.25095487
136	0x3e979249	0.29603794
137	0x3ba06342	0.004894645
138	0xbba549cc	-0.0050441977
139	0x3e934601	0.28764346
140	0x3e0f4da0	0.13994455
141	0x3b98b289	0.004659955
142	0x3e81b60d	0.25334206
143	0x3df5ad78	0.11995977
144	0x3e97a836	0.29620522
145	0x3e97d36a	0.29653484
146	0x3e172522	0.14760259
147	0x3e82dfd2	0.25561386
148	0x3eac306b	0.3363069
149	0x3e1c6682	0.15273479
150	0x3e90e32b	0.28298315
151	0xbd274c50	-0.04084426
152	0x3e56462c	0.20925206
153	0xbcb9e657	-0.022692842
154	0x3cb84c7a	0.022497404
155	0x3dfa44b8	0.12220138
156	0x3e6d090d	0.23147984
157	0x3ea4e83b	0.32208428
158	0xbd287c22	-0.041134007
159	0x3dd56023	0.10418727
160	0x3e20b668	0.15694582
161	0x3de09acb	0.109670244
162	0x3e38f748	0.1806308
163	0xbd20127c	-0.039080128
164	0x3e8acf95	0.27111498
165	0xbcdd41f7	-0.027008994
166	0xbcaa2c24	-0.020773001
167	0xbcc9551f	-0.024576722
168	0x3e5bce98	0.21465528
169	0x3e6d46be	0.23171517
170	0xbceb38cd	-0.028713608
171	0x3de92326	0.11383657
172	0x3e76252a	0.24037614
173	0xbc05d994	-0.00816955
174	0x3e7f0333	0.24903564
175	0x3e811153	0.2520853
176	0x3dfa17f0	0.12211597
177	0x3c38cb18	0.01127889
178	0x3e832287	0.2561228
179	0xbd1bf84c	-0.03807859
180	0x3dfb9210	0.122837186
181	0x3e9ca394	0.3059355
182	0x3c0ebc8c	0.008711945
183	0xbb5d1203	-0.003373266
184	0x3e7d98e8	0.2476536
185	0x3e1bb68b	0.15206353
186	0x3e7a48bb	0.24441807
187	0xbb9993c4	-0.0046868045
188	0xbcc686f9	-0.024234282
189	0x3e756442	0.23964027
190	0x3e94955a	0.29020196
191	0x3e892b57	0.26790878
192	0x3e46f25b	0.19428389
193	0x3e0fd228	0.14045012
194	0x3e870c7c	0.26376712
195	0x3eab91d5	0.335097
196	0x3e94155d	0.2892255
197	0x3b63df92	0.003477071
198	0x3e9225a5	0.28544345
199	0x3e648bf9	0.2231902
200	0x3de7829a	0.11304207
201	0x3de13aa5	0.10997514
202	0x3e931fab	0.28735098
203	0x3e815dc6	0.25266856
204	0xbbad489b	-0.0052881963
205	0x3e7b0e0e	0.2451708
206	0xbc6c9ab4	-0.014441181
207	0xbb607bae	-0.0034253406
208	0x3e5e2ff2	0.21697977
209	0x3e796cdd	0.24357934
210	0x3e88fb8d	0.26754418
211	0x3e54b633	0.20772628
212	0xbbab4493	-0.0052266805
213	0x3e5ccadc	0.2156176
214	0xbc577f02	-0.01315284
215	0x3eae52bd	0.340475
216	0x3dde591d	0.10856841
217	0x3e3f9fda	0.18713322
218	0x3e801c0f	0.25021407
219	0x3e8df120	0.27723026
220	0x3c4cfea5	0.012511884
221	0x3e78d22b	0.24298923
222	0xbcf5ac4e	-0.029989388
223	0x3dc0a364	0.09406164
224	0xbc47acc2	-0.012187185
225	0x3e8ec5d1	0.27885297
226	0xbc924b58	-0.017858192
227	0x3e981efc	0.2971114
228	0xbd40ff84	-0.04711868
229	0xbc99748e	-0.018732335
230	0x3e6067f3	0.21914653
231	0x3e98ea7d	0.298664
232	0x3e80dd6b	0.25168929
233	0xbc21008f	-0.009826793
234	0x3c0d7605	0.008634095
235	0xbd3f4ec2	-0.04670597
236	0x3e8930da	0.26795083
237	0x3bb2ae46	0.005452904
238	0x3e88218b	0.2658809
239	0x3e8b1cd3	0.2717043
240	0x3e8cd968	0.27509618
241	0xbc7941ff	-0.015213489
242	0x3d1c40e7	0.038147833
243	0x3e7cb8ac	0.24679822
244	0x3e230516	0.15919909
245	0x3e0f577a	0.13998213
246	0x3e807157	0.2508647
247	0x3e8453a5	0.25845066
248	0xbc94674c	-0.018115662
249	0x3c642ad1	0.013926224
250	0x3e35403c	0.17700285
251	0xbba22d2e	-0.0049492335
252	0x3eaba19e	0.33521742
253	0x3e52ecb8	0.20598114
254	0x3e66cb8c	0.22538584
255	0x3eb58e9d	0.35460368

weight f4 [9, 256]
0	0x3d840d98	0.06447905
1	0x3d1ffe9c	0.039061174
2	0x3deb426d	0.11487279
3	0x3d9a6c28	0.075401604
4	0x3d8729de	0.065997824
5	0xbe2d786c	-0.16940469
6	0x3db9c763	0.09071233
7	0x3e26799d	0.1625733
8	0xbbc738cf	-0.00607977
9	0x3d77c797	0.060493078
10	0x3d6a8882	0.05725909
11	0x3e13dd6b	0.14439933
12	0xbe7bfc15	-0.2460788
13	0xbe084b57	-0.1330999
14	0x3e228b1f	0.15873383
15	0x3d6ef529	0.05833927
16	0x3dbca04f	0.09210264
17	0xbc53dffc	-0.01293182
18	0x3d80c783	0.06288054
19	0x3db21caa	0.086968735
20	0x3d84354f	0.0645548
21	0x3da3bf52	0.07995476
22	0xbe6f0d83	-0.23344998
23	0xbccc8432	-0.02496538
24	0x3d9ca9ff	0.07649612
25	0x3d97f6e8	0.074201405
26	0x3d6ab463	0.057300936
27	0x3d961b47	0.073294215
28	0x3d5c53a6	0.05379071
29	0x3d5e96ec	0.05434315
30	0x3d867839	0.065658994
31	0xbc7bfd0f	-0.015380158
32	0x3d9e91eb	0.077426754
33	0x3d550fa9	0.052016888
34	0x3d9c1b9d	0.07622454
35	0x3e4301e5	0.19043691
36	0x3d87f496	0.06638448
37	0x3d9f04f6	0.07764618
38	0x3d973e34	0.07384911
39	0xbc893f46	-0.016753804
40	0xbe74868a	-0.23879448
41	0x3d7195a1	0.058980588
42	0x3d8b8cda	0.06813975
43	0xbdde4cb4	-0.10854474
44	0x3cf167f3	0.029468512
45	0x3d74ece4	0.05979623
46	0x3d640cae	0.055676155
47	0x3daa3504	0.08310893
48	0x3d9692a5	0.07352189
49	0xbe66024c	-0.22461814
50	0xb9caa38a	-0.00038650288
51	0x3d9632f4	0.07333937
52	0x3d759f88	0.059966594
53	0x3da4c910	0.08046162
54	0x3dadf295	0.084935345
55	0x3d54d307	0.051959064
56	0x3db1d2e3	0.086828016
57	0xbe7cd164	-0.24689251
58	0x3d947bd7	0.07250183
59	0x3d794e37	0.060865607
60	0xbd9c5477	-0.07633298
61	0xbdcd465d	-0.10023186
62	0x3da8dc52	0.08245148
63	0x3d876767	0.06611519
64	0xbe67efc3	-0.22650056
65	0xbdac6868	-0.084183514
66	0x3d7f1065	0.062271494
67	0x3d8988c1	0.06715537
68	0x3d87a517	0.06623285
69	0x3d7ef8ee	0.062249117
70	0x3d883765	0.06651191
71	0xbe1f37bb	-0.15548603
72	0x3e1cf1fb	0.15326683
73	0x3db4d45c	0.08829567
74	0x3e3a413d	0.18188949
75	0xbd9135a6	-0.07090311
76	0x3d970d4d	0.07375584
77	0x3e1e8df3	0.15483837
78	0x3d8d5e0f	0.06902706
79	0xbe33bd99	-0.17552795
80	0xbe6a0aab	-0.22855632
81	0x3d8e3864	0.069443494
82	0x3d6d0dab	0.057874363
83	0xbe5acd57	-0.21367393
84	0xbe0bae7c	-0.1364078
85	0x3d92c211	0.071659215
86	0xbe302323	-0.17200904
87	0xbe182477	-0.1485766
88	0x3d89ead2	0.067342415
89	0x3d8dedd4	0.06930128
90	0x3e02678c	0.12734812
91	0xbe13515f	-0.1438651
92	0xbde23245	-0.110447444
93	0xbe7db661	-0.24776603
94	0x3da20587	0.079112105
95	0x3d6ebff5	0.058288533
96	0x3d9088cd	0.07057343
97	0xbe2850ab	-0.16437022
98	0x3da5a899	0.08088798
99	0x3d8f5de0	0.07000327
100	0x3d7fbaa1	0.062433843
101	0xbbf521ad	-0.007480821
102	0x3de53334	0.11191407
103	0x3d2d234d	0.042269994
104	0x3d85aa1c	0.065265864
105	0x3d83be32	0.06432761
106	0x3d9a35b7	0.075297765
107	0x3dcbed68	0.09957391
108	0x3d8aea6c	0.06782994
109	0x3d90bcdb	0.07067271
110	0x3d827994	0.063708454
111	0x3dc73a8a	0.09727962
112	0x3d911d12	0.07085623
113	0x3e17303d	0.14764495
114	0x3d2bb6f7	0.041922536
115	0x3d8ab242	0.06772281
116	0xbd3be071	-0.04586834
117	0x3d78ecfd	0.060772885
118	0x3cc5bba7	0.024137331
119	0xbe2b4a83	-0.16727643
120	0x3d8c33e0	0.06845832
121	0xbe898ad2	-0.26863724
122	0x3d8a0fc0	0.06741285
123	0x3d9c41a0	0.076297045
124	0x3d857a97	0.06517523
125	0x3d828c7b	0.06374451
126	0x3d80cd8c	0.06289205
127	0x3df4e285	0.11957268
128	0xbbe74d58	-0.0070587806
129	0x3d8e6e3b	0.069546185
130	0xbe3fb394	-0.18720847
131	0x3d804d23	0.06264713
132	0xbe55087e	-0.20804021
133	0x3d7eb37d	0.062182892
134	0xbe99add9	-0.30015448
135	0x3daed76d	0.08537183
136	0x3d9e7b7a	0.07738395
137	0x3cde9260	0.027169406
138	0x3d816987	0.06318956
139	0x3d850bd9	0.064964004
140	0x3da9e0fa	0.08294864
141	0xbdc09c2f	-0.0940479
142	0x3d8eaed7	0.06966942
143	0x3da4401c	0.080200404
144	0x3d4dfd7e	0.050290577
145	0x3db0cab0	0.086324096
146	0x3d8f9c4e	0.07012235
147	0x3d9908ec	0.07472405
148	0x3d9ae458	0.07563084
149	0x3d80927d	0.062779404
150	0x3d8ead60	0.069666624
151	0xbe9370bd	-0.2879695
152	0x3d6c45bb	0.057683688
153	0xbdb70a6d	-0.089375354
154	0x3e5c2e51	0.21502043
155	0x3d8f3969	0.06993372
156	0x3d989838	0.074509084
157	0x3d6d3800	0.057914734
158	0x3dae8541	0.0852151
159	0x3d971dbb	0.073787175
160	0x3d911c3a	0.07085462
161	0x3d83588e	0.06413375
162	0x3d669f5d	0.056304324
163	0x3c7624e2	0.015023442
164	0x3d757ff5	0.059936482
165	0x3da9fbf4	0.08300009
166	0xbe01db7f	-0.12681387
167	0x3e1dcca6	0.15410098
168	0x3d9f93da	0.07791872
169	0x3d7e4d5a	0.062085487
170	0xbdfa6463	-0.122261785
171	0x3d4f39f4	0.050592378
172	0x3d932014	0.07183853
173	0xbe859285	-0.26088348
174	0x3d7010dd	0.058609832
175	0x3d9cbd83	0.07653334
176	0x3d9d980c	0.07695016
177	0x3d8fc657	0.07020252
178	0x3d7bc360	0.06146562
179	0xbe2be492	-0.16786411
180	0x3d9af6ec	0.07566628
181	0x3d7c7097	0.06163081
182	0x3e38a28a	0.18030754
183	0xbe47248d	-0.19447537
184	0x3d89386a	0.06700213
185	0x3d907cd0	0.07055056
186	0x3d4ebed8	0.05047497
187	0x3e2bb1a1	0.16766979
188	0xbe1264c4	-0.14296252
189	0x3d8b8502	0.068124786
190	0x3d812b1c	0.063070506
191	0x3d8f5a7e	0.06999682
192	0x3d844d24	0.06460026
193	0x3d9037e0	0.07041907
194	0x3d943237	0.0723614
195	0x3d8abb3e	0.06773995
196	0x3d9b6066	0.07586746
197	0xbe9dc4bf	-0.30814168
198	0x3d89932a	0.067175224
199	0x3d557e24	0.05212225
200	0x3d6d8d27	0.05799594
201	0x3d8bae0e	0.06820308
202	0x3d93065d	0.07178948
203	0x3d7c2643	0.061559927
204	0xbdf25511	-0.118326314
205	0x3dab91c4	0.08377412
206	0xbea17ed8	-0.31542087
207	0xbe43d785	-0.19125183
208	0x3d79e0e9	0.061005507
209	0x3d7d1e47	0.061796453
210	0x3d6bec2c	0.057598278
211	0x3dd00ba1	0.10158468
212	0x3dde1346	0.1084352
213	0x3da36796	0.07978742
214	0xbdd3e706	-0.103467986
215	0x3d4e1f62	0.050322898
216	0x3d8d6ff1	0.06906117
217	0x3d683ce2	0.056698687
218	0x3d72ff11	0.05932528
219	0x3d769bee	0.0602073
220	0xbe869070	-0.26282072
221	0x3d84d9aa	0.064868286
222	0xbe80d99c	-0.25166023
223	0x3d9220ce	0.07135163
224	0xbd87b45d	-0.066261984
225	0x3d7f2401	0.062290195
226	0x3aca720c	0.0015445366
227	0x3d337da1	0.04382098
228	0xbe86110f	-0.2618489
229	0xbdfe4e18	-0.12417239
230	0x3d766c21	0.060161714
231	0x3da0d2ea	0.07852729
232	0x3d896455	0.0670859
233	0x3da03983	0.078234695
234	0xbe81d2ac	-0.25356042
235	0x3d408a97	0.04700717
236	0x3d60154b	0.054707807
237	0xbda9f874	-0.08299342
238	0x3daeb393	0.08530345
239	0x3d8a9737	0.06767123
240	0x3d5ad8cf	0.05342942
241	0xbe650fc2	-0.22369292
242	0xbd8e0609	-0.06934745
243	0x3d7ca6d8	0.061682552
244	0x3d56a952	0.05240757
245	0x3d8284cd	0.06372986
246	0x3d557d14	0.052121237
247	0x3d72fcd8	0.05932316
248	0x3e034ec9	0.12823023
249	0x3d2de9fb	0.04245947
250	0x3d7b05ed	0.06128495
251	0xbd0cf120	-0.034409642
252	0x3d93bedc	0.07214138
253	0x3d7a21b2	0.06106729
254	0x3e19121c	0.14948314
255	0x3d7540b9	0.059876177

bias f4 [9]
0	0x3f25b8c1	0.6473504
1	0x3f219ef1	0.6313315
2	0x3f29c530	0.6631651
3	0x3f128af1	0.5724326
4	0x3f1228c1	0.57093436
5	0x3f25d189	0.6477285
6	0x3f2c75a1	0.6736699
7	0x3f380462	0.7188169
8	0x3f437a46	0.7635845
