animation_dqn/models/second.pt (torch, 565580 bytes, 8 tensors)

weight f4 [256, 16]
0.19104624 0.28034142 -0.18200257 0.2847212 -0.2579933 0.3385867 0.297254 -0.33271533
-0.29607072 0.047816712 -0.14692079 -0.30909202 0.3514794 0.1142466 0.24646175 -0.5351691
-0.4545139 -0.46279764 0.51600826 -0.29735917 0.020067165 0.45452705 -0.07232067 0.0051201866
-0.010279906 0.15379979 0.0011432543 0.06686093 -0.5689478 -0.46564785 0.09059387 -0.45443922
-0.12793112 0.31274337 0.31252283 0.43730918 0.1785935 0.0201908 0.26564395 0.38061807
0.20779459 -0.41764757 -0.10866458 -0.32237157 -0.3821034 0.2522965 -0.19578148 -0.18886925
0.28209594 -0.5685827 -0.1925643 0.36659566 0.47133484 -0.26962832 -0.007981386 0.18809414
0.4496909 -0.28660974 -0.039719403 0.3193527 0.34149492 -0.4898803 -0.56070966 -0.44052082
0.09277874 -0.38754007 0.065747865 -0.0053488514 -0.49446067 -0.25934967 -0.043734092 0.49037755
-0.12416971 -0.0008070565 -0.5496322 0.4672884 0.12111131 -0.021233512 0.1527587 -0.26323074
-0.31116828 -0.5160451 0.23354158 0.07544393 -0.4020189 0.3070974 0.07937402 0.3418945
-0.013216269 -0.4291365 0.08470096 0.07156192 -0.4237434 -0.4187081 -0.12821804 0.30463183
-0.30812994 -0.0062210425 0.4069259 -0.25745085 0.023294816 0.076752014 0.2759992 -0.5729398
0.25991014 0.4229793 -0.019829297 0.024761612 -0.20336324 -0.2699155 0.41614386 0.35627055
0.06522453 -0.27375928 0.15714109 -0.3528714 0.467784 0.09500561 -0.48113412 -0.55687726
0.42990866 -0.43897554 -0.0049986523 -0.04190467 0.036478713 -0.37703338 -0.50574523 0.23151515
-0.12377807 0.06307427 0.13851088 0.53402007 -0.35531563 0.22780825 -0.3657969 -0.25558242
0.19857877 -0.44798693 -0.05476724 -0.11315366 0.26328954 -0.36422017 0.009679908 -0.4456616
-0.023700343 -0.4677451 -0.36134446 -0.108960375 -0.07818833 0.46019235 0.12069416 0.2687013
-0.42028597 -0.48916975 0.071367815 -0.22732648 0.43385732 0.2952007 0.05402917 0.065144196
-0.04270396 0.28412822 0.04413629 0.33702812 -0.3305637 0.39407006 -0.4118074 0.02443656
-0.44938257 0.11314025 -0.21931806 0.21768285 0.3843896 -0.2522196 0.45801908 -0.29744118
-0.47498783 0.022067312 0.40863523 -0.31552246 -0.2292792 0.18427801 0.30007595 0.45536456
0.36189225 -0.52568156 -0.39010963 0.061346315 -0.16371442 -0.239491 -0.066158116 0.22738934
0.03860093 -0.5067476 0.40148658 0.4636654 -0.34452948 -0.46329036 -0.45683375 0.5510493
-0.44706574 -0.33847886 -0.009080729 0.16170283 0.20540267 0.207959 -0.39903554 -0.22629753
-0.25952023 0.13022341 0.2973219 -0.10810011 -0.06566293 0.29462016 -0.35756314 0.4283905
-0.36389267 -0.507803 -0.32622644 0.3275051 -0.5394641 0.41517472 0.2058029 0.25787178
-0.51760596 0.18135832 0.15351503 -0.18755345 0.051328804 0.1717066 0.017850757 -0.45547554
-0.0462199 -0.1650497 0.41206622 0.0018510566 0.3319988 0.37182775 -0.14950734 0.20849982
0.37234208 0.06558969 0.13110721 0.12829885 0.32615596 -0.09947755 0.4202184 -0.4452438
0.10093214 0.23873879 -0.22529979 -0.11716091 -0.19426222 0.44037482 0.34415883 -0.46806097
00000000: a0a1 433e e988 8f3e e25e 3abe fac6 913e
00000010: b317 84be 3c5b ad3e ad31 983e aa59 aabe
00000020: 9596 97be 75db 433d 6772 16be 4f41 9ebe
00000030: 1cf5 b33e 1ffa e93d 7860 7c3e d800 09bf
00000040: 0cb6 e8be d0f3 ecbe 1e19 043f 763f 98be
00000050: e563 a43c c5b7 e83e dc1c 94bd 3dc7 a73b
00000060: 0d6d 28bc b17d 1d3e 40d9 953a 62ee 883d
00000070: 90a6 11bf 6569 eebe 4789 b93d 42ac e8be
00000080: 6000 03be e61f a03e fe02 a03e fde6 df3e
00000090: 37e1 363e 2d67 a53c 7c02 883e 5fe0 c23e
000000a0: 1bc8 543e e7d5 d5be 898b debd e30d a5be
000000b0: 0fa3 c3be 022d 813e f17a 48be f166 41be
000000c0: e16e 903e a38e 11bf 932f 45be 6db2 bb3e
000000d0: cd52 f13e b90c 8abe 5cc4 02bc c09b 403e
000000e0: e33d e63e 83be 92be d0b0 22bd 3282 a33e
000000f0: 6cd8 ae3e 97d1 fabe ab8a 0fbf f28b e1be
00000100: c802 be3d a76b c6be d1a6 863d 6b45 afbb
00000110: f329 fdbe 7bc9 84be 8522 33bd c412 fb3e
00000120: b04c febd a590 53ba b2b4 0cbf 6d40 ef3e
00000130: 3509 f83d e7f1 adbc c76c 1c3e 2ec6 86be
00000140: 7351 9fbe 881b 04bf 8625 6f3e 5982 9a3d
00000150: 6cd5 cdbe df3b 9d3e d98e a23d cc0c af3e
00000160: 0d89 58bc c8b7 dbbe b277 ad3d 0e8f 923d
00000170: e5f4 d8be e860 d6be 974b 03be b4f8 9b3e
00000180: 35c3 9dbe e3d9 cbbb 9758 d03e 99d0 83be
00000190: c5d4 be3c 2930 9d3d c44f 8d3e 2fac 12bf
000001a0: f112 853e be90 d83e 0d71 a2bc ddd8 ca3c
000001b0: 743e 50be 5d32 8abe cf10 d53e 1869 b63e
000001c0: 7094 853d 2d2a 8cbe 98e9 203e 8fab b4be
000001d0: 6281 ef3e 4d92 c23d 3657 f6be 828f 0ebf
000001e0: fd1c dc3e 67c1 e0be bccb a3bb 3ba4 2bbd
000001f0: b46a 153d 850a c1be 8578 01bf 4f12 6d3e
00000200: 5b7f fdbd 152d 813d ccd5 0d3e 8ab5 083f
00000210: eeeb b5be 9146 693e bb49 bbbe b3db 82be
00000220: 3c58 4b3e 8b5e e5be 9d53 60bd 1bbd e7bd
00000230: e3cd 863e 117b babe 7a98 1e3c c22d e4be
00000240: 3927 c2bc 497c efbe 2402 b9be 9e26 dfbd
00000250: 3421 a0bd 559e eb3e 802e f73d 3793 893e
00000260: b92f d7be 7574 fabe 4a29 923d 46c8 68be
00000270: 8c22 de3e 8c24 973e b14d 5d3d 526a 853d
00000280: 59ea 2ebd 4179 913e 41c8 343d f38e ac3e
00000290: a53f a9be 8dc3 c93e 6bd8 d2be 2e2f c83c
000002a0: 7915 e6be 13b6 e73d ea94 60be 41e8 5e3e
000002b0: b7ce c43e ed22 81be 7a81 ea3e 364a 98be
000002c0: 9b31 f3be 82c6 b43c a338 d13e 298c a1be
000002d0: 2bc8 6abe 60b3 3c3e 8ea3 993e 8b25 e93e
000002e0: f149 b93e 1193 06bf 73bc c7be 4646 7b3d
000002f0: c1a4 27be 213d 75be e87d 87bd c0d8 683e
00000300: 021c 1e3d 36ba 01bf a68f cd3e 8d65 ed3e
00000310: 2b66 b0be 6534 edbe 1de6 e9be 9111 0d3f
00000320: cde5 e4be 1a4d adbe 57c7 14bc 6d95 253e
00000330: 1455 523e 34f3 543e 634e ccbe 8aba 67be
00000340: d6df 84be 4959 053e 933a 983e 9763 ddbd
00000350: 497a 86bd 74d8 963e 8412 b7be 0056 db3e
00000360: 2450 babe 61ff 01bf 2707 a7be c0ae a73e
00000370: 521a 0abf c891 d43e ffbd 523e c507 843e
00000380: d381 04bf ffb5 393e 0b33 1d3e 030e 40be
00000390: 273e 523d dbd3 2f3e c03b 923c 1734 e9be
000003a0: 1451 3dbd ca02 29be 58fa d23e 279f f23a
000003b0: bffb a93e 3560 be3e 7418 19be fa80 553e
000003c0: 9fa3 be3e e353 863d f840 063e c660 033e
000003d0: eafd a63e e3ba cbbd de26 d73e fff6 e3be
000003e0: 83b5 ce3d f177 743e fdb4 66be 0ff2 efbd
000003f0: adec 46be cf78 e13e 9635 b03e b0a5 efbe

bias f4 [256]
0.0107536875 0.06699483 -0.041100416 -0.028895414 -0.024465442 0.018601157 -0.08781665 -0.015944453
0.0 -0.033748828 -0.0026334408 -0.033234086 0.009520743 -0.023385078 -0.08601377 -0.06954637
-0.10122776 -0.07232645 0.021736259 -0.10125364 -0.024579652 -0.019138267 -0.07307814 -0.026782926
-0.08500511 -0.09556368 -0.040071353 -0.047568876 -0.052314453 -0.004156279 -0.04635782 0.006083204
-0.09308588 -0.010464249 0.03787679 0.024919434 -0.053807393 -0.08133663 -0.0061045205 0.010526096
-0.02966852 -0.015975414 0.015456086 -0.046316054 -0.07568704 -0.00077200664 -0.05662665 0.018481314
-0.06781776 -0.015980951 -0.079015814 -0.06127293 -0.061561167 0.0030493212 -0.018585162 -0.05111236
-0.022498848 -0.060149703 0.016974458 -0.0054373327 -0.010651327 0.02393736 0.007733939 -0.041239817
-0.014885103 -0.040018342 0.0021677066 -0.028508402 -0.056297146 -0.025823912 0.019838296 -0.068240866
-0.020397782 -0.07523157 0.0 -0.09162195 -0.03498777 -0.0014205952 -0.014607096 0.017238023
-0.08077078 -0.012762106 -0.07174535 0.0054717246 0.043986764 0.015603336 -0.0033405393 0.0
0.00034044017 0.0020265402 -0.011714559 0.0 -0.04891777 0.0094140405 -0.02471523 -0.069720455
-0.100642174 0.043415364 0.060632538 0.006006443 -0.029396461 -0.027194 -0.0040209554 -0.046851017
-0.045587495 -0.07349188 -0.009483359 -0.0393315 -0.0071212016 -0.020309225 -0.044238333 -0.003158222
0.0075990176 0.0054545444 -0.049567685 -0.11407143 -0.10109253 -0.009431627 0.004473919 -0.011897208
-0.07844456 0.0 -0.009534545 0.01567603 0.0012713403 -0.012865039 0.036973316 -0.0015097692
-0.005245042 0.00918629 0.012310737 -0.021988997 0.0013520973 -0.023727909 -0.017806616 -0.055954218
-0.09460733 -0.032166347 -0.016513333 0.008969391 0.00016901513 0.0236817 -0.057439696 -0.07857235
-0.026898066 0.0 -0.031899683 -0.10041503 -0.00014266664 -0.03443402 -0.08736048 -0.012310122
-0.025177818 0.0060828854 -0.028442834 -0.029999906 -0.024173532 -0.036122277 -0.092549205 -0.032945745
-0.053347006 -0.048306923 -0.036541928 -0.002466409 0.013233299 -0.06365973 -0.10835307 -0.047331654
-0.028517518 -0.08713056 -0.028607205 -0.05613197 -0.008232597 -0.076906204 0.0013059705 0.007549224
-0.020764174 0.002972396 -0.006950508 0.052010473 0.028594943 0.025736708 -0.061940208 0.054862317
0.022152247 -0.08183949 -0.083928585 0.01723093 -0.10416215 0.008665416 -0.02463102 0.0020188496
-0.04768963 -0.056134485 0.0042588874 -0.057465244 0.0041691745 0.016803822 -0.03818171 -0.0058916556
0.007589609 0.017632997 -0.09049296 0.018664993 -0.0028947683 -0.04696258 -0.060262624 0.05917302
0.03906245 -0.0774106 -0.010096293 0.03584368 -0.10492723 0.0 0.018086871 -0.06600926
0.010816165 -0.021842934 0.0 0.0 -0.04842459 -0.06755291 -0.052288957 0.012317075
0.047154956 0.0018154752 -0.11115733 0.0008053291 -0.055393707 0.022766506 -0.00634388 0.001750446
-0.050517477 -0.056321982 -0.042824604 0.0025272022 -0.063670054 0.007949843 0.015115479 -0.051942464
-0.06765549 -0.079837404 -0.03142486 -0.042833257 -0.025407389 0.006746314 -0.09349168 -0.055162527
-0.001961182 -0.08818655 -0.096577525 0.0 -0.0011837228 0.0 -0.03761019 0.009157238
00000000: 3c30 303c 9634 893d e958 28bd 13b6 ecbc
00000010: c06b c8bc 7461 983c 37d9 b3bd f19d 82bc
00000020: 0000 0000 363c 0abd ce95 2cbb 7720 08bd
00000030: e4fc 1b3c 1092 bfbc fd27 b0bd 546e 8ebd
00000040: 8050 cfbd e41f 94bd 3d10 b23c 125e cfbd
00000050: 445b c9bc dbc7 9cbc fea9 95bd de67 dbbc
00000060: 2917 aebd e4b6 c3bd dc21 24bd 95d7 42bd
00000070: ae47 56bd 6531 88bb b3e1 3dbd 9d55 c73b
00000080: cfa3 bebd 3e72 2bbc b124 1b3d d723 cc3c
00000090: 2465 5cbd d293 a6bd 6e08 c8bb a675 2c3c
000000a0: 650b f3bc dfde 82bc 863b 7d3c e7b5 3dbd
000000b0: cf01 9bbd 7d60 4aba 59f1 67bd 2066 973c
000000c0: 0ae4 8abd 7cea 82bc 0bd3 a1bd 53f9 7abd
000000d0: 9027 7cbd 1fd7 473b e93f 98bc 325b 51bd
000000e0: 814f b8bc 895f 76bd 050e 8b3c a72b b2bb
000000f0: e782 2ebc 4818 c43c fc6c fd3b 15eb 28bd
00000100: a6e0 73bc 46ea 23bd 1510 0e3b 748a e9bc
00000110: d697 66bd ab8c d3bc ec83 a23c dec1 8bbd
00000120: 4019 a7bc 0213 9abd 0000 0000 4aa4 bbbd
00000130: 564f 0fbd 4433 baba 9a52 6fbc c136 8d3c
00000140: 276b a5bd 2718 51bc 3aef 92bd 274c b33b
00000150: 772b 343d 22a5 7f3c f3ec 5abb 0000 0000
00000160: 1b7d b239 b4cf 043b 6cee 3fbc 0000 0000
00000170: 005e 48bd 593d 1a3c 9877 cabc 99c9 8ebd
00000180: 7c1d cebd 4fd4 313d d359 783d b2d1 c43b
00000190: d9d0 f0bc f4c5 debc 38c2 83bb dae6 3fbd
000001a0: f4b9 3abd e982 96bd 1760 1bbc 111a 21bd
000001b0: f858 e9bb 885f a6bc 4133 35bd 2cfa 4ebb
000001c0: 2e01 f93b 09bc b23b 7c07 4bbd 489e e9bd
000001d0: 9a09 cfbd 1c87 1abc f499 923b 82ec 42bc
000001e0: 8ba7 a0bd 0000 0000 c836 1cbc 056b 803c
000001f0: 1aa3 a63a e2c7 52bc 5571 173d 73e3 c5ba
00000200: 9ade abbb 1882 163c f9b2 493c 4522 b4bc
00000210: db38 b13a 0861 c2bc 2edf 91bc 4030 65bd
00000220: 7dc1 c1bd dcc0 03bd f846 87bc 5af4 123c
00000230: a739 3139 2000 c23c e345 6bbd 8aea a0bd
00000240: 5559 dcbc 0000 0000 3ea9 02bd 65a6 cdbd
00000250: c998 15b9 b00a 0dbd 0dea b2bd 65b0 49bc
00000260: b641 cebc f152 c73b f200 e9bc 5dc2 f5bc
00000270: 9207 c6bc f4f4 13bd 708a bdbd 1ef2 06bd
00000280: 6482 5abd 7bdd 45bd fdac 15bd 7aa3 21bb
00000290: 7bd0 583c 0860 82bd 37e8 ddbd d6de 41bd
000002a0: 929d e9bc 8271 b2bd a859 eabc a3ea 65bd
000002b0: 04e2 06bc 0081 9dbd 192d ab3a 7b5f f73b
000002c0: a119 aabc 88cc 423b 16c1 e3bb ef08 553d
000002d0: f13f ea3c cad5 d23c 04b5 7dbd 4fb7 603d
000002e0: a178 b53c 769b a7bd c0e2 abbd e127 8d3c
000002f0: f752 d5bd 64f9 0d3c fec6 c9bc ad4e 043b
00000300: 3456 43bd 46ed 65bd 238e 8b3b ad60 6bbd
00000310: 929d 883b 2ba8 893c 6d64 1cbd ca0e c1bb
00000320: 41b2 f83b 1373 903c 5f54 b9bd 54e7 983c
00000330: 27b6 3dbb d65b 40bd f1d5 76bd 695f 723d
00000340: f3ff 1f3d 7389 9ebd ec6a 25bc d3d0 123d
00000350: 16e4 d6bd 0000 0000 eb2a 943c dd2f 87bd
00000360: 4936 313c f4ef b2bc 0000 0000 0000 0000
00000370: dd58 46bd 2e59 8abd f22c 56bd 8fcd 493c
00000380: 8e25 413d 3df5 ed3a 74a6 e3bd b91c 533a
00000390: 83e4 62bd d380 ba3c 53e0 cfbb 396f e53a
000003a0: 6aeb 4ebd e1b1 66bd da68 2fbd 6b9f 253b
000003b0: 7265 82bd 0f40 023c eaa6 773c 9fc1 54bd
000003c0: f68e 8abd cb81 a3bd 5bb7 00bd ed71 2fbd
000003d0: 2823 d0bc 2f10 dd3b 9178 bfbd 1af2 61bd
000003e0: 2d87 00bb 269b b4bd 70ca c5bd 0000 0000
000003f0: 2527 9bba 0000 0000 250d 1abd 3d08 163c

weight f4 [256, 256]
0.0904433 0.010932911 -0.070021085 -0.004258534 -0.0064964616 -0.09718524 0.028390773 0.03759826
-0.04726518 0.005361891 0.06616469 0.02189983 -0.04096838 -0.06424402 0.044579968 0.040934462
-0.0965088 0.098899595 0.08470404 -0.12590756 0.04137733 0.012360707 -0.1315391 0.01582111
0.12948969 0.050509986 0.100646675 0.06608707 0.015147287 0.031182889 -0.08647604 -0.034579843
-0.045107633 -0.0055186586 -0.14536963 0.06986924 0.005442936 -0.021825805 -0.08802396 0.04659287
-0.051550202 -0.041453477 -0.11533427 -0.12157172 -0.08924287 -0.028603347 -0.0822815 0.1297619
0.09364942 0.028838748 0.14318655 -0.031052073 -0.08484747 -0.22697411 0.07146289 -0.103726275
0.02503895 0.09138987 -0.13116615 -0.03012401 0.102727294 -0.08916593 -0.097513415 0.06557618
-0.08012311 0.017802121 0.08647383 -0.10839728 0.08063015 0.08535698 -0.102182135 0.08245674
0.051529903 0.047514405 0.020852469 0.05109958 0.11568472 0.049986526 0.1054835 -0.018263413
-0.06674681 0.07841697 0.06099334 0.012218226 0.030365719 -0.13061541 -0.050195195 0.03574071
-0.04614531 -0.012739868 0.1054378 -0.053676043 -0.13184601 -0.10818466 -0.024621947 -0.017884554
-0.09431193 0.040420923 0.080680944 -0.06010345 0.101319835 -0.055352367 -0.09125104 -0.1574334
0.031614743 -0.07462306 0.0358758 -0.1023892 -0.021901956 0.10739849 0.07045691 -0.13157092
-0.19946247 -0.068379894 -0.018958928 -0.117836356 -0.103181854 -0.09679558 0.085849896 0.06265241
-0.014365922 -0.08877752 -0.0868549 0.059230212 -0.12252936 -0.060422372 -0.008359137 -0.14134786
0.072242096 -0.07295906 0.014411027 0.010910003 0.0072342223 0.06674869 -0.057538666 0.10596494
-0.10724343 -0.017042637 0.074961714 -0.15650964 0.018924609 -0.056060977 0.05281296 -0.018835537
-0.08942056 0.002576474 -0.07609007 0.10603347 -0.09658594 0.07453492 -0.066766135 0.12336137
-0.039071873 -0.05302263 0.03309188 -0.04174849 0.025834197 -0.018976705 -0.0772535 -0.026576605
-0.11455259 -0.060415216 -0.0033540437 -0.009972183 -0.021752888 0.077464096 0.13519472 0.069663554
-0.025490653 0.017006578 -0.06807662 -0.090594076 0.0334368 -0.08856354 0.07070816 -0.10079895
0.12589514 -0.15566565 -0.08352363 -0.08900176 -0.0385515 0.059163723 0.13316326 -0.06271117
0.048088286 0.0035841435 0.034951482 0.051492814 -0.0999728 -0.017750813 0.12992555 -0.12950478
-0.034975715 -0.031634383 0.0064379936 0.020296453 0.028945573 -0.15042664 -0.12384131 -0.13246544
0.0061282683 -0.07322105 0.11554577 0.01878803 0.10447539 -0.083078854 0.011494388 -0.14364843
-0.06910064 0.11304973 0.008240821 -0.01643784 0.13486722 0.12259757 -0.003890718 -0.040161833
0.02678412 0.100697376 -0.04518049 -0.11958932 0.092463925 0.058324873 0.08652529 0.044307146
-0.12316071 -0.0588792 0.113789685 0.0606056 0.05101399 0.11417347 0.111911625 -0.13966219
0.0328754 -0.016665846 -0.051406838 0.036325425 0.04408719 0.013935574 -0.083691716 -0.115517795
0.0069527207 0.065970585 -0.11434721 -0.14240108 0.016696377 -0.14272992 -0.09202837 0.054990984
-0.061270412 0.007658175 0.040635705 -0.088920526 -0.09594308 -0.0043345024 0.058398135 0.04048228
00000000: 563a b93d f41f 333c 3767 8fbd 2c8b 8bbb
00000010: 45e0 d4bb 0e09 c7bd c493 e83c a200 1a3d
00000020: 2299 41bd cdb2 af3b 5a81 873d 4667 b33c
00000030: 76ce 27bd 5e92 83bd 7c99 363d e5aa 273d
00000040: 68a6 c5bd df8b ca3d 5079 ad3d e9ed 00be
00000050: 467b 293d 9084 4a3c 30b2 06be 469b 813c
00000060: f298 043e 8fe3 4e3d d81f ce3d a858 873d
00000070: 542c 783c 4273 ff3c 5a1a b1bd 98a3 0dbd
00000080: c8c2 38bd ddd5 b4bb c7db 14be 9b17 8f3d
00000090: a85a b23b 08cc b2bc e845 b4bd 2ad8 3e3d
000000a0: 4e26 53bd 1fcb 29bd 6034 ecbd 98fa f8bd
000000b0: f7c4 b6bd 9151 eabc 3483 a8bd 4ee0 043e
000000c0: 44cb bf3d 3d3f ec3c 7f9f 123e eb60 febc
000000d0: 83c4 adbd e76b 68be 235b 923d 716e d4bd
000000e0: 7c1e cd3c 9d2a bb3d 6b50 06be a1c6 f6bc
000000f0: b062 d23d a19c b6bd 1db5 c7bd ce4c 863d
00000100: 9617 a4bd c1d5 913c 3119 b13d 65ff ddbd
00000110: 6c21 a53d a4cf ae3d de44 d1bd 14df a83d
00000120: 0511 533d 779e 423d ccd2 aa3c cb4d 513d
00000130: 1cec ec3d acbe 4c3d bc07 d83d 279d 95bc
00000140: 8db2 88bd 1499 a03d 27d4 793d f42e 483c
00000150: 87c1 f83c 0cc0 05be 7a99 4dbd da64 123d
00000160: dd02 3dbd e1ba 50bc c6ef d73d 69db 5bbd
00000170: a402 07be eb8f ddbd f7b3 c9bc a182 92bc
00000180: 9d26 c1bd 6990 253d 0d3c a53d 092f 76bd
00000190: c680 cf3d 2ab9 62bd d3e1 babd 3936 21be
000001a0: 767e 013d fad3 98bd 81f2 123d 6eb1 d1bd
000001b0: bb6b b3bc bdf3 db3d b64b 903d 87ba 06be
000001c0: e43f 4cbe c20a 8cbd c14f 9bbc 3054 f1bd
000001d0: 0251 d3bd c33c c6bd 12d2 af3d e84f 803d
000001e0: 0b5f 6bbc fdd0 b5bd fbe0 b1bd 619b 723d
000001f0: acf0 fabd 737d 77bd c3f4 08bc 7ebd 10be
00000200: aaf3 933d 8f6b 95bd 3a1c 6c3c dfbf 323c
00000210: 0e0d ed3b 8ab3 883d aaad 6bbd 2504 d93d
00000220: 72a2 dbbd 009d 8bbc 8785 993d 1044 20be
00000230: c807 9b3c 32a0 65bd 6752 583d fc4c 9abc
00000240: 2022 b7bd 10da 283b 1cd5 9bbd 1328 d93d
00000250: d9ce c5bd c4a5 983d afbc 88bd e3a4 fc3d
00000260: d409 20bd 422e 59bd 5a8b 073d 7700 2bbd
00000270: 3da2 d33c 0975 9bbc 1537 9ebd 2eb7 d9bc
00000280: 8c9a eabd f275 77bd 84cf 5bbb 5e62 23bc
00000290: 1d33 b2bc 7fa5 9e3d 7c70 0a3e c4ab 8e3d
000002a0: c6d1 d0bc 6151 8b3c c16b 8bbd 6389 b9bd
000002b0: 07f5 083d cd60 b5bd 71cf 903d ae6f cebd
000002c0: a8ea 003e d166 1fbe 700e abbd 8e46 b6bd
000002d0: 2de8 1dbd a955 723d f35b 083e b76e 80bd
000002e0: 39f8 443d f3e3 6a3b 4929 0f3d 21ea 523d
000002f0: 8abe ccbd 276a 91bc 340b 053e e79c 04be
00000300: b242 0fbd 0e93 01bd cef5 d23b bf44 a63c
00000310: 441f ed3c 7109 1abe 83a0 fdbd 05a5 07be
00000320: a4cf c83b ebf4 95bd 43a3 ec3d 5be9 993c
00000330: 31f7 d53d 3f25 aabd f552 3c3c 9318 13be
00000340: a384 8dbd 9e86 e73d 8204 073c a6a8 86bc
00000350: a21a 0a3e 6f14 fb3d 6bfb 7ebb bc80 24bd
00000360: 5f6a db3c 6d3a ce3d 2d0f 39bd 3feb f4bd
00000370: ba5d bd3d 10e6 6e3d 2c34 b13d 697b 353d
00000380: af3b fcbd 512b 71bd 910a e93d 943d 783d
00000390: 0cf4 503d c8d3 e93d ec31 e53d 9b03 0fbe
000003a0: 5ba8 063d d086 88bc fa8f 52bd f8c9 143d
000003b0: c594 343d 0952 643c 9066 abbd 9894 ecbd
000003c0: a6d3 e33b 961b 873d df2e eabd 97d1 11be
000003d0: d7c6 883c cb27 12be 5f79 bcbd 3a3e 613d
000003e0: aff6 7abd 6ef1 fa3b a071 263d f71b b6bd
000003f0: ce7d c4bd 7108 8ebb e232 6f3d bfd0 253d

bias f4 [256]
0.04643184 0.035374805 -0.045251515 0.02008781 0.037720725 -0.012830103 0.059540164 0.037001435
0.04657857 -0.018679962 0.0829941 0.021561146 0.055337273 -0.009637974 0.057283778 0.01476609
0.084197 0.009162776 -0.016288167 0.07137383 -0.00032425043 0.01837572 0.028935945 0.055658087
0.031192388 0.023863668 0.019865224 0.06081052 0.022539869 0.045067407 0.037015565 0.044886597
0.043784328 0.058773488 0.031001633 -0.012479637 -0.014080702 0.019303136 -0.015195736 0.037773393
-0.021939002 -0.01680302 0.039860208 -0.006197259 0.024553651 -0.014501093 -0.0006480033 0.05875802
-0.001049078 -0.02613259 0.018754372 0.047586985 0.030974125 0.06172777 0.023812285 0.020690264
0.013224737 0.04595143 0.03402989 0.03197893 0.046495434 0.067883566 0.04093848 0.050981212
-0.035248738 0.048904568 0.07008331 0.002626353 0.012747298 0.05950812 0.08128659 0.054713283
0.0670389 0.028105862 0.032142807 0.07891302 0.046694234 0.051425934 -0.044122517 0.028690001
0.009984738 0.052956287 0.04388042 0.053388268 -0.0078102173 0.024242995 0.03419794 0.045325305
-0.00064626726 0.07513458 0.04863789 0.07126762 -0.01280039 0.04666607 0.023098124 0.053210564
0.04581999 0.04509007 0.042715263 0.047546208 0.05570169 0.054081533 0.04373108 -0.0032108875
0.057014287 0.06004665 0.07228063 0.077093855 0.03239036 0.031401623 0.062051825 0.026357379
0.022425143 0.036918167 -0.011023343 0.049831316 0.0652 0.011861933 -0.0087138675 -0.012339434
0.013233737 0.050226107 0.040331356 -0.016334977 -0.0065618847 -0.008661166 -0.018274335 -0.03034734
-0.0016382127 0.06390153 0.016919216 0.014234179 0.004401762 0.04908468 0.044860717 0.032938644
0.020389557 0.0027006972 0.02190364 -0.009971629 0.077964 0.039332397 0.06275242 -0.004956645
0.034629025 0.07617381 0.035703793 0.086974464 0.07788743 0.06490372 -0.017458074 0.03801362
0.019814452 0.033328507 0.033779785 0.017394714 -0.004512324 0.0509502 -0.009809856 -0.009995813
0.0046582795 0.07222639 0.008314077 0.070698455 0.028942846 -0.029554736 0.00035434324 0.02841652
-0.00516889 0.04645203 0.06029256 0.045985445 -0.006182777 0.039954603 0.062985405 -0.030039346
0.00311552 -0.002896097 0.025950179 0.020794347 0.024593217 0.21279135 0.021066396 0.03746098
-0.0054096235 -0.03228942 0.029053424 0.04724877 -0.04020039 0.039195463 0.062144052 0.06677285
0.052083183 0.046762515 0.02526033 -0.01897284 -0.0046343124 0.020188212 -0.009912002 0.047213882
0.034881186 0.040224828 0.06775401 -0.005298944 0.012117434 0.04243173 0.026771007 0.017598296
0.008472093 0.021534834 0.009932802 0.045851037 0.032204088 0.026150236 0.052168995 0.021545902
-0.026162326 0.035107184 0.050781038 0.0064111645 0.05619905 0.015014435 -0.015896074 0.045990452
-0.025167458 0.012367841 0.048834972 0.04099414 0.05491362 0.023099653 -0.025470767 -0.0118052345
0.038019657 -0.024740364 0.073599994 0.04640846 0.002908417 0.051145438 0.01394442 0.097897515
0.073807105 -0.008325294 -0.0023889556 0.04851134 0.060157042 -0.017696956 0.025652325 -0.03254291
0.03969408 0.024540344 0.03518978 0.050965782 0.01759795 -0.0013139888 0.08536299 0.046722595
00000000: 502f 3e3d 2ce5 103d a759 39bd 318f a43c
00000010: 0c81 1a3d 5a35 52bc 63e0 733d d18e 173d
00000020: 2cc9 3e3d b806 99bc d0f8 a93d 00a1 b03c
00000030: 56a9 623d 98e8 1dbc 65a2 6a3d 78ed 713c
00000040: 7a6f ac3d 781f 163c c36e 85bc 712c 923d
00000050: 2800 aab9 ae88 963c 130b ed3c bcf9 633d
00000060: 2e87 ff3c bd7d c33c 65bc a23c 7414 793d
00000070: 88a5 b83c 9a98 383d a29d 173d 02db 373d
00000080: 3257 333d 78bc 703d 23f7 fd3c 6477 4cbc
00000090: bfb2 66bc 9c21 9e3c 89f7 78bc 46b8 1a3d
000000a0: 6cb9 b3bc 7da6 89bc 7544 233d 6012 cbbb
000000b0: bd24 c93c fe95 6dbc c4de 29ba 40ac 703d
000000c0: 3781 89ba 0314 d6bc c5a2 993c 92ea 423d
000000d0: 73bd fd3c 42d6 7c3d fb11 c33c a17e a93c
000000e0: 91ac 583c 9137 3c3d ed62 0b3d 57fc 023d
000000f0: ff71 3e3d 8a06 8b3d 1caf 273d add1 503d
00000100: fb60 10bd 2850 483d d787 8f3d e41e 2c3b
00000110: 0bda 503c c9be 733d 9579 a63d 091b 603d
00000120: b14b 893d 443e e63c 2da8 033d 269d a13d
00000130: 7442 3f3d 00a4 523d d0b9 34bd 4b07 eb3c
00000140: 0797 233c b1e8 583d f5bb 333d a8ad 5a3d
00000150: daec ffbb 3f99 c63c 2413 0c3d 07a7 393d
00000160: 436a 29ba 29e0 993d 8638 473d c2f4 913d
00000170: bab8 51bc ec24 3f3d 4738 bd3c 52f3 593d
00000180: bead 3b3d 5eb0 383d 33f6 2e3d d0bf 423d
00000190: 7527 643d 9984 5d3d 5c1f 333d c16d 52bb
000001a0: d087 693d 7af3 753d de07 943d 62e3 9d3d
000001b0: c1ab 043d fd9e 003d 0e2a 7e3d 6eeb d73c
000001c0: efb4 b73c 8137 173d 409b 34bc ec1b 4c3d
000001d0: 9487 853d 8e58 423c 9cc4 0ebc 562b 4abc
000001e0: 51d2 583c e4b9 4d3d 7e32 253d eed0 85bc
000001f0: 1405 d7bb 90e7 0dbc 0fb4 95bc fc9a f8bc
00000200: 4cb9 d6ba cede 823d 2b9a 8a3c 7936 693c
00000210: a83c 903b 040d 493d dfbf 373d acea 063d
00000220: 0008 a73c 2efe 303b 436f b33c 0b60 23bc
00000230: 97ab 9f3d 021b 213d 5784 803d 5a6b a2bb
00000240: 2ad7 0d3d 0401 9c3d 243e 123d ab1f b23d
00000250: 7283 9f3d 3eec 843d 3c04 8fbc 2bb4 1b3d
00000260: eb51 a23c 7983 083d ac5c 0a3d 5c7f 8e3c
00000270: 1edc 93bb 28b1 503d 85b9 20bc 7ac5 23bc
00000280: 7ba4 983b 6eeb 933d c437 083c 5aca 903d
00000290: 8c19 ed3c c61c f2bc 25c7 b939 c3c9 e83c
000002a0: cb5f a9bb 7c44 3e3d 55f5 763d 3c5b 3c3d
000002b0: e598 cabb 70a7 233d 7efe 803d 1315 f6bc
000002c0: c12d 4c3b 72cc 3dbb 7895 d43c e858 aa3c
000002d0: b777 c93c fae5 593e 6f93 ac3c af70 193d
000002e0: 3643 b1bb e941 04bd 7201 ee3c ed87 413d
000002f0: 2aa9 24bd 6c8b 203d c38a 7e3d 34c0 883d
00000300: 2d55 553d 0d8a 3f3d c0ee ce3c ee6c 9bbc
00000310: 6edb 97bb c061 a53c f365 22bc 5863 413d
00000320: 93df 0e3d cac2 243d 9dc2 8a3d c4a2 adbb
00000330: 3488 463c e5cc 2d3d df4e db3c 4d2a 903c
00000340: 89ce 0a3c d269 b03c 31bd 223c 4cce 3b3d
00000350: 6fe8 033d 0539 d63c 28af 553d 0881 b03c
00000360: 6052 d6bc 8dcc 0f3d c7ff 4f3d bf14 d23b
00000370: fa30 663d 1bff 753c 7c38 82bc 7c60 3c3d
00000380: fc2b cebc 7ca2 4a3c 2e07 483d 79e9 273d
00000390: 1bed 603d 7c3b bd3c 12a8 d0bc be6a 41bc
000003a0: 80ba 1b3d 4eac cabc 98bb 963d cc16 3e3d
000003b0: 249b 3e3b e17d 513d 2377 643c 7e7e c83d
000003c0: 2e28 973d d066 08bc 0690 1cbb d4b3 463d
000003d0: 3b67 763d 35f9 90bc d324 d23c b74b 05bd
000003e0: 4296 223d d508 c93c 2923 103d 7fc1 503d
000003f0: 9329 903c 263a acba cbd2 ae3d 3160 3f3d

weight f4 [256, 256]
0.09837224 -0.09271734 0.0957529 0.00075167447 -0.0052328785 -0.05330275 0.05075169 0.10117348
-0.048549406 0.12307394 -0.036267444 -0.05838296 -0.06231799 0.102012396 -0.115885094 -0.062888086
-0.02082671 0.060355 0.08867563 0.007843716 0.106075786 0.069412306 -0.03683039 0.08171784
0.039313287 -0.052736063 -0.09502354 -0.008908241 -0.103814505 0.06878885 0.020839201 -0.07850166
-0.014499107 0.15317445 -0.03468409 0.0057807183 0.061042625 -0.032354657 0.07457307 0.10788224
0.13341334 0.047146987 -0.05257414 -0.03545236 0.14215176 0.11352054 -0.10083658 -0.10990733
0.00349196 0.015331703 0.07790066 -0.09441702 0.122444004 0.114430934 0.044826586 -0.0143118035
-0.017194808 0.06497208 0.08843961 0.03833003 0.05734749 -0.0840387 -0.06298958 0.088327184
-0.08445679 -0.018452957 0.074022375 -0.12288867 -0.12081508 -0.07199652 0.08898509 -0.097579435
0.0925019 0.07763852 -0.10733523 -0.07133983 0.07022108 0.04422948 0.09601724 0.07812937
0.068130076 -0.10919227 -0.067263074 -0.040938716 -0.010430824 0.04604621 0.03810474 -0.10588179
0.08708054 -0.020469908 0.0868998 -0.039103217 -0.0356887 -0.07165783 -0.062593184 0.09900217
0.012880116 -0.106179856 -0.09090082 -0.11020548 0.06030209 0.046159945 0.0067597297 0.1108902
-0.09995984 0.058536943 -0.114341296 0.07233882 -0.07155764 0.004628086 0.07461951 -0.04114027
0.01956533 -0.0672881 0.13742869 -0.10238507 0.04341514 -0.04978191 -0.039824378 -0.08392929
0.03506935 0.048719466 0.050285928 0.12927182 -0.12669414 0.0028400356 0.07008602 -0.04150427
0.061231308 0.07897129 0.09353361 0.052435208 0.0733598 0.028141687 -0.13316017 0.102591366
-0.10674843 -0.0049897996 0.04684527 0.005105324 0.06667025 -0.043782298 0.033889353 0.060643755
-0.0748209 0.12023083 -0.09980092 0.042804245 -0.08060023 -0.06914405 -0.05231916 -0.0597179
0.13264202 0.084161356 0.06137035 0.083883576 -0.12968805 -0.070991226 -0.09359453 -0.08589423
-0.10693003 0.06400949 -0.041212734 0.04674974 -0.10475046 -0.065364495 0.022115385 -0.028671104
0.114376575 0.07933852 0.04058336 0.017994268 -0.013079098 0.07175114 -0.02351353 0.00057940464
0.14832918 0.08739373 -0.12349643 -0.043422885 -0.016316783 0.055416282 0.03780999 -0.098698646
0.0678427 -0.07081061 -0.068396956 0.00885653 0.124173045 -0.07127983 0.044136208 -0.04014063
0.03549 -0.0833965 -0.019512359 -0.12666689 0.055040795 -0.00040539444 -0.11890359 0.019083975
-0.019062452 0.13694756 0.04741951 -0.076510735 0.09375476 0.05591116 -0.09401569 -0.017965311
-0.042457752 -0.10387583 -0.13394411 0.02672875 -0.07118688 0.15859751 0.023279069 -0.04513076
0.094813235 -0.02780728 -0.05008404 -0.022429084 0.04591186 -0.021001846 -0.030725885 0.08434925
-0.073321626 0.0459753 0.032638125 0.11569799 -0.025826285 -0.0936147 -0.07593965 -0.09591144
0.05015853 -0.02174807 -0.00034543878 0.06321664 0.10915967 -0.03742699 0.044540714 0.0122007765
0.09566181 -0.02764836 0.11805455 -0.032241333 0.10435784 -0.04495698 0.056869693 0.009222426
0.0065083615 0.018411849 -0.06931233 -0.029328246 0.084761634 0.01644844 -0.06740547 0.12529914
00000000: 6377 c93d 97e2 bdbd 191a c43d 050c 453a
00000010: 9178 abbb fc53 5abd 01e1 4f3d 0b34 cf3d
00000020: bedb 46bd 310e fc3d 2c8d 14bd f822 6fbd
00000030: 2641 7fbd e0eb d03d 2a55 edbd 78cb 80bd
00000040: c79c aabc ce36 773d 929b b53d ee82 003c
00000050: 433e d93d 0a28 8e3d 77db 16bd af5b a73d
00000060: f806 213d c501 58bd b49b c2bd dff3 11bc
00000070: b39c d4bd 2be1 8c3d f9b6 aa3c 7ac5 a0bd
00000080: aa8d 6dbc c3d9 1c3e e810 0ebd 2e6c bd3b
00000090: d507 7a3d 5186 04bd c4b9 983d 5df1 dc3d
000000a0: 829d 083e 331d 413d fb57 57bd 7e36 11bd
000000b0: 3b90 113e 757d e83d 6983 cebd 1817 e1bd
000000c0: 5ed9 643b d331 7b3c 628a 9f3d b65d c1bd
000000d0: ecc3 fa3d c45a ea3d 159c 373d 0e7c 6abc
000000e0: 20dc 8cbc 1510 853d d41f b53d f3ff 1c3d
000000f0: 34e5 6a3d 7b1c acbd ae00 81bd e2e4 b43d
00000100: aef7 acbd a82a 97bc 0b99 973d 0ead fbbd
00000110: e66d f7bd e972 93bd d13d b63d bad7 c7bd
00000120: a371 bd3d f200 9f3d 93d2 dbbd 9e1a 92bd
00000130: 12d0 8f3d f929 353d b0a4 c43d 4b02 a03d
00000140: c887 8b3d 32a0 dfbd 39c1 89bd 5baf 27bd
00000150: 0ce6 2abc f39a 3c3d b713 1c3d 8dd8 d8bd
00000160: 4857 b23d 82b0 a7bc 86f8 b13d b22a 20bd
00000170: 502e 12bd 57c1 92bd db30 80bd a6c1 ca3d
00000180: 1f07 533c d374 d9bd 362a babd 69b3 e1bd
00000190: 53ff 763d 3612 3d3d b980 dd3b 671a e33d
000001a0: bfb7 ccbd 6fc4 6f3d c52b eabd 6026 943d
000001b0: d08c 92bd 33a7 973b 1dd2 983d b382 28bd
000001c0: 7947 a03c 58ce 89bd 1bba 0c3e 43af d1bd
000001d0: 13d4 313d 1ee8 4bbd e31e 23bd 1fe3 abbd
000001e0: e1a4 0f3d 108e 473d 9ef8 4d3d d55f 043e
000001f0: 1cbc 01be e41f 3a3b 4289 8f3d 6200 2abd
00000200: aecd 7a3d b3bb a13d 8d8e bf3d 4dc6 563d
00000210: aa3d 963d 6589 e63c 245b 08be 6c1b d23d
00000220: ec9e dabd 7981 a3bb d3e0 3f3d 904a a73b
00000230: 698a 883d 1155 33bd 90cf 0a3d 9665 783d
00000240: b33b 99bd 953b f63d 6d64 ccbd 8153 2f3d
00000250: bc11 a5bd 659b 8dbd 9e4c 56bd c29a 74bd
00000260: 4fd3 073e ca5c ac3d 7a5f 7b3d 27cb ab3d
00000270: f2cc 04be d963 91bd 7dae bfbd 50e9 afbd
00000280: 22fe dabd 6817 833d afce 28bd a87c 3f3d
00000290: 6987 d6bd d2dd 85bd 532b b53c aadf eabc
000002a0: 443e ea3d 3c7c a23d bd3a 263d b768 933c
000002b0: b749 56bc 43f2 923d 729f c0bc 30e3 173a
000002c0: 9be3 173e 7cfb b23d b2eb fcbd 32dc 31bd
000002d0: c6aa 85bc 2ffc 623d a6de 1a3d 8422 cabd
000002e0: 1df1 8a3d 2705 91bd b413 8cbd fb1a 113c
000002f0: 704e fe3d 29fb 91bd 2bc8 343d 806a 24bd
00000300: f65d 113d c9cb aabd 62d8 9fbc f7b4 01be
00000310: 7572 613d 1f8b d4b9 ba83 f3bd ff55 9c3c
00000320: dc28 9cbc fb3b 0c3e f63a 423d a9b1 9cbd
00000330: 7f02 c03d 1a03 653d 4c8b c0bd fd2b 93bc
00000340: 2ee8 2dbd dabc d4bd a528 09be 40f6 da3c
00000350: 6dca 91bd 6367 223e bfb3 be3c 08db 38bd
00000360: 712d c23d 18cc e3bc ec24 4dbd 33bd b7bc
00000370: 130e 3c3d 100c acbc dab4 fbbc 4dbf ac3d
00000380: a629 96bd 9950 3c3d 8eaf 053d 11f3 ec3d
00000390: a591 d3bc 10b9 bfbd 3f86 9bbd 386d c4bd
000003a0: 0873 4d3d 0229 b2bc 021c b5b9 ba77 813d
000003b0: 1b8f df3d 0b4d 19bd 5370 363d c4e5 473c
000003c0: 57ea c33d d07e e2bc 95c6 f13d 7d0f 04bd
000003d0: 90b9 d53d cf24 38bd 32f0 683d a919 173c
000003e0: 1844 d53b 72d4 963c 9ff3 8dbd ca41 f0bc
000003f0: 8297 ad3d e1be 863c e10b 8abd 6b4e 003e

bias f4 [256]
0.31970012 0.3919292 0.3268816 -0.0058772885 0.4968365 -0.01559497 -0.035347886 0.53977007
0.3399152 -0.0066277054 -0.01521978 -0.022319939 0.12594843 0.37572998 0.4703995 0.38855496
-0.030170059 -0.02929042 -0.031604826 0.42275068 0.40329748 0.39254346 -0.018856168 -0.04399298
0.25631902 0.40420496 -0.010287432 0.3637145 -0.026275454 0.5420435 0.2761832 0.4858392
-0.0066547124 -0.027097668 -0.019317683 -0.01933048 0.09377993 0.21410388 0.22349136 -0.031634588
0.4225303 0.33640206 0.47972873 0.26223788 0.46205068 0.49123475 -0.0058586253 -0.02580788
-0.024584858 -0.019334327 0.39871237 0.34082422 0.32536113 0.11726035 0.3628767 0.38533762
0.22350438 -0.018531151 0.32378677 0.46734944 0.40026724 -0.042004824 0.37345445 -0.03565563
-0.017313551 0.31341782 0.49761584 0.38185424 -0.017642481 0.4496155 0.49935266 0.4229372
-0.025590269 0.35006416 -0.034031566 0.4735535 0.3649369 -0.020660268 -0.012250969 0.24300951
-0.022938108 -0.012846046 -0.015638653 -0.026022412 -0.013107265 0.34017098 0.44855586 0.47403097
-0.030754711 -0.0089015085 0.44012552 0.28745174 0.50371385 -0.010747339 0.38493267 0.24620348
0.47661 0.5371895 0.24806207 -0.0125736045 0.45924714 -0.015072718 0.4625163 -0.01592436
0.520551 0.37008226 0.3393827 -0.03238365 0.36670622 0.3773771 0.33496016 -0.0005065036
0.39917254 0.3764739 -0.023531785 0.2596162 0.42462763 0.07004643 0.4563375 -0.026369533
0.50524956 0.38451198 0.4957131 0.24491161 -0.023323977 0.36435688 0.44812536 -0.029105972
0.40932125 0.35323593 0.37735993 0.21037234 0.39454907 -0.017976178 -0.03835173 -0.010509823
-0.022643443 -0.02108644 0.402515 0.38360998 0.33087817 0.25541818 0.4968344 -0.03646474
0.34599409 0.46838564 -0.015946697 0.33564454 0.37770727 0.4213459 0.16407196 0.51243806
-0.015363869 -0.02935861 -0.035590023 0.3418135 -0.029564086 -0.020181874 0.35609555 -0.0032521533
0.27937528 0.18075454 0.5377802 0.360899 0.35322344 0.46599603 -0.03977209 0.34615153
0.39609498 0.33634105 0.47873008 0.38000196 0.39557043 0.41595423 -0.030112237 0.48404595
-0.026221609 0.45830792 0.4277047 0.4267604 0.35158044 0.39587405 -0.045735233 -0.01885876
0.39486423 -0.023182364 0.24055648 0.32012096 0.0066783046 -0.02363973 -0.02439399 0.47308195
-0.026658097 0.31219095 0.2507537 0.4073339 0.27872202 0.4960812 -0.022089262 0.3520242
0.21708518 0.392551 0.32091603 0.4441009 0.47000197 0.37153056 -0.019901942 -0.02454435
0.3924092 0.40732637 -0.028217148 0.50539136 0.27793646 0.39599866 0.3224108 -0.036707014
-0.035343364 -0.026106564 0.49824053 -0.029440679 0.33503443 -0.04921026 0.41029432 -0.023169534
-0.025675932 0.015083488 0.3978835 -0.023895716 -0.021624701 -0.020221576 0.34570438 -0.029605348
0.42475826 0.343491 0.4853218 0.45879436 0.002115385 0.36867297 0.3404758 -0.022288444
0.360999 0.473253 -0.020096615 -0.035034455 -0.033129677 -0.021313943 0.16377088 0.52162904
0.24379042 0.14138378 -0.022231888 -0.008737708 0.008912707 0.43298155 0.31280312 0.028766628
00000000: bcaf a33e f2aa c83e 065d a73e 4596 c0bb
00000010: 5b61 fe3e 0c82 7fbc f2c8 10bd 5f2e 0a3f
00000020: 5d09 ae3e 392d d9bb 625c 79bc 4ed8 b6bc
00000030: a0f8 003e ae5f c03e 34d8 f03e adf0 c63e
00000040: 3327 f7bc 76f2 efbc 1074 01bd c772 d83e
00000050: 027d ce3e 75fb c83e 4078 9abc fc31 34bd
00000060: 3f3c 833e f4f3 ce3e 9e8c 28bc c938 ba3e
00000070: 9f3f d7bc 5dc3 0a3f e267 8d3e eabf f83e
00000080: c60f dabb eefb ddbc 1e40 9ebc f45a 9ebc
00000090: b10f c03d 0c3e 5b3e ebda 643e 4593 01bd
000000a0: e455 d83e e43c ac3e 019f f53e 0b44 863e
000000b0: e891 ec3e 1f83 fb3e b6f9 bfbb 0c6b d3bc
000000c0: 2f66 c9bc 0663 9ebc 0724 cc3e 8380 ae3e
000000d0: bc95 a63e 3226 f03d faca b93e f94a c53e
000000e0: 55de 643e a4ce 97bc 61c7 a53e 6d48 ef3e
000000f0: d4ef cc3e 400d 2cbd 6c35 bf3e a30b 12bd
00000100: 26d5 8dbc 4d78 a03e 81c7 fe3e 6682 c33e
00000110: f786 90bc 0134 e63e 27ab ff3e 3a8b d83e
00000120: afa2 d1bc 9c3b b33e af64 0bbd 9b75 f23e
00000130: 02d9 ba3e b93f a9bc 4ab8 48bc 7cd7 783e
00000140: b3e8 bbbc 3978 52bc a21c 80bc f42c d5bc
00000150: dbbf 56bc e42a ae3e 1da9 e53e 30b4 f23e
00000160: 4ef1 fbbc a2d7 11bc 2258 e13e e02c 933e
00000170: 64f3 003f 9b15 30bc e515 c53e c41c 7c3e
00000180: 3a06 f43e 4085 093f fc03 7e3e 8501 4ebc
00000190: 7122 eb3e 90f3 76bc f0ce ec3e ce73 82bc
000001a0: d542 053f 6c7b bd3e 92c3 ad3e b8a4 04bd
000001b0: ebc0 bb3e 9237 c13e e67f ab3e e2c6 04ba
000001c0: 5860 cc3e 30c1 c03e bbc5 c0bc 6aec 843e
000001d0: cb68 d93e 8174 8f3d 12a5 e93e eb04 d8bc
000001e0: 0958 013f c1de c43e 1cce fd3e 1cca 7a3e
000001f0: ed11 bfbc fc8c ba3e b070 e53e a66f eebc
00000200: 8e92 d13e 57db b43e 5235 c13e d96b 573e
00000210: 5602 ca3e c742 93bc b416 1dbd 6531 2cbc
00000220: be7e b9bc 78bd acbc 7216 ce3e 8768 c43e
00000230: dd68 a93e 2cc6 823e 1461 fe3e 0d5c 15bd
00000240: 2326 b13e 3ed0 ef3e a6a2 82bc 9ad9 ab3e
00000250: d962 c13e a6ba d73e 7b02 283e 242f 033f
00000260: bdb8 7bbc 7881 f0bc d8c6 11bd 2e02 af3e
00000270: 6230 f2bc 7554 a5bc 2852 b63e 1422 55bb
00000280: 470a 8f3e b817 393e f7ab 093f c1c7 b83e
00000290: b4d9 b43e 0897 ee3e 0fe8 22bd c63a b13e
000002a0: f6cc ca3e e534 ac3e 1c1c f53e 9e8f c23e
000002b0: 3588 ca3e f4f7 d43e f0ad f6bc dfd4 f73e
000002c0: b3ce d6bc 56a7 ea3e 1cfc da3e 5780 da3e
000002d0: 5a02 b43e 01b0 ca3e de54 3bbd b07d 9abc
000002e0: a52b ca3e f1e8 bdbc 7054 763e e5e6 a33e
000002f0: aed5 da3b 1ba8 c1bc e8d5 c7bc cc37 f23e
00000300: 1562 dabc 7ed7 9f3e ca62 803e 128e d03e
00000310: a7b4 8e3e 5bfe fd3e 8af4 b4bc 843c b43e
00000320: 944b 5e3e 72fc c83e 1b4f a43e 3161 e33e
00000330: 19a4 f03e 4139 be3e 6609 a3bc 3c11 c9bc
00000340: dce9 c83e 158d d03e a627 e7bc 5461 013f
00000350: b04d 8e3e 56c0 ca3e 0713 a53e 185a 16bd
00000360: 34c4 10bd 6fdd d5bc 6219 ff3e 942d f1bc
00000370: a289 ab3e b390 49bd 1912 d23e 09ce bdbc
00000380: 5556 d2bc bc20 773c 63b7 cb3e f3c0 c3bc
00000390: 4926 b1bc b8a7 a5bc 2a00 b13e ea86 f2bc
000003a0: ea79 d93e 0dde af3e 197c f83e 18e7 ea3e
000003b0: 45a2 0a3b b4c2 bc3e d852 ae3e 4196 b6bc
000003c0: dcd4 b83e 384e f23e a8a1 a4bc 4a80 0fbd
000003d0: fcb2 07bd 949a aebc 8eb3 273e 7b89 053f
000003e0: 32a4 793e e9c6 103e a61f b6bc 9b28 0fbc
000003f0: 9a06 123c c2af dd3e bb27 a03e fea7 eb3c

weight f4 [9, 256]
0.076939605 0.08302949 0.08692358 0.0644656 0.10704694 -0.015166589 -0.09906903 0.12552537
0.081469186 0.13318598 0.0018669512 -0.11690469 0.071538046 0.11509957 0.08986598 0.0856383
-0.03872983 0.11983982 -0.110935904 0.090734504 0.11125461 0.063512795 -0.112169184 -0.104869165
0.077579096 0.092832744 -0.03245132 0.10005946 -0.09515374 0.11799372 0.06218882 0.10552496
0.06036247 -0.04225783 0.014535452 0.07840846 0.07040319 0.0720863 0.118202865 -0.069438525
0.11066183 0.12270273 0.13836496 0.080789775 0.097108476 0.12112125 0.019981647 -0.11507733
0.022551127 -0.06531182 0.13366036 0.067096956 0.07058322 0.079128236 0.08776061 0.09903768
0.079628035 -0.039453946 0.0675749 0.119782716 0.1048341 -0.07078944 0.0749918 -0.09123147
-0.11299304 0.06908424 0.08441133 0.08311817 -0.046234723 0.06363333 0.12771079 0.07161061
-0.014760203 0.090583034 0.10166502 0.11230837 0.088759705 -0.11410373 -0.089425914 0.10994075
-0.048956115 -0.0914562 -0.020190718 0.08600968 0.0118521005 0.10421122 0.08531106 0.13436933
0.06905178 -0.00061891065 0.12596405 0.101514235 0.13685264 -0.0825377 0.07521365 0.103155605
0.09153841 0.10292194 0.09946959 -0.0756221 0.10401509 -0.07528872 0.10170875 -0.082413845
0.12945142 0.0676769 0.06044108 0.057568643 0.07529479 0.107225195 0.07655723 -0.044874247
0.09868037 0.11067554 -0.005467352 0.05884754 0.09046063 0.053995136 0.09771273 -0.12173101
0.14831932 0.076321214 0.12945206 0.083397046 -0.11419386 0.21118407 0.10924708 0.0012527999
0.102238625 0.099815466 0.07781095 0.111806616 0.077130534 -0.12427107 -0.1093013 -0.08699503
-0.027388455 -0.021210598 0.09142813 0.10954046 0.07989227 0.10479186 0.11007511 0.027476665
0.21001773 0.08690789 0.07584921 0.078712806 0.08147861 0.089920506 0.11490911 0.13106331
-0.021831518 -0.11557309 -0.061998136 0.07025172 -0.2440635 -0.018328397 0.06752594 0.03687453
0.09419149 0.0621049 0.12444421 0.06885721 0.0672129 0.0882551 0.04639094 0.080611594
0.071851514 0.05827939 0.08815935 0.07066576 0.0797784 0.08259655 -0.04345842 0.07805736
-0.09287504 0.09598929 0.10002527 0.13503128 0.06917214 0.070726156 -0.068936706 0.09926364
0.065670505 -0.089864306 0.08038894 0.0956473 0.056420878 0.0011133339 0.055985793 0.104347326
0.023391783 0.062044647 0.18002614 0.087503485 0.19223304 0.10911822 -0.11284061 0.09556441
0.07242504 0.076954946 0.09220726 0.091260634 0.11716953 0.06418635 0.025166415 -0.03692468
0.10728944 0.09609501 0.00897 0.14572525 0.1184315 0.13181156 0.08073186 0.09701536
-0.024449613 -0.10379809 0.12479292 0.057211466 0.07303294 -0.08497804 0.077743866 -0.0882896
-0.061766777 -0.013959499 0.08034686 -0.037342858 -0.04536745 -0.12886715 0.07980986 0.02812225
0.100095816 0.09296194 0.10591583 0.13279597 0.04088056 0.068592526 0.10160962 -0.0011590029
0.07532335 0.12296965 -0.11212778 -0.0061706295 -0.009093283 0.034991793 0.07013654 0.11346982
0.16621558 0.11648333 -0.11262425 -0.08810868 -0.074130006 0.12823163 0.22164708 0.08810838
00000000: 8392 9d3d 5e0b aa3d fd04 b23d 8a06 843d
00000010: 6d3b db3d 497d 78bc b4e4 cabd b989 003e
00000020: 51d9 a63d e861 083e 7db4 f43a ba6b efbd
00000030: 8a82 923d 53b9 eb3d a80b b83d 2263 af3d
00000040: 2ca3 1ebd 946e f53d 5d32 e3bd 03d3 b93d
00000050: 75d9 e33d ff12 823d f5b8 e5bd a5c5 d6bd
00000060: cae1 9e3d 181f be3d adeb 04bd f9eb cc3d
00000070: f7df c2bd b1a6 f13d b4b9 7e3d 781d d83d
00000080: a33e 773d 8c16 2dbd 1b26 6e3c 9d94 a03d
00000090: 8c2f 903d fba1 933d 5814 f23d c935 8ebd
000000a0: aba2 e23d 924b fb3d 8baf 0d3e 1c75 a53d
000000b0: cfe0 c63d 6b0e f83d 8db0 a33c aaad ebbd
000000c0: 24bd b83c 34c2 85bd 43de 083e 216a 893d
000000d0: ef8d 903d fc0d a23d d6bb b33d 44d4 ca3d
000000e0: 0614 a33d 769a 21bd b664 8a3d a450 f53d
000000f0: 43b3 d63d 0efa 90bd 4d95 993d 91d7 babd
00000100: e568 e7bd 0a7c 8d3d d9df ac3d dc39 aa3d
00000110: 9f60 3dbd 3152 823d 9ec6 023e 95a8 923d
00000120: c7d4 71bc 9983 b93d c035 d03d ee01 e63d
00000130: a6c7 b53d 37af e9bd ef24 b7bd 9e28 e13d
00000140: 3586 48bd 634d bbbd 0167 a5bc d825 b03d
00000150: 502f 423c b16c d53d 91b7 ae3d 1d98 093e
00000160: 056b 8d3d 643e 22ba b8fc 003e b2e6 cf3d
00000170: 1923 0c3e 8709 a9bd 9d09 9a3d 3f43 d33d
00000180: 7d78 bb3d bdc8 d23d b6b6 cb3d c2df 9abd
00000190: dd05 d53d f930 9abd ad4c d03d 97c8 a8bd
000001a0: ea8e 043e 309a 8a3d 1191 773d 19cd 6b3d
000001b0: 2834 9a3d e298 db3d 09ca 9c3d 0fce 37bd
000001c0: ef18 ca3d dca9 e23d 7927 b3bb 1e0a 713d
000001d0: 6c43 b93d 012a 5d3d 9d1d c83d 1c4e f9bd
000001e0: 05e1 173e 4c4e 9c3d 158f 043e 12cc aa3d
000001f0: 78de e9bd a340 583e efbc df3d fd34 a43a
00000200: 7c62 d13d 0d6c cc3d 595b 9f3d defa e43d
00000210: 9df6 9d3d d581 febd 5cd9 dfbd 732a b2bd
00000220: c15d e0bc d9c1 adbc ac3e bb3d c056 e03d
00000230: 8f9e a33d 1d9d d63d 0f6f e13d be16 e13c
00000240: e30e 573e c4fc b13d d556 9b3d 2e34 a13d
00000250: 42de a63d 3e28 b83d 7855 eb3d 7635 063e
00000260: 03d8 b2bc 96b1 ecbd c2f1 7dbd 22e0 8f3d
00000270: c8eb 79be 6f25 96bc 0a4b 8a3d bf09 173d
00000280: 78e7 c03d b561 7e3d 9bdc fe3d 0205 8d3d
00000290: eba6 893d 17bf b43d 6d04 3e3d b117 a53d
000002a0: e326 933d 5fb6 6e3d e48c b43d 36b9 903d
000002b0: dc62 a33d 6128 a93d 7501 32bd 8adc 9f3d
000002c0: 4535 bebd 0896 c43d 0cda cc3d a445 0a3e
000002d0: 1faa 8d3d e0d8 903d b02e 8dbd bc4a cb3d
000002e0: 427e 863d c70a b8bd f5a2 a43d bbe2 c33d
000002f0: 9419 673d 49ed 913a 5c51 653d 0db4 d53d
00000300: 20a0 bf3c 8722 7e3d c658 383e 0735 b33d
00000310: bdd8 443e 6079 df3d fa18 e7bd 46b7 c33d
00000320: 9453 943d 8e9a 9d3d 29d7 bc3d dbe6 ba3d
00000330: 94f6 ef3d 2274 833d cc29 ce3c 553e 17bd
00000340: 91ba db3d 76cd c43d e8f6 123c 0039 153e
00000350: 378c f23d 9cf9 063e bf56 a53d fdaf c63d
00000360: 8e4a c8bc 1894 d4bd 6e93 ff3d 9256 6a3d
00000370: 4b92 953d f708 aebd 2d38 9f3d 2ed1 b4bd
00000380: 29ff 7cbd 62b6 64bc e58c a43d d3f4 18bd
00000390: 38d3 39bd c0f5 03be 5a73 a33d a260 e63c
000003a0: 09ff cc3d d462 be3d 66ea d83d abfb 073e
000003b0: 6072 273d 3d7a 8c3d b418 d03d afe9 97ba
000003c0: 2143 9a3d 83d7 fb3d 40a3 e5bd fe32 cabb
000003d0: fefb 14bc 8e53 0f3d bfa3 8f3d dd62 e83d
000003e0: 6b34 2a3e d08e ee3d 8ba7 e6bd 5372 b4bd
000003f0: 79d1 97bd 274f 033e 74f7 623e 2b72 b43d

bias f4 [9]
0.61946136 0.5802433 0.64046264 0.5896423 0.46487844 0.5565739 0.61560214 0.5002954
0.5983959
00000000: 0595 1e3f d38a 143f 5cf5 233f ccf2 163f
00000010: 8c04 ee3e a17b 0e3f 1a98 1d3f 5c13 003f
00000020: 7930 193f
