animation_dqn/models/third.pt (torch, 565487 bytes, 8 tensors)

weight f4 [256, 16]
0.14873649 -0.14404233 -0.017971853 -0.055928722 0.19941123 0.14803725 -0.34499148 0.2940446
0.30817404 -0.1940713 -0.26449424 0.12814057 -0.23845325 0.051681645 -0.42351952 0.09028704
-0.05873277 -0.18795359 0.17548475 0.31636637 0.16476181 0.21901163 0.31680486 0.20387831
0.31167072 0.15098318 -0.46108142 -0.08318918 -0.44488665 -0.30696338 -0.21472156 0.2855501
-0.33352664 0.18546377 0.3779013 -0.1740329 -0.39374295 0.2178977 0.3970136 -0.14137106
-0.3715133 0.08131704 -0.22991338 0.2960762 -0.44245058 -0.058925286 -0.042251736 -0.26812863
-0.3112519 0.14137812 -0.004596781 0.09518545 0.074276544 -0.34875634 0.15633929 -0.30235386
-0.025868429 -0.45237002 -0.2716059 -0.38486248 0.014131207 -0.32203794 -0.3840108 -0.34869182
-0.36581865 -0.3156302 0.25506502 -0.12257515 -0.21873757 0.27564603 0.24894537 -0.022328956
0.16542499 -0.18051814 0.35051793 0.16255274 -0.3196958 0.28442842 0.12620448 0.32138073
0.35520396 -0.05543655 -0.3002656 0.006887668 -0.41969937 0.20424654 0.216312 -0.44333306
-0.018498449 0.11626279 0.14599697 -0.29969534 0.05824687 -0.24580762 0.3981158 0.2949744
0.09135806 0.045535095 -0.009015457 -0.034246184 0.098573625 -0.27709946 0.029803222 0.34716272
-0.1319074 0.26921824 -0.43307674 0.24799642 -0.21578631 -0.28485632 -0.029034546 0.17496736
-0.1829282 -0.19217747 -0.12794404 -0.070854545 0.21610582 -0.03715097 0.13299245 -0.19734286
0.18711855 0.18670169 0.26303053 0.2740512 -0.36597487 -0.23697367 -0.0017815143 -0.06056258
0.010584475 -0.41802675 -0.08308899 -0.2247301 0.27529833 0.37173566 -0.22074738 -0.04417421
-0.09205545 0.2233914 0.12761748 -0.35503104 0.032778557 -0.33933082 0.29680756 -0.104831405
0.13327587 0.26150382 -0.07932785 -0.031145237 -0.17892766 -0.1922656 -0.4379523 0.20297273
-0.30432823 0.0037579567 -0.3915428 -0.21775757 -0.09143157 -0.34541535 -0.13093637 -0.33644924
0.13550547 -0.11944335 -0.0940231 0.08867533 -0.29958907 -0.12191626 -0.323808 0.1166046
0.20306875 0.20391163 -0.010091491 0.32802585 -0.046749216 0.20132065 0.27543592 -0.016708337
0.1812092 0.18675059 0.03337055 0.16303147 -0.47160393 -0.026026752 -0.06365639 0.106621176
0.3336423 0.12885007 0.2780861 -0.19555975 -0.28690606 0.2859417 0.13433541 0.10222252
-0.4396904 -0.390289 -0.20562722 -0.36183107 -0.005334632 0.15522371 -0.42911625 0.09167315
-0.12204745 -0.012192083 -0.06779193 0.058958173 -0.08983629 -0.37849903 -0.2925248 0.032082085
0.0006649253 -0.019982958 -0.06174491 0.3131963 -0.4447401 -0.2897262 -0.05582952 0.38948587
0.36197764 -0.42840326 0.30761042 -0.35857776 0.37565205 0.022301015 0.37446338 -0.016065126
-0.0044261273 -0.12143879 0.058499493 0.080733165 -0.08868591 -0.037211463 -0.29390064 -0.24514453
0.08017759 0.19635335 0.34206936 -0.067696765 -0.22458956 0.27694896 -0.34181213 0.27849886
-0.098442666 0.21299621 0.38296705 -0.3708818 -0.22917981 0.025204612 0.2321551 0.3744322
-0.28337672 0.05409496 -0.30317777 0.21859498 0.024649175 0.14507964 -0.10163796 -0.121670075
00000000: 614e 183e d57f 13be b539 93bc 8415 65bd
00000010: 7532 4c3e 1497 173e b9a2 b0be 048d 963e
00000020: fdc8 9d3e a0ba 46be ca6b 87be 4837 033e
00000030: 172d 74be 22b0 533d 8dd7 d8be 69e8 b83d
00000040: c691 70bd e876 40be 46b2 333e c6fa a13e
00000050: 52b7 283e 9644 603e 3f34 a23e 7ac5 503e
00000060: 4e93 9f3e 569b 1a3e dd12 ecbe 175f aabd
00000070: 2fc8 e3be 4e2a 9dbe f8df 5bbe 9f33 923e
00000080: 01c4 aabe 37ea 3d3e 477c c13e ae35 32be
00000090: ad98 c9be 9320 5f3e 5e45 cb3e 93c3 10be
000000a0: fe36 bebe 8c89 a63d 6a6e 6bbe 4d97 973e
000000b0: e288 e2be a45b 71bd 2810 2dbd 2848 89be
000000c0: 695c 9fbe 6dc5 103e 98a0 96bb 97f0 c23d
000000d0: 4d1e 983d 3190 b2be 6817 203e 20ce 9abe
000000e0: 07ea d3bc 0b9d e7be ee0f 8bbe b20c c5be
000000f0: 9486 673c 28e2 a4be 109d c4be bc87 b2be
00000100: 954c bbbe 489a a1be e297 823e ae08 fbbd
00000110: befc 5fbe 7a21 8d3e 89eb 7e3e 37eb b6bc
00000120: 2b65 293e bfd9 38be 1677 b33e 3a74 263e
00000130: 2baf a3be 9aa0 913e bf3b 013e 048c a43e
00000140: 4bdd b53e 7011 63bd 6abc 99be f2b1 e13b
00000150: d6e2 d6be 0126 513e e580 5d3e 8dfc e2be
00000160: 0f8a 97bc 301b ee3d 3b80 153e ab71 99be
00000170: 4594 6e3d feb4 7bbe d6d5 cb3e e206 973e
00000180: ef19 bb3d 0283 3a3d 91b5 13bc ba45 0cbd
00000190: f8e0 c93d fbdf 8dbe e325 f43c 50bf b13e
000001a0: bc12 07be f9d6 893e 3cbc ddbe c6f2 7d3e
000001b0: 16f7 5cbe b0d8 91be dbd9 edbc a52a 333e
000001c0: 8851 3bbe 2cca 44be c303 03be 301c 91bd
000001d0: d84a 5d3e 9e2b 18bd 2c2f 083e 3f14 4abe
000001e0: 019c 3f3e ba2e 3f3e f0ab 863e 7050 8c3e
000001f0: 0f61 bbbe 3aa9 72be b381 e9ba 7810 78bd
00000200: 816a 2d3c 9a07 d6be 8f2a aabd a61f 66be
00000210: e7f3 8c3e 2354 be3e 9a0b 62be 04f0 34bd
00000220: 9187 bcbd b7c0 643e 28ae 023e a1c6 b5be
00000230: cf42 063d c5bc adbe 29f7 973e d9b1 d6bd
00000240: 7879 083e d4e3 853e a476 a2bd 4c24 ffbc
00000250: d038 37be 46e1 44be 493b e0be 15d8 4f3e
00000260: e9d0 9bbe 0d48 763b 4c78 c8be d7fb 5ebe
00000270: 7a40 bbbd 48da b0be 2f14 06be 1343 acbe
00000280: f2c1 0a3e b79e f4bd 2f8f c0bd 699b b53d
00000290: bd63 99be 3baf f9bd 2aca a5be 64ce ee3d
000002a0: 41f1 4f3e 36ce 503e c856 25bc 01f3 a73e
000002b0: 1b7c 3fbd 0027 4e3e f005 8d3e ecdf 88bc
000002c0: e88e 393e 8c3b 3f3e 8faf 083d b9f1 263e
000002d0: 1276 f1be 0e36 d5bc 485e 82bd 345c da3d
000002e0: 2ad3 aa3e 46f1 033e 4d61 8e3e d140 48be
000002f0: 5ae5 92be f366 923e 398f 093e 0a5a d13d
00000300: 1a1f e1be f6d3 c7be f18f 52be ec41 b9be
00000310: 23ce aebb f7f2 1e3e 20b5 dbbe 22bf bb3d
00000320: 03f4 f9bd 4dc1 47bc 7fd6 8abd 207e 713d
00000330: 17fc b7bd a0ca c1be d0c5 95be 8168 033d
00000340: 624e 2e3a 4db3 a3bc 3be8 7cbd 445b a03e
00000350: f9b4 e3be fe56 94be 7fad 64bd b16a c73e
00000360: 2255 b93e ac57 dbbe 1d7f 9d3e 8197 b7be
00000370: 7755 c03e 9eb0 b63c aab9 bf3e 039b 83bc
00000380: 0c09 91bb e6b4 f8bd 2a9d 6f3d 6e57 a53d
00000390: f5a0 b5bd 0c6b 18bd 257a 96be 2b07 7bbe
000003a0: 2634 a43d da10 493e b723 af3e 9aa4 8abd
000003b0: cefa 65be 41cc 8d3e 0002 afbe 6797 8e3e
000003c0: 4f9c c9bd ae1b 5a3e 4214 c43e 38e4 bdbe
000003d0: 1dae 6abe e779 ce3c 11ba 6d3e 94b5 bf3e
000003e0: c116 91be ad92 5d3d 1e3a 9bbe 5dd7 5f3e
000003f0: 11ed c93c c28f 143e 9027 d0bd 292e f9bd

bias f4 [256]
0.017314516 -0.11795716 0.010446224 0.0 -0.16835324 -0.0663072 -0.006001261 -0.104080774
-0.046922963 0.0 -0.121483125 -0.113989666 -0.008525825 -0.06471927 0.022912193 -0.027980553
0.032262966 -0.05465109 -0.116507486 0.00280737 0.06649273 0.0 0.022253508 -0.14765546
0.03589631 0.042014893 -0.07888032 -0.025069155 -0.12687483 0.044470407 -0.15022771 0.0
-0.07324833 0.0058941646 -0.041486286 -0.0085855555 -0.0052361484 -0.045774296 0.017287353 -0.090233386
0.022232542 0.0020266739 0.06546218 -0.0006030719 -0.10454218 0.0 -0.022978175 0.0
-0.06268877 -0.053366896 0.011801152 -0.05346121 -0.076297864 -0.05094346 -0.07051133 -0.13795877
0.03248558 -0.05020227 -0.10724398 -0.04601949 -0.045663062 -0.06983524 0.0137334075 0.0056395344
-0.06325766 -0.07785796 0.013590291 -0.08638365 -0.07732994 -0.041881293 -0.111083195 0.030821327
0.0 0.010635759 0.007786584 -0.008413812 0.012410427 -0.073580936 0.00634716 0.024562228
-0.033988696 -0.11154929 -0.01223849 -0.063219756 0.0 0.049955796 0.022077797 0.035954338
0.011330694 -0.033894602 -0.027275946 -0.014831348 0.043042965 -0.09565788 -0.05916064 0.023700835
-0.070895165 -0.12367491 0.02075881 0.007050785 0.029198902 -0.11451324 0.01630625 -0.053425737
-0.042846367 -0.09535786 -0.017216146 0.030032909 -0.034277234 -0.07702259 -0.047498 -0.00940225
-0.07330728 -0.10964311 0.037203826 0.03158198 -0.12259284 0.0 -0.007448086 0.023649046
-0.058153693 -0.1559305 0.028000785 0.02145641 -0.027003558 -0.13372603 0.02460135 -0.0392764
-0.05375419 0.002654575 0.048843224 -0.07814348 -0.10187307 -0.009802508 0.030609999 0.050298337
0.027227715 0.052162677 -0.04468272 0.011056223 -0.021052655 0.018122265 0.019855052 -0.11628419
-0.10456383 -0.06549577 0.065009326 -0.07077337 -0.06368278 -0.056723975 0.010513765 0.02315116
-0.04629861 0.03339134 -0.059924755 0.0050920574 -0.032945335 -0.117852755 0.020021705 -0.033063956
-0.05702023 -0.044718277 -0.1340018 0.0 -0.030483318 -0.0998055 -0.05617181 -0.07063781
-0.025675816 -0.15230188 0.022993697 0.022914734 -0.059455335 0.013394954 -0.05271003 -0.012097691
-0.0505216 0.01536021 -0.04340175 -0.052927032 -0.13386883 0.006754897 0.0013106514 0.027511675
-0.055917956 0.058347862 0.044910297 -0.001323503 0.010067786 0.022785326 0.03712769 0.02848825
0.006901309 0.044986505 0.07015679 -0.11862968 0.036148705 -0.022139989 -0.015612587 -0.1347792
0.007655306 0.054110806 -0.0350229 0.048626915 0.03295077 -0.035606284 -0.11141368 0.053971026
-0.06449069 0.0498265 0.056388155 -0.0639729 0.018075835 0.0054161274 -0.06637269 -0.021164408
-0.0009350356 -0.017316649 -0.040027566 0.020724522 -0.10109713 -0.0654076 0.043779843 0.06808515
0.017644852 -0.017572857 -0.040178973 0.040729843 -0.012332101 -0.10159728 -0.071108915 -0.0034686134
0.037256554 -0.0028012025 0.008309796 -0.017702244 -0.12617807 -0.1630942 -0.00074700173 -0.0017464235
-0.043671947 -0.03641799 -0.1096191 0.01525745 -0.16128245 0.040612943 -0.0048567923 -0.08166701
0.016458407 0.033247396 -0.015109973 0.0043298188 -0.013496667 -0.09897309 -0.15352356 0.032102283
00000000: 2cd7 8d3c 8693 f1bd a426 2b3c 0000 0000
00000010: cb64 2cbe 12cc 87bd 3aa6 c4bb 4d28 d5bd
00000020: 4b32 40bd 0000 0000 25cc f8bd 6a73 e9bd
00000030: e7af 0bbc 898b 84bd 5ab2 bb3c 7937 e5bc
00000040: 2c26 043d d2d9 5fbd 7a9b eebd dafb 373b
00000050: 572d 883d 0000 0000 fd4c b63c fe32 17be
00000060: 0208 133d cf17 2c3d 018c a1bd d45d cdbc
00000070: 7aeb 01be 9a26 363d 4bd5 19be 0000 0000
00000080: 3803 96bd d623 c13b 86ed 29bd 6eaa 0cbc
00000090: ff93 abbb d47d 3bbd 359e 8d3c 48cc b8bd
000000a0: 0521 b63c f2d1 043b 0911 863d 7817 1eba
000000b0: 361a d6bd 0000 0000 ba3c bcbc 0000 0000
000000c0: f862 80bd 3f97 5abd 9e59 413c 24fa 5abd
000000d0: 0e42 9cbd 17aa 50bd 3f68 90bd 1045 0dbe
000000e0: 990f 053d e5a0 4dbd bba2 dbbd ef7e 3cbd
000000f0: 3109 3bbd c705 8fbd 1602 613c d8cb b83b
00000100: 3b8d 81bd fe73 9fbd d0a9 5e3c e9e9 b0bd
00000110: 295f 9ebd b88b 2bbd 967f e3bd 027d fc3c
00000120: 0000 0000 9b41 2e3c 9a26 ff3b 16da 09bc
00000130: 1b55 4b3c 9ab1 96bd d6fb cf3b ba36 c93c
00000140: bb37 0bbd f473 e4bd f383 48bc 5c79 81bd
00000150: 0000 0000 739e 4c3d 7fdc b43c db44 133d
00000160: 60a4 393c 11d5 0abd ce71 dfbc 2fff 72bc
00000170: d24d 303d 47e8 c3bd 6d52 72bd 4128 c23c
00000180: 7c31 91bd 4549 fdbd 610e aa3c 450a e73b
00000190: 8932 ef3c eb85 eabd af94 853c f2d4 5abd
000001a0: ac7f 2fbd fb4a c3bd e008 8dbc 9307 f63c
000001b0: 4966 0cbd 05be 9dbd 438d 42bd e50b 1abc
000001c0: 2122 96bd 918c e0bd 0a63 183d 1b5c 013d
000001d0: f411 fbbd 0000 0000 130f f4bb a5bb c13c
000001e0: 9132 6ebd 3fac 1fbe e761 e53c 5ac5 af3c
000001f0: 9136 ddbc 7aef 08be c588 c93c 4ae0 20bd
00000200: 5b2d 5cbd 61f8 2d3b d50f 483d b009 a0bd
00000210: d4a2 d0bd b39a 20bc d2c1 fa3c a105 4e3d
00000220: a80c df3c 88a8 553d 3a05 37bd 2925 353c
00000230: 9e76 acbc 2575 943c 10a7 a23c 6826 eebd
00000240: 9025 d6bd a522 86bd 9c23 853d a1f1 90bd
00000250: 1e6c 82bd 6657 68bd ed41 2c3c 80a7 bd3c
00000260: 9ca3 3dbd 5cc5 083d a973 75bd 46db a63b
00000270: b0f1 06bd c95c f1bd 8f04 a43c 126e 07bd
00000280: 0b8e 69bd 832a 37bd c537 09be 0000 0000
00000290: 27b8 f9bc d366 ccbd 6914 66bd 8eaa 90bd
000002a0: 1756 d2bc 06f5 1bbe 475d bc3c aeb7 bb3c
000002b0: 7087 73bd 8276 5b3c 79e6 57bd 6535 46bc
000002c0: bdef 4ebd 64a9 7b3c 09c6 31bd 04ca 58bd
000002d0: e914 09be 2f58 dd3b 2aca ab3a 2a60 e13c
000002e0: 3a0a 65bd 2bfe 6e3d dcf3 373d 6479 adba
000002f0: 5bf3 243c 4ba8 ba3c 3413 183d 3160 e93c
00000300: 6024 e23b c543 383d 5dae 8f3d 1ef4 f2bd
00000310: aa10 143d ec5e b5bc f0cb 7fbc 8f03 0abe
00000320: 5cd9 fa3b 4ba3 5d3d 2c74 0fbd 042d 473d
00000330: 63f7 063d e5d7 11bd db2c e4bd b910 5d3d
00000340: b213 84bd df16 4c3d 44f7 663d 3904 83bd
00000350: c613 943c c579 b13b 68ee 87bd fb60 adbc
00000360: 2d1d 75ba a5db 8dbc f2f3 23bd 79c6 a93c
00000370: 030c cfbd 6bf4 85bd 7e52 333d 3a70 8b3d
00000380: f08b 903c f4f4 8fbc b592 24bd 56d4 263d
00000390: 950c 4abc 3c12 d0bd 8da1 91bd ad51 63bb
000003a0: 549a 183d 6194 37bb d025 083c 4c04 91bc
000003b0: d334 01be 2a02 27be 70d2 43ba 40e8 e4ba
000003c0: 5be1 32bd 082b 15bd fb7f e0bd 62fa 793c
000003d0: 3a27 25be c259 263d ba25 9fbb 0941 a7bd
000003e0: c8d3 863c 6c2e 083d d28f 77bc 27e1 8d3b
000003f0: 2021 5dbc 67b2 cabd 4835 1dbe af7d 033d

weight f4 [256, 256]
-0.0650025 -0.05686962 -0.088368215 -0.010717308 -0.03545406 -0.057020564 0.070662275 0.026591841
0.005928088 -0.009706818 0.02730868 0.019142227 0.062048003 -0.05401514 0.10144327 -0.060684763
0.029272327 0.00095946016 0.07425043 -0.053444 0.06684468 0.09119063 -0.013976801 -0.07071104
-0.120378084 -0.077293746 -0.03186556 0.00988293 0.019866664 0.124771826 0.029670259 -0.09466696
0.09167335 0.03397746 0.07488698 -0.030805707 0.09066931 0.090500675 0.024984302 0.09544608
-0.006401049 -0.06790662 -0.07089307 0.14789094 0.035073686 -0.008601303 0.09400748 -0.019685613
-0.00633289 -0.060891725 -0.0010101803 0.06743542 0.100845575 -0.057883967 -0.010852218 -0.034680717
0.14339459 0.06907874 -0.100935 -0.08400162 0.037612204 -0.012482312 -0.0045656804 -0.09622397
-0.0438878 0.036393978 0.07808309 0.04819241 0.00837157 -0.0065623634 0.10851213 0.06557606
-0.083384715 0.052244198 0.07542593 -0.008328194 -0.004037707 -0.0844544 -0.04911137 0.0031682095
-0.08374989 -0.022114806 -0.118516974 0.011307746 0.034510795 0.0065263654 0.04190647 0.0588301
-0.08377304 -0.08503317 -0.0927844 -0.046586722 -0.037930746 -0.11315965 0.013514596 0.056348793
-0.08915451 -0.035949543 0.03123845 0.02149106 -0.077568166 -0.04045299 0.08121839 -0.12856887
-0.106538706 0.08273226 -0.0810654 0.012045605 -0.022704301 -0.042029258 0.0935086 0.002193278
-0.014070171 0.06339114 -0.030572083 -0.010066458 -0.012173911 0.03324446 0.045961253 -0.027304085
0.032210696 -0.07769962 -0.05348502 -0.010840016 0.04811765 0.063808575 -0.04038855 -0.06277456
-0.010262911 -0.0093859015 0.03767586 0.054413695 0.017486574 0.06074125 -0.15712546 0.055432525
0.0342305 0.051414676 -0.05692107 -0.08814586 0.058992986 -0.0024174675 0.011163267 -0.05369788
0.063502826 -0.015186118 -0.028671972 -0.027524963 0.09555721 -0.038039822 0.01723316 0.061295748
-0.0108722 -0.056557205 0.072118826 -0.03210346 0.078515716 -0.08633967 -0.07198379 0.06866466
0.016071504 -0.008794771 -0.024988558 0.097141124 -0.0838977 0.068937495 0.03945589 0.08781294
-0.031973805 0.041056834 0.018576464 0.082039945 0.073426425 -0.0038972492 -0.01724454 0.105028994
0.040210962 -0.112402014 -0.01183905 -0.054413322 -0.052456714 0.062282737 0.053758424 0.0068639214
-0.048421267 -0.03632741 0.14716502 0.061531197 0.012553335 0.029498521 -0.0147838695 0.082355365
0.03830198 -0.04904843 -0.017939381 -0.011099504 -0.04939714 -0.029151604 0.090638794 -0.05206639
0.058262225 -0.0070268055 0.039368697 0.05274949 -0.026646657 -0.083247736 0.04467573 0.046660658
0.070229605 0.011627602 0.09999374 -0.02889024 0.057220135 -0.09957962 -0.0502448 0.02563182
0.046747755 -0.084993094 0.13057289 0.03917953 -0.05451491 -0.061872482 0.07371317 0.04723627
-0.14311498 0.03097398 0.09612566 0.043392092 0.0044401838 0.07248191 -0.10492219 0.07937659
0.08516038 0.1030241 0.017143436 0.0024152943 0.06525915 0.0570429 0.047495857 -0.060022093
-0.070040256 -0.040293258 0.07355182 0.043719 -0.083502136 -0.16897237 -0.03987069 0.06423589
-0.101424955 0.015205387 0.035264242 -0.058289107 -0.07273601 -0.027112212 -0.017017594 0.03681138
00000000: 0820 85bd 1ef0 68bd 65fa b4bd a697 2fbc
00000010: 4738 11bd 658e 69bd 62b7 903d 22d7 d93c
00000020: 6840 c23b 5809 1fbc 74b6 df3c 29d0 9c3c
00000030: 0c26 7e3d fb3e 5dbd 7dc1 cf3d 9690 78bd
00000040: 85cc ef3c 4884 7b3a 9c10 983d 19e8 5abd
00000050: dde5 883d 27c2 ba3d f4fe 64bc f3d0 90bd
00000060: c988 f6bd 2f4c 9ebd 7685 02bd 03ec 213c
00000070: 6abf a23c 5f88 ff3d 0b0f f33c c0e0 c1bd
00000080: 3dbf bb3d f32b 0b3d 585e 993d 405c fcbc
00000090: d5b0 b93d 6b58 b93d e1ab cc3c 3c79 c33d
000000a0: e4bf d1bb a012 8bbd 6330 91bd b970 173e
000000b0: 6da9 0f3d 7bec 0cbc fe86 c03d b943 a1bc
000000c0: 2284 cfbb 9a69 79bd 0768 84ba 951b 8a3d
000000d0: 2088 ce3d bd17 6dbd 80cd 31bc 5e0d 0ebd
000000e0: 08d6 123e 2879 8d3d 02b7 cebd 0b09 acbd
000000f0: 410f 1a3d 9c82 4cbc b49b 95bb 1311 c5bd
00000100: b2c3 33bd da11 153d 07ea 9f3d 6865 453d
00000110: e928 093c 1809 d7bb 9c3b de3d be4c 863d
00000120: 9bc5 aabd 03fe 553d e978 9a3d fa72 08bc
00000130: be4e 84bb 6ef6 acbd 0129 49bd bca1 4f3b
00000140: 1085 abbd 1c2a b5bc 07b9 f2bd 2044 393c
00000150: 315b 0d3d 1fdb d53b 1ea6 2b3d d5f7 703d
00000160: 3391 abbd df25 aebd bf05 bebd b8d1 3ebd
00000170: 455d 1bbd 3fc0 e7bd 536c 5d3c fecd 663d
00000180: a496 b6bd d43f 13bd c7e7 ff3c 050e b03c
00000190: 0fdc 9ebd 09b2 25bd d455 a63d 8fa7 03be
000001a0: f730 dabd 886f a93d 9e05 a6bd ee5a 453c
000001b0: 5ffe b9bc df26 2cbd 7081 bf3d 19bd 0f3b
000001c0: 9386 66bc 37d3 813d 4e72 fabc c9ed 24bc
000001d0: 1575 47bc 582b 083d de41 3c3d d1ac dfbc
000001e0: 5def 033d fa20 9fbd 1c13 5bbd 539a 31bc
000001f0: 0317 453d 12ae 823d 776e 25bd f38f 80bd
00000200: c525 28bc 53c7 19bc 0152 1a3d e5e0 5e3d
00000210: 0140 8f3c d1cb 783d 7fe5 20be 370d 633d
00000220: 4835 0c3d 3298 523d 1126 69bd d185 b4bd
00000230: a1a2 713d 606e 1ebb 23e6 363c 4ff2 5bbd
00000240: c50d 823d 32cf 78bc 7ce1 eabc 087c e1bc
00000250: 80b3 c33d a5cf 1bbd 8e2c 8d3c 4011 7b3d
00000260: 5021 32bc 87a8 67bd 09b3 933d eb7e 03bd
00000270: d9cc a03d dad2 b0bd 3d6c 93bd 0fa0 8c3d
00000280: 63a8 833c f117 10bc ceb4 ccbc edf1 c63d
00000290: 8fd2 abbd 1a2f 8d3d 809c 213d 45d7 b33d
000002a0: f7f6 02bd 362b 283d ab2d 983c 8f04 a83d
000002b0: 9860 963d fe68 7fbb 6c44 8dbc 7119 d73d
000002c0: 40b4 243d 0733 e6bd 93f8 41bc 81e0 5ebd
000002d0: dadc 56bd 2f1c 7f3d cb31 5c3d bfea e03b
000002e0: 6155 46bd 0dcc 14bd 6db2 163e 2308 7c3d
000002f0: 81ac 4d3c e2a6 f13c 0b38 72bc eea9 a83d
00000300: 89e2 1c3d 02e7 48bd 9cf5 92bc b2da 35bc
00000310: a854 4abd 58cf eebc d5a0 b93d 9143 55bd
00000320: 5fa4 6e3d 1e41 e6bb 1241 213d d90f 583d
00000330: 174a dabc ca7d aabd e6fd 363d 3f1f 3f3d
00000340: 8ad4 8f3d b381 3e3c 85c9 cc3d 39ab ecbc
00000350: a95f 6a3d 66f0 cbbd 7ecd 4dbd d3f9 d13c
00000360: 937a 3f3d dc10 aebd e6b4 053e b77a 203d
00000370: 074b 5fbd 006e 7dbd eef6 963d d27a 413d
00000380: bc8c 12be 25bd fd3c 88dd c43d e8bb 313d
00000390: f67e 913b 6571 943d 72e1 d6bd 3290 a23d
000003a0: 9168 ae3d 4dfe d23d 6470 8c3c ea49 1e3b
000003b0: 97a6 853d d1a5 693d 048b 423d bad9 75bd
000003c0: 4471 8fbd 8b0a 25bd 56a2 963d b212 333d
000003d0: 2b03 abbd 1807 2dbe 734f 23bd 1b8e 833d
000003e0: e3b7 cfbd 0420 793c 3d71 103d 8fc0 6ebd
000003f0: 9ef6 94bd 6e1a debc 7b68 8bbc 88c7 163d

bias f4 [256]
0.028901469 0.025985006 0.070732564 0.008455991 -0.03215126 0.051852 0.021969354 -0.00083904096
-0.007904253 -0.0061966707 0.047360957 -0.010584449 -0.06571312 0.047735795 0.003772179 -0.008892855
0.028476665 -0.0079789795 0.103851564 0.08964326 -0.029528592 0.0006560783 0.041602094 0.04410841
0.032447483 -0.0030054662 0.007111545 -0.085675485 -0.020457957 0.0899432 0.041132476 0.07779959
0.092981696 0.047360614 0.03296127 -0.009096653 0.03609776 -0.0055397516 -0.021411473 0.04295794
0.030516978 0.06882752 0.008242917 0.012126973 -0.020771902 -0.00022715422 0.06846083 -0.0070582526
0.008595671 0.06686403 0.028023066 0.08690458 -0.02024038 -0.02602815 0.024675308 0.018960401
0.010645284 0.028528254 0.03785864 -0.02580773 -0.0018511085 0.042300254 0.028621513 0.06910273
-0.009970369 0.0139721725 0.027837142 0.045766637 0.030603733 0.07719768 0.029600404 0.015068283
-0.0038896585 0.10190271 0.07920972 0.0021571685 0.0025557522 0.036205236 -0.026991287 0.028717259
0.052902248 0.06743353 0.036176685 -0.045303803 -0.030040223 0.04588272 0.06741411 -0.016395317
0.042753376 0.057814702 0.0047283964 0.041016545 -0.015698452 0.10405033 0.055642255 0.042373944
0.032647 -0.03492571 6.1711246e-05 0.039034113 -0.05490896 -0.027353175 0.04219887 0.05457738
0.03650848 0.061620787 0.009464029 0.0203056 0.06268576 0.0869441 -0.018448075 0.050504293
0.02381977 0.0010870763 0.065774724 0.03244052 0.046777762 0.047005687 0.041998256 -0.008349599
0.036671627 0.11545509 0.01932954 0.049471214 0.053713765 -0.07062777 -0.003463274 -0.014159377
0.036284737 -0.072805755 0.09228551 -0.07674313 0.043154377 -0.07877139 0.024325825 0.054750096
-0.0009364997 0.03455627 0.05857974 0.016208379 -0.045814242 0.092282325 -0.025232082 0.07425699
-0.011694799 0.095905624 0.049694456 0.0421895 0.093227684 0.023484545 -0.05532513 -0.032438867
-0.02354837 0.023939924 0.03991647 0.03109249 0.05725355 0.0038440912 -0.038969506 -0.017684316
0.031541657 0.016197305 0.030333256 0.08049411 0.04344999 -0.016043682 0.022266218 0.055039044
0.04246985 0.26177844 0.076854154 -0.11783385 0.049388498 0.05230224 0.017682144 0.048350792
0.0067851716 0.0031801183 -0.024541752 0.040860947 0.046904765 0.03039542 0.008898811 -0.011344553
0.01935284 -0.025502224 0.012300812 -0.009981159 0.011539678 -0.021851126 0.045211058 0.035287578
0.018952623 0.06430267 0.04037246 -0.0036571238 0.052374486 0.07039205 0.033336196 0.03381655
0.009683028 -0.009284231 0.04507794 0.024438817 0.029600186 0.11926322 0.037382733 0.027553445
0.037514187 0.010413658 -0.026618103 0.04393362 0.03291133 0.09622506 -0.029582176 -0.018204056
0.07602852 0.03134537 -0.008539072 -0.03597251 0.02469863 0.047461547 0.059719544 0.06374369
-0.011099101 0.06019989 0.05494453 0.028392686 0.07035804 0.03923985 0.013992864 -0.0071391803
-0.004038338 -0.022957785 -0.06092475 -0.009272025 0.011654688 0.10203226 0.015655583 0.098339275
0.062501445 0.10037644 0.019595353 0.008661223 0.016510716 0.016649814 -0.0063608573 0.021741318
0.058473296 -0.016100118 0.023290006 0.030818442 0.044899 0.034870856 -0.007858537 0.06541539
00000000: c6c2 ec3c 82de d43c 3cdc 903d ff8a 0a3c
00000010: 0ab1 03bd c362 543d 13f9 b33c 16f3 5bba
00000020: d780 01bc 710d cbbb 90fd 413d 666a 2dbc
00000030: 9a94 86bd 9c86 433d a936 773b 56b3 11bc
00000040: e547 e93c 44ba 02bc 21b0 d43d e396 b73d
00000050: f2e5 f1bc abfc 2b3a f566 2a3d 05ab 343d
00000060: a7e7 043d 5bf7 44bb f707 e93b a176 afbd
00000070: 7297 a7bc 2434 b83d 877a 283d 6455 9f3d
00000080: 306d be3d 34fd 413d 6602 073d 210a 15bc
00000090: 3fdb 133d ce86 b5bb 1d67 afbc aaf4 2f3d
000000a0: befe f93c 71f5 8c3d 4d0d 073c 36b0 463c
000000b0: d629 aabc 3f30 6eb9 3135 8c3d ea48 e7bb
000000c0: dbd4 0c3c 02f0 883d a190 e53c 07fb b13d
000000d0: 27cf a5bc fd38 d5bc df23 ca3c d852 9b3c
000000e0: 8f69 2e3c 16b4 e93c a911 1b3d bc6a d3bc
000000f0: e5a0 f2ba 0843 2d3d aa77 ea3c bb85 8d3d
00000100: c25a 23bc 8aeb 643c b80a e43c cc75 3b3d
00000110: aeb4 fa3c d119 9e3d 8c7c f23c f6e0 763c
00000120: a4e9 7ebb 5eb2 d03d b538 a23d 485f 0d3b
00000130: 687e 273b f14b 143d d51c ddbc 7540 eb3c
00000140: 07b0 583d 971a 8a3d 012e 143d 7b90 39bd
00000150: ea16 f6bc 85ef 3b3d 6910 8a3d 794f 86bc
00000160: 2a1e 2f3d 1ccf 6c3d aaf0 9a3b f700 283d
00000170: 0a9a 80bc 5718 d53d 22e9 633d 4d90 2d3d
00000180: dcb8 053d 430e 0fbd f96a 8138 3ce2 1f3d
00000190: 38e8 60bd c413 e0bc b9d8 2c3d 888c 5f3d
000001a0: ea89 153d 1466 7c3d 040f 1b3c ee57 a63c
000001b0: 6461 803d c00f b23d 6b20 97bc 97dd 4e3d
000001c0: ae21 c33c 3a7c 8e3a e6b4 863d 5ae0 043d
000001d0: 0a9a 3f3d 0989 403d 5d06 2c3d c2cc 08bc
000001e0: fd34 163d b873 ec3d fc58 9e3c 54a2 4a3d
000001f0: f702 5c3d 4ba5 90bd 19f8 62bb bbfc 67bc
00000200: 4e9f 143d 2f1b 95bd 2f00 bd3d 812b 9dbd
00000210: a5c2 303d e552 a1bd f446 c73c a341 603d
00000220: 6e7f 75ba e08a 0d3d 4ff1 6f3d 6fc7 843c
00000230: b7a7 3bbd 84fe bc3d 83b3 cebc 0c14 983d
00000240: 8b9b 3fbc 2b6a c43d 6a8c 4b3d e6ce 2c3d
00000250: 28ee be3d a962 c03c 9a9c 62bd 9ede 04bd
00000260: 83e8 c0bc a91d c43c 747f 233d adb5 fe3c
00000270: b382 6a3d 26ed 7b3b 7d9e 1fbd b3de 90bc
00000280: d331 013d 36b0 843c 737d f83c 19da a43d
00000290: 9ef8 313d 0a6e 83bc a567 b63c 9f70 613d
000002a0: def4 2d3d d307 863e b665 9d3d e052 f1bd
000002b0: 984b 4a3d e03a 563d 25da 903c 7b0b 463d
000002c0: 2556 de3b 8869 503b c90b c9bc cf5d 273d
000002d0: 361f 403d d1ff f83c 52cc 113c 81de 39bc
000002e0: d989 9e3c 0aea d0bc 5889 493c 0488 23bc
000002f0: eb10 3d3c 2201 b3bc 3b2f 393d b589 103d
00000300: 8842 9b3c 1eb1 833d 985d 253d 5bac 6fbb
00000310: a186 563d b529 903d 898b 083d 3983 0a3d
00000320: 90a5 1e3c e31c 18bc a5a3 383d ea33 c83c
00000330: 177c f23c 4640 f43d a31e 193d c3b7 e13c
00000340: 7aa8 193d 0c9e 2a3c 350e dabc bdf3 333d
00000350: 08ce 063d a511 c53d 5256 f2bc ac20 95bc
00000360: d7b4 9b3d 0164 003d 77e7 0bbc e957 13bd
00000370: c854 ca3c 0a67 423d 7b9c 743d 0d8c 823d
00000380: 01d9 35bc 2994 763d 840d 613d c797 e83c
00000390: e017 903d f7b9 203d 5342 653c c9ef e9bb
000003a0: 0954 84bb f711 bcbc 3b8c 79bd b1e9 17bc
000003b0: 4ef3 3e3c 4af6 d03d 2340 803c 1a66 c93d
000003c0: c200 803d 2a92 cd3d 6f86 a03c cde7 0d3c
000003d0: 7b41 873c 3165 883c bd6e d0bb d91a b23c
000003e0: b281 6f3d 65e4 83bc afca be3c f576 fc3c
000003f0: 04e8 373d bed4 0e3d 18c1 00bc 81f8 853d

weight f4 [256, 256]
-0.0041682827 -0.00284912 0.08970015 0.009149441 -0.042926356 0.02396593 0.10720804 -0.0649427
0.058082633 -0.032504685 0.07674815 0.01081843 -0.008504362 0.0055915667 -0.086535096 -0.001311428
-0.015394122 0.038061053 0.053295113 -0.051041998 -0.030991886 0.13971308 -0.00054916285 -0.07476035
-0.008191236 0.0319148 -0.008582927 -0.13780317 0.061767183 0.034464195 0.0033781086 -0.042624883
-0.047996607 0.008110413 0.1049305 -0.045899678 -0.038065296 -0.091843486 0.035976954 -0.027611561
0.01784475 0.023935499 0.0057462347 -0.05027838 -0.09403182 -0.02427319 0.053741768 -0.09547348
0.08307447 0.040300503 0.023591347 -0.07032535 -0.0768739 -0.042786457 -0.09922653 0.0686566
0.07075322 -0.056720387 0.04239757 0.020387085 0.01039487 0.07716884 -0.055980664 0.06279286
-0.07076678 0.0650839 0.011966267 0.087430865 0.013489877 -0.06618368 0.08232392 0.02303881
-0.019174986 -0.052621596 0.047213566 -0.08281783 -0.096100636 0.078336224 0.019094722 -0.06632374
-0.097196445 -0.016991768 0.021295285 -0.08534992 -0.10211529 0.09717276 0.028618075 -0.0776518
-0.05674079 0.08402417 -0.03624481 -0.028987974 0.027622072 0.047061414 0.027576126 0.082483925
0.09277954 -0.06312113 0.081326805 -0.036020704 -0.05681361 0.08334832 -0.037248835 -0.015578944
0.014079385 -0.07315711 -0.087030694 -0.036504988 0.0077114324 0.05498627 -0.02639616 -0.048651066
-0.013276233 -0.05837962 -0.02435643 0.056834508 0.12799422 -0.041374665 -0.035080295 0.10307392
0.053043805 0.026457448 0.08482485 0.019997038 -0.007116588 -0.08697735 0.0967205 -0.042582665
-0.051205315 -0.002245382 0.022842418 0.069385685 -0.029411575 -0.065236025 -0.06942108 0.062210552
0.060452055 -0.052331507 0.03316762 0.07979063 0.04061261 -0.045022823 -0.069725566 0.047979314
-0.0958714 -0.09454089 -0.0090265125 0.07207611 0.039598353 0.019937947 0.023569306 0.024449779
0.10043004 0.058492884 0.06941318 0.004409332 -0.07697156 0.00082494545 0.0425821 -0.025111526
0.006175894 0.043472793 0.11507445 -0.061419334 -0.004672096 -0.049376227 -0.08437672 -0.057032317
-0.051236473 -0.040414967 0.0010812891 0.026329337 -0.046140805 0.12221257 0.09176433 -0.08895178
-0.09546432 -0.06052405 -0.00015943841 0.07621133 0.015630513 0.10136638 0.00027139398 0.094459586
0.013906055 0.12433449 0.027765887 -0.03465599 0.005294502 0.040832918 0.061024398 0.035711095
0.003857718 -0.030292355 -0.055662174 -0.064705856 -0.08370525 -0.036659144 0.04042147 -0.062173884
-0.030784754 0.034800265 -0.0478879 -0.07642445 -0.011436273 0.030020632 0.10722381 0.013112555
0.011132199 0.024305105 -0.047488924 -0.072543524 -0.07261443 -0.058409445 0.03800947 0.024930462
0.12650287 -0.009979658 0.019066038 0.10995932 0.07519566 0.06686879 -0.03626483 0.087257184
-0.030030329 -0.05752146 0.07975793 -0.007829741 0.048281636 0.092759684 0.11169364 0.0029006759
0.04097352 -0.011968766 -0.05240423 0.04676597 0.06272031 0.026697356 0.072350636 -0.019744124
-0.05891136 0.015302167 -0.081717074 0.008729994 0.047180332 0.04225178 0.064849295 0.084424675
-0.0284196 0.0042330576 0.087786466 0.008318594 -0.026896698 -0.017893272 -0.065585844 0.048196875
00000000: 1796 88bb 4db8 3abb b6b4 b73d 89e7 153c
00000010: 8cd3 2fbd 3354 c43c e48f db3d ae00 85bd
00000020: 0ee8 6d3d a223 05bd 222e 9d3d c93f 313c
00000030: e155 0bbc 7639 b73b 5039 b1bd 39e4 abba
00000040: a137 7cbc e8e5 1b3d fa4b 5a3d 6a11 51bd
00000050: b2e2 fdbc f210 0f3e b2f5 0fba f41b 99bd
00000060: 8934 06bc 18b9 023d 689f 0cbc 461c 0dbe
00000070: 96ff 7c3d 542a 0d3d 4263 5d3b 6e97 2ebd
00000080: 1798 44bd 8ae1 043c cde5 d63d 4d01 3cbd
00000090: 5bea 1bbd 7018 bcbd 925c 133d a431 e2bc
000000a0: 272f 923c 6114 c43c e94a bc3b b4f0 4dbd
000000b0: c193 c0bd 92d8 c6bc 5420 5c3d 9a87 c3bd
000000c0: f322 aa3d 2412 253d a442 c13c bd06 90bd
000000d0: 1070 9dbd da40 2fbd 4737 cbbd d59b 8c3d
000000e0: 10e7 903d a353 68bd 13a9 2d3d d102 a73c
000000f0: 3f4f 2a3c b20a 9e3d fb4b 65bd 8b99 803d
00000100: 2cee 90bd b54a 853d 290e 443c f40e b33d
00000110: a504 5d3c 4f8b 87bd 7299 a83d e3bb bc3c
00000120: dc14 9dbc be89 57bd 0363 413d 659c a9bd
00000130: 69d0 c4bd be6e a03d 896c 9c3c bed4 87bd
00000140: ee0e c7bd 5232 8bbc 7373 ae3c f0cb aebd
00000150: d221 d1bd 8302 c73d 7470 ea3c e807 9fbd
00000160: 0869 68bd dd14 ac3d 7075 14bd 3078 edbc
00000170: af47 e23c 78c3 403d 54e7 e13c 55ed a83d
00000180: 3303 be3d a745 81bd ab8e a63d 728a 13bd
00000190: 63b5 68bd 86b2 aa3d 3c92 18bd d43e 7fbc
000001a0: 39ad 663c 65d3 95bd 263d b2bd 4186 15bd
000001b0: 2fb0 fc3b 4839 613d c23c d8bc 5746 47bd
000001c0: 8f84 59bc 781f 6fbd 2387 c7bc 4dcb 683d
000001d0: eb10 033e 7b78 29bd 5bb0 0fbd 6b18 d33d
000001e0: 7644 593d 4abd d83c a7b8 ad3d d4d0 a33c
000001f0: 4432 e9bb 2e21 b2bd 6615 c63d 296b 2ebd
00000200: aabc 51bd 4227 13bb 0620 bb3c 151a 8e3d
00000210: 8bf0 f0bc 779a 85bd a42c 8ebd 7ed0 7e3d
00000220: 939c 773d 9059 56bd c5da 073d 4569 a33d
00000230: 6859 263d da69 38bd 47cc 8ebd f585 443d
00000240: 3958 c4bd a79e c1bd f0e3 13bc a49c 933d
00000250: e231 223d e854 a33c 6b14 c13c e74a c83c
00000260: 44ae cd3d 3c96 6f3d 7f28 8e3d 287c 903b
00000270: 44a3 9dbd 2741 583a 916a 2e3d b0b6 cdbc
00000280: 275f ca3b 8710 323d 27ac eb3d d792 7bbd
00000290: 6218 99bb ba3e 4abd b4cd acbd b89a 69bd
000002a0: 56dd 51bd 2a8a 25bd 0bba 8d3a 9fb0 d73c
000002b0: 24fe 3cbd 954a fa3d f0ee bb3d 5a2c b6bd
000002c0: cc82 c3bd 11e8 77bd ec2e 27b9 b014 9c3d
000002d0: 900b 803c 2d99 cf3d e249 8e39 0774 c13d
000002e0: 39d6 633c 15a3 fe3d 4975 e33c 70f3 0dbd
000002f0: 807d ad3b 6b40 273d b8f4 793d cc45 123d
00000300: c5d1 7c3b ac27 f8bc 05fe 63bd 8184 84bd
00000310: a86d abbd e627 16bd fc90 253d 0baa 7ebd
00000320: 4f30 fcbc b98a 0e3d 1a26 44bd 6c84 9cbd
00000330: 355f 3bbc d4ed f53c 2898 db3d 0bd6 563c
00000340: d463 363c 801b c73c bf83 42bd b391 94bd
00000350: e0b6 94bd be3e 6fbd d1af 1b3d f83a cc3c
00000360: f889 013e b881 23bc 6130 9c3c 5a32 e13d
00000370: 2f00 9a3d 81f2 883d 6e8a 14bd e5b3 b23d
00000380: 2a02 f6bc 9f9b 6bbd 2058 a33d 5048 00bc
00000390: f7c2 453d caf8 bd3d a3bf e43d 4419 3e3b
000003a0: dad3 273d a518 44bc d1a5 56bd ac8d 3f3d
000003b0: 8273 803d 6ab4 da3c 922c 943d 6ebe a1bc
000003c0: 0a4d 71bd f1b5 7a3c 485b a7bd 4008 0f3c
000003d0: 2a40 413d 3410 2d3d b5cf 843d d8e6 ac3d
000003e0: 39d0 e8bc 76b5 8a3b 64c9 b33d b64a 083c
000003f0: 7756 dcbc e994 92bc df51 86bd 166a 453d

bias f4 [256]
0.44329068 0.5128226 -0.028179688 0.4426144 0.6037537 -0.033437267 0.4471686 -0.014718074
0.018764058 0.05979399 0.48151574 0.60195637 0.0017435993 0.49273232 0.56577384 0.46138838
0.5045208 0.48361441 0.37080997 0.6249556 0.4609888 -0.013797324 0.51988107 0.5071593
-0.013063937 -0.030586863 0.5394542 0.53848964 0.60237634 -0.024166428 0.5103128 0.46759155
-0.013345346 0.37873644 0.33338186 0.47530493 0.19002602 0.3643363 0.43604666 0.6229652
-0.022499382 0.5133632 -0.013221248 0.5553911 0.5576521 0.5512535 0.5909565 0.4938728
0.4881207 -0.028306168 -0.01209087 -0.012878181 0.47479957 0.5580738 -0.02054338 0.47960576
0.32811487 0.32380554 0.0024441308 0.0017867276 0.5585544 0.44737148 0.044513352 0.022953851
0.57937515 0.27637213 0.55859727 0.52679 0.58235043 0.17930546 0.47788897 0.45859736
0.5614067 0.27847597 0.5993757 0.52334446 0.58482355 -0.023211299 0.2794222 0.42298684
0.31503063 -0.024761487 0.5212098 -0.03500473 0.53937155 -0.020238452 -0.023182098 0.3120999
0.39065742 0.5464343 0.56484294 -0.02644046 0.4676848 -0.020649947 -0.030398078 0.55807805
0.5740383 0.20587498 0.60237455 0.3394886 0.29049003 -0.03556439 -0.020281829 0.24739069
0.55240035 0.6176134 0.51069003 0.47710627 0.19623004 0.5619575 0.5634715 0.49433595
0.6135951 0.59256154 0.5624728 0.47012147 0.54763657 0.6235177 0.63666385 0.30356678
-0.051234365 -0.02247094 -0.018608304 -0.018936103 0.069115534 0.33426052 0.5542837 0.55322593
-0.024564926 0.4411096 0.6202507 0.32901475 0.41053188 0.19877319 -0.008100576 0.021229833
0.6059095 0.53635645 -0.02879148 0.37378466 0.5686897 0.4327515 0.51726854 0.3338363
0.46049932 0.2668601 0.57297754 -0.013474214 0.5609907 -0.023971193 0.47207674 0.41892636
-0.01676423 0.1569134 -0.0061606816 0.24417342 0.57118225 0.6246444 0.3048052 0.52314365
0.4274329 0.6357736 0.56577915 0.5843619 -0.019786559 0.59079206 0.3001243 -0.013508065
0.60193026 0.6077951 -0.013574941 -0.0221348 -0.025922222 0.41993794 0.31804845 -0.0130373705
-0.029696524 0.59696007 -0.0412024 0.5207621 -0.024421675 -0.012672457 0.57526463 0.592384
0.42286602 -0.020634415 0.5997056 0.49017468 0.19388387 -0.030422831 0.57699686 0.49154449
0.53593206 0.58064616 0.4908176 0.5300031 0.50297225 0.054296546 0.60572386 0.5054152
-0.009812968 0.46739528 -0.002904074 0.5347694 -0.030048968 -0.024738126 0.12331757 -0.015282827
0.53039986 0.472009 -0.020880725 0.5430754 0.3205732 0.5802009 0.30105117 0.54706836
0.5049355 0.31414333 0.13532865 0.5495851 -0.02547104 0.42191803 0.31461588 -0.031836357
0.5376823 0.57530403 0.55549026 -0.025594134 0.58419734 0.17640416 -0.03127504 0.5874781
0.5694927 0.0017656984 0.42268053 0.5597877 0.4217577 0.53091216 0.58013743 0.41346905
0.30270794 -0.019580208 0.5040995 -0.033062864 -0.012827239 0.52306014 0.5793892 0.61276156
0.42741728 0.5415211 0.31944174 0.52522177 0.19225271 -0.018412843 -0.037894033 0.5094814
00000000: fff6 e23e 5848 033f 17d9 e6bc 5b9e e23e
00000010: 9a8f 1a3f 84f5 08bd 48f3 e43e 1424 71bc
00000020: 15b7 993c 8bea 743d 3b89 f63e d019 1a3f
00000030: 7c89 e43a 6947 fc3e 8ed6 103f 193b ec3e
00000040: 4628 013f 4f9c f73e ceda bd3e 17fd 1f3f
00000050: b906 ec3e 2c0e 62bc ed16 053f 31d5 013f
00000060: 200a 56bc 4d91 fabc ac19 0a3f 75da 093f
00000070: 5635 1a3f acf8 c5bc dca3 023f 2968 ef3e
00000080: 70a6 5abc bee9 c13e 07b1 aa3e 2b5b f33e
00000090: 2e96 423e 4a8a ba3e 8241 df3e a67a 1f3f
000000a0: a050 b8bc c56b 033f ef9d 58bc 1c2e 0e3f
000000b0: 4ac2 0e3f f31e 0d3f ed48 173f e5dc fc3e
000000c0: f5ea f93e 56e2 e7bc c918 46bc 02ff 52bc
000000d0: ee18 f33e eddd 0e3f 974a a8bc e38e f53e
000000e0: acfe a73e d7c9 a53e b62d 203b a130 ea3a
000000f0: 6cfd 0e3f e00d e53e a253 363d b709 bc3c
00000100: ee51 143f a680 8d3e 3b00 0f3f b6db 063f
00000110: eb14 153f da9b 373e ddad f43e 46cd ea3e
00000120: 59b8 0f3f 6794 8e3e b070 193f e7f9 053f
00000130: ffb6 153f 9f25 bebc 6d10 8f3e bb91 d83e
00000140: b24b a13e 9ad8 cabc 016e 053f 1f61 0fbd
00000150: 4114 0a3f 1ccb a5bc 62e8 bdbc 8fcb 9f3e
00000160: 4004 c83e 1ee3 0b3f 8c99 103f aa99 d8bc
00000170: 6274 ef3e 142a a9bc 6405 f9bc 34de 0e3f
00000180: 2df4 123f e4d0 523e 3835 1a3f 73d1 ad3e
00000190: 1cbb 943e f7ab 11bd 1426 a6bc fc53 7d3e
000001a0: 1c6a 0d3f e91b 1e3f 95bc 023f 4647 f43e
000001b0: 87f0 483e 72dc 0f3f ab3f 103f 9a19 fd3e
000001c0: 9214 1d3f 1db2 173f 38fe 0f3f c3b3 f03e
000001d0: e931 0c3f db9e 1f3f 67fc 223f 1b6d 9b3e
000001e0: 20db 51bd fa14 b8bc 7170 98bc e31f 9bbc
000001f0: 728c 8d3d 3224 ab3e 89e5 0d3f 37a0 0d3f
00000200: 623c c9bc 1ed9 e13e c0c8 1e3f 9f74 a83e
00000210: 3c31 d23e 338b 4b3e 47b8 04bc 30ea ad3c
00000220: e31c 1b3f a84e 093f 1cdc ebbc b460 bf3e
00000230: a695 113f 9b91 dd3e b66b 043f 97ec aa3e
00000240: 91c6 eb3e e3a1 883e a8ae 123f f3c2 5cbc
00000250: 169d 0f3f 3c5f c4bc 0bb4 f13e 847d d63e
00000260: 2355 89bc e8ad 203e 8bdf c9bb 9908 7a3e
00000270: 0039 123f b2e8 1f3f 6d0f 9c3e beec 053f
00000280: 7cd8 da3e 0fc2 223f e7d6 103f be98 153f
00000290: 6c17 a2bc 263e 173f e4a9 993e ee50 5dbc
000002a0: 1a18 1a3f 7698 1b3f 6e69 5ebc 0a54 b5bc
000002b0: d75a d4bc 1b02 d73e 3fd7 a23e b29a 55bc
000002c0: 2046 f3bc 60d2 183f d9c3 28bd aa50 053f
000002d0: f70f c8bc 23a0 4fbc 8b44 133f 7aa6 173f
000002e0: e581 d83e 8109 a9bc 4e86 193f 2df8 fa3e
000002f0: 7e89 463e 4d39 f9bc 11b6 133f b8ab fb3e
00000300: d832 093f 3aa5 143f 724c fb3e 48ae 073f
00000310: cac2 003f 0e66 5e3d b810 1b3f e462 013f
00000320: 92c6 20bc 6f4e ef3e 4752 3ebb a6e6 083f
00000330: 4129 f6bc 9ca7 cabc ec8d fc3d d364 7abc
00000340: 49c8 073f 2aab f13e 0e0e abbc fd06 0b3f
00000350: 2c22 a43e 0c88 143f 6123 9a3e ac0c 0c3f
00000360: 7443 013f 65d7 a03e 9893 0a3e 9cb1 0c3f
00000370: a4a8 d0bc a405 d83e 5515 a13e d766 02bd
00000380: 8ca5 093f 2047 133f 9c34 0e3f caaa d1bc
00000390: f58d 153f 4ba3 343e 421a 00bd f764 163f
000003a0: 46ca 113f 026f e73a 9569 d83e 3f4e 0f3f
000003b0: a0f0 d73e dce9 073f e383 143f 37b2 d33e
000003c0: 89fc 9a3e ac66 a0bc aa0c 013f ed6c 07bd
000003d0: 5729 52bc 45e7 053f da52 143f f1dd 1c3f
000003e0: 70d6 da3e 20a1 0a3f de8d a33e ef74 063f
000003f0: e5dd 443e 88d6 96bc c636 1bbd 5f6d 023f

weight f4 [9, 256]
0.119372025 0.14098024 -0.087476425 0.09461696 0.13071607 -0.059562083 0.08054221 -0.03547974
-0.112841226 0.10360283 0.10282092 0.13869412 0.11255182 0.0787112 0.13742884 0.09690327
0.07051413 0.08411947 0.068449825 0.13823296 0.092989445 -0.04876465 0.122624494 0.08569018
-0.10826028 -0.070838064 0.10343898 0.1363948 0.1455511 0.051677953 0.08817859 0.083213165
-0.073123634 0.09684967 0.11554719 0.08657017 0.2047839 0.08981145 0.10624095 0.1621707
0.035865813 0.10234577 -0.14289682 0.12521908 0.097675234 0.09670558 0.11291449 0.09891494
0.10437433 -0.015245528 -0.08281031 0.13456881 0.09157966 0.13933666 -0.11327039 0.10530689
0.087778136 0.088909015 0.09590609 -0.10516148 0.10896204 0.0887656 0.14918573 -0.063316084
0.09543237 0.07752475 0.1449435 0.08771264 0.1376198 0.09615462 0.10485924 0.093688436
0.15850525 0.089708425 0.14546655 0.090073 0.13433895 -0.075106956 0.07964785 0.08106509
0.078557014 -0.04399464 0.102675356 0.10907851 0.12583728 -0.058061678 -0.07872222 0.1516344
0.10456117 0.15481149 0.17133044 -0.09045184 0.084367424 -0.039691307 -0.16510774 0.18296789
0.09284338 0.07546085 0.12870789 0.11200254 0.20331629 0.009263851 -0.07435467 0.14270169
0.08404402 0.12834287 0.0903663 0.10680027 0.07607183 0.15432213 0.09038581 0.088688076
0.1307771 0.07962255 0.12662776 0.080889285 0.08492728 0.119134605 0.11535784 0.18484788
-0.00665939 -0.10498297 -0.08342554 -0.0899689 0.19489925 0.124411725 0.14673804 0.108287126
-0.05107364 0.09016749 0.093023464 0.088862084 0.10827003 0.074845426 -0.09063402 0.101598695
0.10705611 0.0777832 0.023135994 0.09129643 0.17441931 0.09664716 0.10068989 0.0885738
0.111213304 0.18366507 0.08824491 -0.09384889 0.10823461 -0.09912869 0.11186328 0.120720945
-0.0981757 0.084239505 0.22807685 0.20722684 0.12467827 0.15436067 0.2111201 0.07230865
0.11349608 0.10975363 0.11243294 0.13148044 -0.043338526 0.14068235 0.07539182 0.025658576
0.18050662 0.10199758 0.050325852 -0.06341206 -0.045490142 0.092932075 0.19291006 0.00670543
-0.08196955 0.1678107 0.026775423 0.109353945 0.024819152 0.05237805 0.15075675 0.12622237
0.09196594 0.11298213 0.1288332 0.08150307 0.07458761 -0.092062175 0.12347402 0.09904854
0.08702045 0.08091487 0.101316705 0.10423167 0.12729916 -0.0038501818 0.16225594 0.12371744
-0.07927885 0.084450655 -0.10457353 0.11545543 -0.033753432 0.07840095 0.08317231 -0.017466329
0.11272907 0.09751211 -0.03798805 0.07044464 0.078657836 0.14623445 0.09498682 0.12881461
0.12538317 0.09289968 0.11359995 0.088201694 0.11232184 0.09919449 0.07259065 -0.035107676
0.114964046 0.1815494 0.11040772 0.0028584052 0.08970208 0.074691944 0.018067827 0.09883931
0.16008416 -0.057210576 0.09095725 0.07566334 0.09731548 0.107399724 0.09562335 0.09402783
0.1075106 -0.06441973 0.09055935 -0.0058110505 0.007929075 0.07624114 0.1854742 0.15403338
0.1054529 0.13645953 0.15242772 0.09863549 0.10024115 -0.075023696 -0.09966207 0.09182504
00000000: 5279 f43d 205d 103e d726 b3bd 89c6 c13d
00000010: 6fda 053e 5ff7 73bd 50f3 a43d 3453 11bd
00000020: 4d19 e7bd b82d d43d c693 d23d d505 0e3e
00000030: 9281 e63d 5633 a13d 25ba 0c3e 3975 c63d
00000040: b669 903d d446 ac3d 6c2f 8c3d f18c 0d3e
00000050: 4071 be3d 71bd 47bd 8d22 fb3d 557e af3d
00000060: 91b7 ddbd 8c13 91bd d1d7 d33d 14ab 0b3e
00000070: 590b 153e 43ac 533d fa96 b43d aa6b aa3d
00000080: d8c1 95bd 1f59 c63d 01a4 ec3d b44b b13d
00000090: dfb2 513e 11ef b73d db94 d93d 1310 263e
000000a0: 08e8 123d a99a d13d 8b53 12be 6e39 003e
000000b0: f409 c83d 930d c63d b63f e73d eb93 ca3d
000000c0: 35c2 d53d 61c8 79bc 7498 a9bd 68cc 093e
000000d0: 1e8e bb3d 45ae 0e3e 4efa e7bd 24ab d73d
000000e0: 06c5 b33d ee15 b63d 6a6a c43d e75e d7bd
000000f0: 7d27 df3d bdca b53d 25c4 183e ddab 81bd
00000100: 0c72 c33d 4cc5 9e3d 126c 143e afa2 b33d
00000110: 34ec 0c3e b7ec c43d 71c0 d63d b9df bf3d
00000120: 334f 223e 0db9 b73d 2ff5 143e 3178 b83d
00000130: 2690 093e add1 99bd 691e a33d 7405 a63d
00000140: 80e2 a03d b933 34bd 7547 d23d 8e64 df3d
00000150: 7ddb 003e 15d2 6dbd 1e39 a1bd 0c46 1b3e
00000160: 2b24 d63d e786 1e3e 3f71 2f3e d03e b9bd
00000170: d4c8 ac3d 5a93 22bd 0112 29be ef5b 3b3e
00000180: ac24 be3d 388b 9a3d 00cc 033e 9661 e53d
00000190: 2532 503e 68c7 173c 4347 98bd 6420 123e
000001a0: 451f ac3d 506c 033e f711 b93d 1aba da3d
000001b0: 8ccb 9b3d 9f06 1e3e 321c b93d 18a2 b53d
000001c0: 6fea 053e 2611 a33d b5aa 013e 48a9 a53d
000001d0: 5bee ad3d d8fc f33d bb40 ec3d c348 3d3e
000001e0: 0337 dabb 5001 d7bd 02db aabd 9d41 b8bd
000001f0: ab93 473e 93cb fe3d 7f42 163e a4c5 dd3d
00000200: 9832 51bd bca9 b83d 1683 be3d 53fd b53d
00000210: adbc dd3d 8f48 993d 549e b9bd fa12 d03d
00000220: 3c40 db3d cc4c 9f3d b287 bd3c 9ff9 ba3d
00000230: fa9a 323e f2ee c53d 8036 ce3d 2e66 b53d
00000240: cdc3 e33d b212 3c3e bfb9 b43d d933 c0bd
00000250: 1baa dd3d fc03 cbbd 9318 e53d 8b3c f73d
00000260: 5710 c9bd c385 ac3d fa8c 693e 4633 543e
00000270: 5257 ff3d b910 1e3e de2f 583e 8f16 943d
00000280: a270 e83d 83c6 e03d 3e43 e63d cfa2 063e
00000290: bd83 31bd 090f 103e 0767 9a3d ef31 d23c
000002a0: bad6 383e 1be4 d03d 7b22 4e3d 2fde 81bd
000002b0: df53 3abd 2c53 be3d 378a 453e 39b9 db3b
000002c0: a7df a7bd 91d6 2b3e 2258 db3c f6f4 df3d
000002d0: 8951 cb3c 5e8a 563d fa5f 1a3e 7040 013e
000002e0: a458 bc3d 2d63 e73d daec 033e 15eb a63d
000002f0: 64c1 983d 188b bcbd f2df fc3d f6d9 ca3d
00000300: c737 b23d b2b6 a53d 227f cf3d 6a77 d53d
00000310: b65a 023e 5553 7cbb 6c26 263e 925f fd3d
00000320: f35c a2bd 77f4 ac3d a62a d6bd e573 ec3d
00000330: 0a41 0abd ad90 a03d 3e56 aa3d 8c15 8fbc
00000340: 80de e63d 6eb4 c73d 5c99 1bbd 4845 903d
00000350: 5c17 a13d 7cbe 153e 7388 c23d fae7 033e
00000360: 7264 003e 3042 be3d 17a7 e83d 17a3 b43d
00000370: fe08 e63d 7b26 cb3d 68aa 943d 11cd 0fbd
00000380: 4572 eb3d 16e8 393e 711d e23d 1554 3b3b
00000390: b9b5 b73d 17f8 983d fb02 943c 446c ca3d
000003a0: 1aed 233e a355 6abd cb47 ba3d 62f5 9a3d
000003b0: 574d c73d 63f4 db3d 2dd6 c33d aa91 c03d
000003c0: 842e dc3d 7eee 83bd 2e77 b93d a06a bebb
000003d0: f3e8 013c 5124 9c3d f3ec 3d3e edba 1d3e
000003e0: b1f7 d73d 0cbc 0b3e 0316 1c3e 6701 ca3d
000003f0: 3b4b cd3d 06a6 99bd a11b ccbd c40e bc3d

bias f4 [9]
1.3203328 1.2072998 1.3687731 1.3301771 1.1455301 1.2574685 1.5307213 1.1575991
1.3254403
00000000: aa00 a93f cd88 9a3f f533 af3f 3e43 aa3f
00000010: bba0 923f baf4 a03f adee c33f 352c 943f
00000020: 07a8 a93f
