animation_PPO/models/first_actor.pt (torch, 549893 bytes, 9 tensors)

log_std f4 [2]
000000 15 54 82 bf 32 90 7e bf
       -1.018191 -0.99438775

network.0.weight f4 [256, 16]
000000 d9 1d 6b ba 8a d9 ce b9 78 73 4a bb b2 b9 e0 bc
       -0.0008968986 -0.0003945346 -0.0030891579 -0.027432296
000010 bf a8 35 3a 06 7b fd bb cc 7b 1c bc a3 06 8f bc
       0.0006929747 -0.007735613 -0.009551 -0.01745922
000020 ea 04 51 bc 7a 37 0c bb cd 60 0a bc 4d 0a 27 bc
       -0.012757519 -0.0021395371 -0.008445931 -0.010195327
000030 d4 d7 4f ba dd 80 34 3b 1d 60 8b 3a 52 40 86 bb
       -0.0007928584 0.0027542629 0.0010633502 -0.004097023
000040 97 d9 39 bb df 3f 36 3b 7c a5 89 bb 79 7c cf bc
       -0.0028358453 0.0027809066 -0.0042006355 -0.025327908
000050 29 b2 18 ba e3 4d 0d bc f4 af 1a bc 6c c6 a1 bc
       -0.0005824888 -0.008624527 -0.009441365 -0.019747935
000060 5d 9c 3e bc ef f0 20 bb 42 ba 10 bc 3f 41 53 bc
       -0.01163396 -0.002455767 -0.00883347 -0.012893974
000070 c4 9f 84 ba e0 d9 f1 3a 2c b1 53 b9 2c 20 af bb
       -0.0010118415 0.0018451773 -0.0002018853 -0.0053444114
000080 9c 6c 16 bb 1a b1 61 bb 81 02 34 bb d1 87 51 3b
       -0.002295292 -0.0034437836 -0.0027467313 0.0031971822
000090 a3 1d 8c bb 69 8c 60 bb c1 4b 31 bb bd eb 50 bb
       -0.004275994 -0.0034263378 -0.002705321 -0.0031878792
0000a0 43 b9 43 bb d9 86 00 bb b3 b0 17 bb 69 a7 4f bb
       -0.0029865063 -0.0019611625 -0.0023146092 -0.0031685478
0000b0 67 6c 6b bb 21 b5 43 bb d6 f5 76 bb 31 57 6d bb
       -0.0035922767 -0.00298626 -0.003768315 -0.00362153
0000c0 ee 77 b0 b9 40 27 44 ba 12 66 d9 39 1b 83 36 3a
       -0.0003365869 -0.00074826553 0.00041465514 0.0006962285
0000d0 d9 39 62 ba 0c 8c 8a ba 2d aa f3 39 ba 75 6e ba
       -0.0008629836 -0.0010570302 0.00046475363 -0.0009096522
0000e0 c6 15 a1 ba 8d 23 50 3a 9b 5c 2d b9 72 c8 18 bb
       -0.0012289814 0.0007939868 -0.00016533064 -0.0023312834
0000f0 80 2d 46 ba cd 23 48 ba d4 41 00 3a 58 f5 9d b9
       -0.00075598806 -0.0007634729 0.00048926217 -0.0003012817
000100 d7 7c cd bd 88 24 85 be 5b 67 b3 bd 37 85 91 3e
       -0.10033577 -0.26004434 -0.08759948 0.28421947
000110 33 3f f7 bc cf 87 01 bd 71 6e d3 bb 92 4b 03 3d
       -0.030181503 -0.031623658 -0.0064523746 0.03205449
000120 09 32 88 3c 45 ad b0 3c 82 d8 34 bc 00 d0 a2 bd
       0.016625421 0.021566996 -0.011037948 -0.07949829
000130 2a 3c 7b be 73 5a 84 be 75 b1 5c be 5e 38 bf bd
       -0.2453467 -0.25850257 -0.2155207 -0.09336923
000140 6b 96 12 bc 7f 5e 27 bc f4 9e f5 bb 39 cf 0d 3c
       -0.008946995 -0.010215401 -0.0074957553 0.008655363
000150 d6 b2 1d bc f2 6c 1a bc d3 20 f8 bb fc 74 1f bc
       -0.009625157 -0.009425389 -0.0075722723 -0.009732481
000160 dd bf 06 bc 43 08 16 bc 31 97 16 bc 87 d6 13 bc
       -0.008224455 -0.009157243 -0.00919132 -0.009023315
000170 c9 87 1f bc f6 14 04 bc 4b d7 18 bc 02 8a 0a bc
       -0.009736964 -0.008061638 -0.009328674 -0.008455755
000180 78 e3 13 ba 34 f3 83 39 25 05 13 b9 7a 77 50 3a
       -0.00056415005 0.00025167468 -0.00014020929 0.00079523737
000190 30 40 02 3a 05 ef 30 ba 60 8e 5d 39 8c 69 99 ba
       0.0004968671 -0.0006749484 0.00021129241 -0.0011704429
0001a0 61 69 33 ba b2 79 74 ba 89 7c 1c 38 cd 51 8f ba
       -0.0006844011 -0.00093259953 3.730928e-05 -0.0010934413
0001b0 9d 6a 00 ba 70 89 36 ba 2e 03 c0 b7 89 db 23 39
       -0.0004898699 -0.0006963229 -2.2889664e-05 0.00015626675
0001c0 56 e6 4d ba 57 c0 02 3b 1a 92 ae bb 79 d0 d5 bc
       -0.0007854452 0.001995107 -0.0053274753 -0.026100384
0001d0 bf 0f 9a 3a b5 b5 e5 bb b4 eb 08 bc d1 82 90 bc
       0.001175396 -0.0070101866 -0.008356977 -0.017640503
0001e0 00 46 32 bc 47 aa 1a bb 38 bf de bb d1 a1 13 bc
       -0.010880947 -0.0023600028 -0.0067976974 -0.009010748
0001f0 f5 81 5b b9 f9 b9 76 3b 21 a1 26 3b b1 7f 5a bb
       -0.0002093388 0.003764747 0.002542563 -0.003334027
000200 88 b1 c9 ba fb 28 14 bb db 29 07 bb 5f 38 99 3a
       -0.0015387991 -0.0022607434 -0.0020624313 0.0011689774
000210 b5 d3 89 bb 99 22 83 bb 8a 96 65 bb 74 69 57 bb
       -0.0042061456 -0.004001927 -0.0035032355 -0.0032869251
000220 ae 1a 6f bb c6 4b 42 bb cc 1d 8a bb fe b0 4d bb
       -0.0036484408 -0.0029647215 -0.004214978 -0.0031386013
000230 b6 15 21 bb d2 03 1e bb fe d3 4b bb e0 60 70 bb
       -0.002457959 -0.0024111164 -0.00311017 -0.0036678836
000240 e5 fa 67 bb d2 27 c2 bb 7f 32 b1 bc be 5f e1 bd
       -0.0035397348 -0.005925157 -0.021630524 -0.110045895
000250 1f 04 22 3b e9 26 2d bc 0f 01 9c bb e1 1a 5a bc
       0.0024721695 -0.010568359 -0.0047608684 -0.0133120725
000260 5f 13 d7 bb cc 89 83 3a 27 c5 8f ba 36 4f 2e bc
       -0.0065635885 0.0010035574 -0.001096879 -0.010639003
000270 2c 21 e0 bc 05 59 ee bc 81 46 a1 bc ab 6a 88 bc
       -0.027359568 -0.029095182 -0.01968694 -0.016652426
000280 c5 8a 03 bc e5 06 d6 bb 41 0a 8d b9 29 10 74 bc
       -0.008028691 -0.0065315836 -0.00026901255 -0.014896431
000290 51 b3 e2 bb 23 3f 61 bc 23 b4 8c bc 0c 62 e0 bc
       -0.006918349 -0.013747963 -0.01717574 -0.027390502
0002a0 c8 bc a0 bc 18 4d 10 bc 80 3c 7f bc cc 4d 91 bc
       -0.019621268 -0.008807443 -0.015578389 -0.017737292
0002b0 0a ca 0a bc ce 5c cd bb 87 a7 dd bb 7c 33 46 bc
       -0.008471021 -0.0062671667 -0.0067643556 -0.012097236
0002c0 f8 91 2c 3a 05 a6 30 b9 1c e7 73 bb ca 9a fd bc
       0.00065830303 -0.00016846515 -0.003721661 -0.030957598
0002d0 b2 d7 34 3a 94 62 ff bb 6e 74 1b bc 80 60 8d bc
       0.0006898596 -0.007793734 -0.009488208 -0.017257929
0002e0 70 6e 36 bc 75 4a 29 bb 91 b9 e7 bb 0a 3b 3b bc
       -0.011134729 -0.0025831733 -0.007071682 -0.01142765
0002f0 bc 36 92 ba 17 8e db 3a 14 d0 d7 39 a2 10 ae bb
       -0.0011155228 0.001675072 0.00041163026 -0.0053120414
000300 e8 39 11 bc 62 2c 0c bc a9 34 f3 3b b9 27 dc 3b
       -0.008863904 -0.008555504 0.007422049 0.0067186025
000310 ac 78 19 bc 28 79 24 bc d1 97 1a bc 1b 23 12 bc
       -0.009367149 -0.0100386515 -0.00943561 -0.008919503
000320 71 c3 1c bc b2 fb 0f bc a8 aa 05 bc 9b 66 f0 bb
       -0.009568081 -0.008788036 -0.008158363 -0.0073364503
000330 64 eb 14 bc cf 8b 77 bb 04 53 11 bc f5 ce 1a bc
       -0.009089325 -0.0037772541 -0.00886989 -0.009448756
000340 15 99 a8 ba b6 06 bb 3a 1f 7b 9a bb c3 f3 ea bc
       -0.0012863005 0.0014268968 -0.004714384 -0.028680688
000350 68 ba 58 ba 25 0d 07 bc 5c d8 f5 bb f9 e4 9a bc
       -0.0008267523 -0.00824288 -0.0075025987 -0.01890801
000360 d5 fe 54 bc e2 fc 8d bb b4 2e 04 bc 9f e4 41 bc
       -0.01300021 -0.0043331245 -0.0080677755 -0.011834293
000370 4d 35 c4 b9 ad 61 16 3b 91 d5 67 3a b8 b2 88 bb
       -0.00037423745 0.0022946403 0.00088437746 -0.0041716956
000380 77 be c4 be 24 be 1c 3d 44 fc 02 3f ac 9b db be
       -0.38426563 0.03826727 0.51166177 -0.42892206
000390 66 23 8a 3e ab b2 14 3e d5 0e f9 3d cd 7e 99 ba
       0.26980132 0.14521281 0.12161032 -0.0011710763
0003a0 2c 77 82 be 72 02 b2 be b8 59 30 bf 20 e7 c0 be
       -0.25481546 -0.3476749 -0.688869 -0.37676334
0003b0 be 7d ff bd 72 2e ba 3d 27 ce 4c 3e 23 e8 73 3e
       -0.12475155 0.0909089 0.20000516 0.23819022
0003c0 9f 4e b8 ba 40 f2 26 b9 95 50 ac 39 c1 73 85 3a
       -0.0014061517 -0.00015921239 0.00032866435 0.0010181592
0003d0 14 b5 a7 b9 e2 53 93 ba bb 7c 11 ba 31 5d 56 ba
       -0.00031987636 -0.0011240209 -0.00055498973 -0.0008177339
0003e0 2c fb 4e ba b5 01 8c ba 97 15 5e 39 8d f0 5b ba
       -0.0007895704 -0.0010681661 0.00021179613 -0.0008390032
0003f0 df 89 81 ba ae 05 16 b9 1b fa 56 ba 59 86 d5 b9
       -0.0009883008 -0.0001430723 -0.0008200721 -0.00040726623

network.0.bias f4 [256]
000000 56 52 4c bc 15 9f 4f bc 66 fc 47 bb 6f d5 53 ba
       -0.012470802 -0.012672205 -0.0030515431 -0.00080808153
000010 de fd 4f bd bc dd 0d bc f5 37 dc b9 28 f6 36 bc
       -0.050779216 -0.008658823 -0.0004200336 -0.011167087
000020 66 d8 5c bb 62 24 69 bc 54 7d 9c bc a4 0f 35 bc
       -0.003369832 -0.014229866 -0.01910273 -0.011051092
000030 01 f3 17 bc 00 af 4a bc 72 d4 5d 3e ca 7e 35 ba
       -0.009274245 -0.012370825 0.21663073 -0.0006923495
000040 98 d1 46 bc 71 7a a3 bb 00 00 00 00 f5 ba 44 bb
       -0.012134932 -0.0049889614 0.0 -0.0030018662
000050 f3 25 46 bc 00 00 00 00 08 73 60 bd ec 0a f0 b9
       -0.012094009 0.0 -0.054797202 -0.00045784505
000060 d3 7c 09 bc 5a 6e 39 bc 80 11 d9 bb 27 4f 46 bc
       -0.008391577 -0.011317814 -0.0066244006 -0.012103832
000070 71 fd 17 bc d9 3e 46 bc 1a 4e 50 bc 45 e9 c3 3d
       -0.009276734 -0.012099945 -0.012713933 0.09565977
000080 15 7d 10 bb 3c 6e 51 bc 51 41 66 bb 4b 8d 35 bc
       -0.002204721 -0.01278263 -0.0035134146 -0.01108105
000090 6c 3c 2b bc 02 e0 46 bc 72 46 17 ba 57 45 58 bb
       -0.010451417 -0.012138369 -0.000577069 -0.0033000314
0000a0 35 0d 3b ba 78 09 6b bd 64 ba 51 bc 03 a9 2d bc
       -0.0007135452 -0.057382077 -0.012800787 -0.010599378
0000b0 ac da 4a bc b0 6e 3f bc cf 6e 4b bc da 84 15 ba
       -0.012381237 -0.011684105 -0.012416556 -0.00057036954
0000c0 e9 b6 12 bb 67 64 1a bd 3c 60 f7 bc 96 91 84 ba
       -0.0022386855 -0.037693407 -0.030197255 -0.0010114189
0000d0 20 b8 7d bd 3c ad 43 bc 13 2a 2d bb 2f ba 29 3e
       -0.061943173 -0.011943158 -0.0026422783 0.1657493
0000e0 90 e7 44 bc e8 31 46 bc 86 14 3a bc ad a5 46 bb
       -0.012018099 -0.0120968595 -0.011357432 -0.0030311153
0000f0 9e 84 6f bc 57 fc 11 be 49 bb 05 be 0f f3 e6 bb
       -0.014619021 -0.14256416 -0.13059725 -0.007048018
000100 d5 38 46 bb 60 34 23 bb 15 11 90 bb f9 ba 4d bb
       -0.0030246277 -0.0024903044 -0.0043965676 -0.0031391962
000110 1f ee 4a bc a3 0f 3e ba f9 04 23 bb ad 97 4a bc
       -0.012385874 -0.0007250255 -0.002487479 -0.012365264
000120 04 e3 01 ba 26 10 0b bc 34 15 3a bc bd 83 46 bc
       -0.00049547874 -0.008487737 -0.011357594 -0.01211637
000130 b9 ab 41 bc 83 86 6f bb 6d 48 10 bb 9c bd 3d bc
       -0.011820727 -0.003654868 -0.0022015825 -0.011580851
000140 09 12 07 be 5b f7 0b 3d de 95 40 bc 28 ab 16 bc
       -0.13190474 0.034171443 -0.011754481 -0.00919608
000150 16 f9 d9 ba ea 93 46 bb 8c b3 e2 bb e9 4c 47 bc
       -0.001663002 -0.0030300566 -0.0069183763 -0.012164333
000160 38 52 44 bc 96 ba fe bc a4 22 44 bb e4 c6 c0 bb
       -0.011982493 -0.03109483 -0.0029927874 -0.0058830846
000170 ed c1 3b ba 77 fd 19 bc e6 44 f0 bc 29 e7 4c bc
       -0.0007162381 -0.00939881 -0.029329728 -0.012506285
000180 59 e1 56 bd 01 ae 54 bc ae ff 43 bc 5f 60 16 bb
       -0.052461002 -0.012980939 -0.011962814 -0.0022945625
000190 7f 1b 50 bc e4 9b 42 bd f8 1c 4a bc dc 8d 4b bc
       -0.012701868 -0.04751195 -0.012336008 -0.012423959
0001a0 f2 b9 a5 bd 52 8a f1 bb 09 0a 61 ba 00 00 00 00
       -0.08092107 -0.0073712254 -0.0008584564 0.0
0001b0 00 00 00 00 4a 76 1d bc 67 69 d6 ba 04 0e 4c bc
       0.0 -0.009610722 -0.0016358317 -0.012454513
0001c0 00 00 00 00 fa 2f 4d bc 93 4d 50 bb 00 00 00 00
       0.0 -0.012523646 -0.003178452 0.0
0001d0 b5 0c de bb 58 5f d8 bc eb fc 43 bc 2f 71 dd ba
       -0.006776417 -0.026412651 -0.011962156 -0.0016894693
0001e0 dd 5a 45 bc ef 82 47 bb 33 a3 4d bc 83 8a ad ba
       -0.012045589 -0.0030443033 -0.012551117 -0.0013240132
0001f0 a8 04 7c bb 07 4f 15 bb 8a f8 4c bc c7 01 12 bc
       -0.0038454924 -0.00227827 -0.012510428 -0.008911557
000200 85 ba 1b ba dc 0d 0d ba f1 b6 4f bc ea 0f 52 bc
       -0.00059405743 -0.00053807884 -0.012677894 -0.012821177
000210 c0 5f dc bb 76 61 1e bd a6 de 56 bd 72 f9 c0 bb
       -0.0067252815 -0.038667165 -0.052458428 -0.005889111
000220 18 ce 03 be c9 19 bb bd 58 23 80 bb d6 77 af ba
       -0.12871587 -0.091357775 -0.0039104633 -0.0013387154
000230 da 87 6a bb c4 87 42 bc 9c 51 b5 bd 87 04 cc bb
       -0.003578654 -0.011873189 -0.088534564 -0.0062261256
000240 1a e0 46 bb 72 64 1e bc fc a8 39 bc d6 a9 6c bc
       -0.0030345977 -0.009667503 -0.011331793 -0.014444789
000250 a9 ea 42 bc c8 31 4a bc a1 e1 37 ba c2 60 1c ba
       -0.011896768 -0.01234097 -0.00070145173 -0.0005965346
000260 ec e3 36 bc 3a 9b 43 bc 06 fc c9 bd 18 e7 99 bb
       -0.011162739 -0.011938864 -0.09862523 -0.004696738
000270 3f cb 53 bb 73 74 35 ba 7c 09 2e ba 10 65 49 bc
       -0.003231719 -0.00069219543 -0.00066389865 -0.012292162
000280 0d 93 45 bc 58 75 40 bb 65 f5 5d bd a6 9c 28 bd
       -0.012058985 -0.0029366817 -0.054189105 -0.041165017
000290 f8 b3 26 3d fa 90 45 bc a6 03 45 bc 2c bb 4e ba
       0.040698975 -0.012058491 -0.012024796 -0.0007886167
0002a0 b5 7e 4c bc 43 04 9c bc 30 75 4a bc ab 70 3a bc
       -0.012481381 -0.019045 -0.012357041 -0.011379401
0002b0 0f 40 3d bc a2 3e e7 bd d0 71 10 bc d8 40 4d bc
       -0.011550917 -0.11291243 -0.0088161975 -0.012527667
0002c0 64 0b 4f bc 4f d7 4c bc a2 b5 93 ba ca db 58 bb
       -0.012636993 -0.012502505 -0.0011269341 -0.003308999
0002d0 66 6b 43 bc ed 5a 51 bc 8a 62 40 bc 8c e7 d3 bb
       -0.011927461 -0.012778026 -0.011742244 -0.0064668115
0002e0 95 12 49 bc 4a 2a 9f bb 66 35 51 bc cc 79 47 bb
       -0.012272497 -0.004857336 -0.012769079 -0.0030437587
0002f0 d9 5e 47 bc 77 3b b8 bd f7 7d 48 bb 8c 6d 3f bc
       -0.01216861 -0.08995717 -0.003059266 -0.011683833
000300 99 78 39 bc f4 a3 f5 b8 ef 46 45 bc ed 39 49 bc
       -0.011320257 -0.00011713049 -0.012040838 -0.012281877
000310 8b 34 0d ba e0 00 fc 3d f8 ff 30 bc 80 4f 42 bc
       -0.00053865527 0.123048544 -0.010803215 -0.011859775
000320 bb 26 4d bc 68 af 31 bc 59 ce 82 ba 92 85 fe ba
       -0.012521441 -0.010845043 -0.0009979709 -0.0019418469
000330 d5 0b da b9 c8 e3 d9 ba fb ef 3f bc 77 86 e5 bb
       -0.00041589016 -0.001662367 -0.011714931 -0.007004555
000340 28 19 4f bc e9 d5 05 ba 94 9c 50 bb 78 01 43 bc
       -0.012640275 -0.00051054225 -0.003183161 -0.011902206
000350 14 0a 99 bb 00 00 00 00 94 20 f3 bd 44 40 2f bc
       -0.004670391 0.0 -0.11871448 -0.010696474
000360 41 17 13 bc f8 60 18 bc ac 15 17 bc 82 7f c1 b9
       -0.008977712 -0.009300463 -0.009221476 -0.0003690683
000370 50 db 41 ba 18 f6 4b bc 8f 00 48 bc ca 01 90 b9
       -0.0007395046 -0.01244881 -0.012207164 -0.00027467153
000380 be ef 56 ba f5 fa 38 bc bf b1 36 bc 70 73 35 ba
       -0.00081991765 -0.011290302 -0.011150776 -0.00069218036
000390 73 4b 3e bc 37 af 56 bc 28 37 38 bc ad db 0d bc
       -0.011614668 -0.013103298 -0.011243619 -0.008658332
0003a0 03 1c 16 bc dd 2a 48 bb 6b 4d 3a bc e9 98 3b bc
       -0.009161952 -0.0030543127 -0.011370997 -0.011450031
0003b0 1c aa 2d ba 4e 27 cd 3d 06 8f 2d bc bb ec 3d bc
       -0.00066247745 0.100172624 -0.0105931815 -0.0115920855
0003c0 30 fe 4b bc d4 9a 36 3e b0 6c 54 bc 98 5e 08 bc
       -0.01245074 0.178325 -0.012965366 -0.008323334
0003d0 31 56 42 bc ae ce b1 bc e7 f0 a4 bb 1c dc 3d bc
       -0.01186137 -0.021704998 -0.0050336006 -0.011588123
0003e0 fc 56 04 bc 00 00 00 00 67 b6 cd bb c1 1e 36 bc
       -0.008077379 0.0 -0.0062778476 -0.011115731
0003f0 d7 b1 11 bb 13 40 4f bc 4a 68 21 bc cd 2d 30 bc
       -0.0022231245 -0.012649554 -0.009851525 -0.010753107

network.3.weight f4 [256, 256]
000000 b7 ce 34 ba 55 2d 88 ba 46 8a 2e 3a 48 e3 51 ba
       -0.0006897258 -0.0010389487 0.00066581776 -0.0008006585
000010 ce f2 90 ba 7c 52 f7 39 60 a7 16 b9 16 2b 65 ba
       -0.001105869 0.00047172967 -0.00014367467 -0.0008742077
000020 8b 88 2e ba f9 f8 ce b8 e2 c1 3d ba ac 73 ad 39
       -0.000665792 -9.86922e-05 -0.00072386686 0.00033083314
000030 86 24 91 b8 d6 ba a5 39 c0 8a 4a 3a 82 b0 1a ba
       -6.920942e-05 0.00031610456 0.0007726364 -0.00059009355
000040 47 bf 40 b9 ef d5 cf 38 54 81 b0 3a 0e 85 a7 3a
       -0.00018381803 9.9103774e-05 0.0013466277 0.0012780742
000050 b4 08 86 b9 02 78 f7 b9 de 1e 45 bb 23 93 3f 3a
       -0.00025564956 -0.00047200924 -0.0030078213 0.0007307997
000060 bd a3 11 ba 14 3b 23 ba de 11 34 3a 1c af 31 3a
       -0.000555571 -0.000622676 0.00068691175 0.00067781075
000070 af 1e 74 39 4a 2e 88 ba 7b 58 c7 39 01 8b c3 bb
       0.00023281084 -0.0010389772 0.0003802216 -0.0059674983
000080 b3 54 ae ba 4a 38 cb b9 03 13 36 3a 13 5b 92 39
       -0.0013300389 -0.00038761116 0.0006945582 0.00027915146
000090 fe f0 5d b9 8e 8c 8d b9 9b cc 6b 3a 00 50 e4 b9
       -0.00021165979 -0.00026998337 0.0008995027 -0.00043547153
0000a0 d9 65 89 3a f0 bf 51 bb e4 03 98 b9 7f 3d f7 b9
       0.0010482623 -0.0032005273 -0.00028994598 -0.0004715733
0000b0 3b 10 42 3a 63 eb ec 39 14 3d ad b9 34 50 79 39
       0.0007402931 0.00045188805 -0.00033042638 0.00023776368
0000c0 8a 6e ba 39 ab 3f 6e 39 80 17 72 ba 17 99 ca ba
       0.00035559043 0.00022721167 -0.0009235069 -0.0015457001
0000d0 e6 73 ea ba a6 73 ca 37 ad da 0b ba bb d5 33 ba
       -0.0017887324 2.413413e-05 -0.00053350144 -0.00068601564
0000e0 1b 93 fe b9 e4 88 74 ba 90 a9 0e b7 e7 d1 19 b9
       -0.00048556257 -0.00093282596 -8.503339e-06 -0.00014669412
0000f0 f2 ad 1c ba 78 fd b4 bb f3 be cd 38 66 56 1d b8
       -0.00059768476 -0.00552338 9.810729e-05 -3.751218e-05
000100 4e 22 dd b9 56 47 9f 3a 24 4b 90 b9 00 5c 7d 39
       -0.00042177964 0.0012151997 -0.00027521804 0.00024162233
000110 0d 79 ae ba 38 37 63 ba a0 75 85 3a 0d e3 86 b9
       -0.0013311222 -0.0008667591 0.001018215 -0.00025727638
000120 a0 fc 67 ba 15 1c 43 39 df 69 ec 38 af da cd 39
       -0.0008849595 0.0001860711 0.00011273077 0.0003926358
000130 c4 c1 a2 3a 84 15 58 b9 63 c1 78 3a 54 c7 a3 b8
       0.0012417366 -0.0002060738 0.0009489266 -7.8095734e-05
000140 1a 93 09 bb ac 06 84 bb 80 cc 55 ba d3 a6 ef 39
       -0.002099222 -0.0040291157 -0.0008155778 0.00045709926
000150 76 f7 07 b8 fd 0e 5a ba fb 34 1a ba cc ab ea b7
       -3.2416974e-05 -0.00083182735 -0.00058825285 -2.7974973e-05
000160 3c 10 a5 b9 85 ee f2 b9 3f ed 02 b9 c9 26 66 ba
       -0.00031483348 -0.00046335548 -0.00012486147 -0.0008779583
000170 48 81 2d b8 0c f8 fe b8 0e 45 78 bb 79 30 2d b8
       -4.1366817e-05 -0.00012157866 -0.0037882957 -4.1291558e-05
000180 0f 99 4b b8 78 1a 24 39 6f 3c 2b ba 69 a3 64 3a
       -4.854152e-05 0.00015650119 -0.00065321376 0.000872186
000190 13 91 26 3a 50 e9 c6 39 5d 1a 18 ba 35 b9 e6 b9
       0.0006354015 0.00037939334 -0.0005802268 -0.0004400701
0001a0 f8 b2 58 b7 8b 0b 6e 3a ae b9 2a 38 42 5c 00 ba
       -1.2916273e-05 0.00090806995 4.0704086e-05 -0.000489656
0001b0 80 58 0d ba cc 7d 5a 39 6d 60 2c 3a 80 ba 1d ba
       -0.00053919107 0.00020836963 0.0006575648 -0.00060168654
0001c0 c6 4f 22 3a b7 91 1b 3a 8f 7a 68 b8 27 ef 8d 3a
       0.0006191697 0.0005934494 -5.5427252e-05 0.0010828719
0001d0 91 34 05 b9 e8 d2 9c b9 14 88 84 ba 75 d0 35 b8
       -0.00012703451 -0.00029911776 -0.0010111355 -4.3347904e-05
0001e0 08 6b 86 b7 24 30 bf b9 10 ef 97 b8 d5 d6 94 39
       -1.6023885e-05 -0.00036466226 -7.24477e-05 0.00028388822
0001f0 69 59 49 3a e2 4d 8d b9 a9 0e 9f 39 86 3f 80 3a
       0.00076808647 -0.00026951643 0.00030337766 0.0009784556
000200 ef 63 68 ba 74 24 b1 39 f5 12 b0 39 3c 34 2a 3a
       -0.0008864989 0.0003378723 0.0003358346 0.0006492769
000210 7c db 22 b8 4a 9d 03 ba d6 dd 98 38 72 85 ba 39
       -3.882822e-05 -0.00050206913 7.289245e-05 0.0003557611
000220 88 70 b6 bb 82 a4 3c bb 6e 9b d9 39 38 60 54 b9
       -0.005567614 -0.0028784578 0.0004150527 -0.0002025374
000230 1c 5e 80 3a ae 18 07 ba 02 3c fd 39 7b aa 6d 36
       0.0009793672 -0.0005153519 0.0004830063 3.5414985e-06
000240 8e 31 1c 3a 55 89 20 b9 f9 43 0b 3a 59 b4 23 b9
       0.0005958312 -0.00015309949 0.0005312558 -0.00015612076
000250 77 d8 04 ba f8 1e 38 ba 05 99 07 ba 62 e1 30 3a
       -0.0005067656 -0.00070236577 -0.0005172643 0.0006747452
000260 e4 f5 c1 b9 6f 60 38 ba 6b 55 b6 b8 59 de 6e b9
       -0.0003699503 -0.00070334127 -8.6943466e-05 -0.0002278028
000270 94 44 c0 b8 53 fc 12 39 51 b4 2b b9 b4 a4 50 39
       -9.168047e-05 0.00014017643 -0.00016375004 0.00019897782
000280 c6 ba 81 3a b9 45 03 ba e1 59 8e b8 74 64 1c ba
       0.0009897582 -0.0005007643 -6.787829e-05 -0.00059658964
000290 82 6c 6b 3a d3 9e 59 39 58 ae 6d 3a 0f 45 f9 39
       0.00089807075 0.000207539 0.0009066812 0.00047544434
0002a0 81 73 3a ba 5c 7b 01 3a 17 be 30 ba 3a b8 b1 35
       -0.00071125483 0.00049393415 -0.0006742193 1.3241145e-06
0002b0 24 e6 89 ba 9f c3 34 3a d6 7b a8 ba 7b e3 2c 3a
       -0.0010520858 0.0006895605 -0.0012854289 0.00065951765
0002c0 26 6d ed b9 0f 59 19 ba 99 f5 29 b8 2c da 92 3a
       -0.00045285485 -0.00058497576 -4.052147e-05 0.0011203936
0002d0 ae ed 1a 3a f0 25 c6 b9 9b cc 12 ba bc d4 3b 39
       0.0005910051 -0.0003779377 -0.00055999466 0.0001791296
0002e0 1b 6a e5 b9 a9 e6 0d 39 d6 f8 0a 3a 8b 73 8d 39
       -0.00043757338 0.00013532735 0.00053013617 0.00026979702
0002f0 c8 18 ec b8 ca 3e 61 ba 67 c7 8c b8 99 c5 75 39
       -0.00011257973 -0.0008592425 -6.712862e-05 0.00023438632
000300 0b fb 9b 38 8f 54 2a b7 6d bb b3 38 ae b5 55 39
       7.437736e-05 -1.0152477e-05 8.570296e-05 0.00020380944
000310 73 a5 10 3a ad be c5 39 06 b4 29 ba b7 b5 59 b9
       0.0005517818 0.00037716833 -0.0006473664 -0.00020762427
000320 61 cb 1c ba 38 6a 75 b9 b4 b5 03 3a ac 2c da 39
       -0.00059812336 -0.0002340459 0.00050243293 0.00041613483
000330 72 ad 26 39 ae b1 16 3a 92 8c 57 ba dc 23 43 ba
       0.00015895607 0.0005748522 -0.0008222546 -0.0007444003
000340 e8 cf 8b 3a f3 08 43 39 4a e5 8b 3a bb 7c e6 39
       0.0010666819 0.00018599983 0.0010673192 0.0004396195
000350 21 3d 81 ba b7 c9 e9 38 a3 d8 7c bb f4 a9 44 39
       -0.0009860137 0.00011147878 -0.0038581274 0.00018755329
000360 6d 4b a9 3a 2f 8b ca 39 26 99 cf b9 33 bb 89 3a
       0.0012916155 0.00038632142 -0.0003959622 0.001050806
000370 ef fe dc 39 5a c2 0c bb 87 d5 04 ba fd 65 84 b9
       0.0004215161 -0.0021478147 -0.00050672184 -0.0002525299
000380 47 ab fe 38 34 72 8a 3a 58 15 38 3a bd 46 3c 3a
       0.00012143567 0.00105626 0.00070222234 0.00071821717
000390 3b c7 36 3a 71 5c b1 39 a0 66 58 39 c6 33 81 b9
       0.00069724367 0.00033828945 0.00020637596 -0.00024643372
0003a0 b0 b4 38 3a 2b 32 65 37 22 ed d6 39 be b2 e5 39
       0.00070459675 1.3661144e-05 0.00040993938 0.00043811457
0003b0 d6 29 1b 3a 38 1a a7 ba 40 9f f2 39 8e cb 83 3a
       0.0005919015 -0.0012748903 0.00046276487 0.0010055171
0003c0 fd 6d af b9 f3 8e 48 bb 6e 32 8e b9 96 2e 06 ba
       -0.0003346055 -0.0030602782 -0.00027121924 -0.0005118636
0003d0 c5 5c c1 3a dc 4e bd ba c0 6d 35 3a 7f 99 03 3a
       0.0014752379 -0.0014443058 0.0006920956 0.0005020126
0003e0 e7 44 13 3a c1 b6 2d 39 a2 3b 6a ba 8d ad a0 b8
       0.0005617872 0.00016566647 -0.00089352776 -7.661721e-05
0003f0 aa 8a b1 b9 50 f7 2f ba 47 6a cc 39 21 9d 2d 39
       -0.00033863384 -0.00067125726 0.00038989095 0.00016557101

network.3.bias f4 [256]
000000 f9 5b dc bb 51 ae 1b be 45 de 12 bd d9 f5 55 bb
       -0.006724831 -0.15203215 -0.035856504 -0.0032647757
000010 98 c3 15 bd 7d c1 6b bb 59 6e bf bb 66 08 88 bb
       -0.036563486 -0.0035973482 -0.005842012 -0.004151392
000020 89 e6 65 bc ab 51 7a bb 17 db 81 bb f7 9d 30 be
       -0.014032015 -0.003819565 -0.003962885 -0.17247759
000030 6b 64 b9 bd e8 c9 85 bd 72 42 94 be da 9e 6b bc
       -0.09052356 -0.06532651 -0.28956944 -0.014381135
000040 68 8d d3 3d 7b 9d df bb ae b5 3a bc 54 f1 38 bd
       0.103297055 -0.006824193 -0.011395855 -0.045152023
000050 e0 07 a2 bc db 63 c1 3d 6b a8 d1 bc ef a7 d6 bb
       -0.019779146 0.09442874 -0.025593003 -0.006550781
000060 69 2d 0b be a5 ca ab 3d 7b f7 93 bc 52 34 5c bc
       -0.13591541 0.08388261 -0.018062344 -0.0134402085
000070 84 83 88 bc e2 cf a6 bd a0 c8 3c bc 0f 73 8a bc
       -0.016664274 -0.08145119 -0.011522442 -0.016900567
000080 ef 37 09 bc ed eb 9a bc 47 bf b6 bb fe 35 30 bc
       -0.008375152 -0.018911326 -0.0055770013 -0.01075506
000090 e8 2a f9 bb 73 58 16 bc 46 ea 41 bc 74 bb 22 bc
       -0.007603992 -0.009176361 -0.01183564 -0.009932388
0000a0 f6 ba 8c bc 8d da 20 3d c0 e2 81 bb 29 23 0b bc
       -0.017178994 0.039270926 -0.0039637983 -0.00849227
0000b0 8e 2c 60 bc 93 86 ee 3d 75 41 64 be 74 57 0a bc
       -0.013682498 0.11646762 -0.22290595 -0.008443702
0000c0 27 3e 1e bc 4e 4d 93 3c b9 7c 91 bc 33 61 6a bb
       -0.009658373 0.017981198 -0.017759668 -0.0035763502
0000d0 61 9a 99 bd 7a 9b a2 bb 8b 18 68 bc 41 4c 26 bc
       -0.075001486 -0.004962382 -0.014166008 -0.010150016
0000e0 c3 3f b1 bc fd 62 a9 bc 04 13 a1 bb 72 19 a0 bc
       -0.02163685 -0.020677084 -0.004915597 -0.019543383
0000f0 49 a2 0c be b6 93 42 bc e6 fc 0a bc 16 1b 4b bb
       -0.13733782 -0.011876037 -0.008483147 -0.0030991486
000100 56 bf 16 bc f5 78 94 bc 66 99 21 3d b2 98 d2 bb
       -0.0092008915 -0.018124083 0.039452933 -0.006426894
000110 81 eb 95 bc 95 b3 e3 bd 45 b3 29 bc 65 e3 ba be
       -0.018300774 -0.11118237 -0.010357683 -0.36501613
000120 7b 86 52 bd 8f f3 3f 3d f2 02 5f bb 74 e6 85 bc
       -0.05139778 0.046863135 -0.0034028855 -0.01634524
000130 f7 f0 04 be 4b 07 8c bc 3f 50 9c bc 5a 84 47 bb
       -0.12982546 -0.017093321 -0.019081233 -0.0030443878
000140 92 b3 38 bc 5a 57 2b bc 19 5e 2c 3d d3 d2 30 bc
       -0.011273282 -0.010457838 0.042081926 -0.010792452
000150 ea 09 39 bc 91 ca f7 bd c3 4b 3c bc b0 fe a8 be
       -0.011293868 -0.12099183 -0.011492672 -0.3300681
000160 55 3a a0 3d a1 42 4c bd d8 cc 3f bc c6 e9 47 bc
       0.07823626 -0.04986823 -0.011706553 -0.012201732
000170 f5 ce 3d bc 77 bb 35 bc ee 9f 3e bc 02 41 79 bc
       -0.011584987 -0.011092058 -0.01163481 -0.015213253
000180 67 f7 c0 3c 84 ee ab 3d e8 c1 9b bb c3 04 2a bc
       0.02355547 0.083951026 -0.00475334 -0.010377112
000190 94 b7 28 bb 8a 6f 64 bd 1c 62 be bc ea 28 6c bc
       -0.0025744187 -0.055770434 -0.023240142 -0.014414052
0001a0 1e f5 1e bc 8e 3f de bc 00 60 21 bc 80 48 1a bc
       -0.009701995 -0.027129915 -0.009849548 -0.009416699
0001b0 55 8d 3e bc c4 88 74 3c 04 46 4b bc bc c0 66 bc
       -0.011630376 0.014925186 -0.01240683 -0.014084037
0001c0 bc ff 39 bd 56 55 36 be d0 a0 e8 bb 12 74 81 bc
       -0.045409903 -0.1780599 -0.0070992485 -0.015802417
0001d0 d8 f3 76 bc 92 ce 60 bb e3 65 6a 3d 3b de 95 be
       -0.015072785 -0.0034302813 0.057226073 -0.2927111
0001e0 69 df dc bb a4 19 41 3e f7 0f 4b be ba 8b a8 bd
       -0.0067404998 0.18857437 -0.19830309 -0.08229776
0001f0 d6 5e 7c bb af f0 33 bc 2b 5e e3 3c 54 79 8f bc
       -0.0038508675 -0.010982676 0.027754864 -0.017513908
000200 0c 3f 33 bc 1b 4e 82 bc ed 22 be bc a5 b7 c8 3c
       -0.0109403245 -0.015906384 -0.023210013 0.024501631
000210 96 12 0b bc 40 46 8d bc f0 76 9f bb 03 c2 7d bb
       -0.008488318 -0.017245412 -0.0048664734 -0.0038720376
000220 4b 60 e6 3d 44 76 46 bc 0e 34 e7 ba 35 b5 be bb
       0.11248835 -0.012113158 -0.0017639415 -0.0058199414
000230 c8 f6 85 bc 13 4a 1d bc a2 07 8a bb 0a 71 ac be
       -0.016353026 -0.00960018 -0.0042123357 -0.33679992
000240 91 37 9a bc 9c b4 cb be 05 61 6d bc 24 66 9e be
       -0.018825324 -0.39786232 -0.014488463 -0.30937302
000250 5a 99 43 bc df f8 1b bc 64 05 73 bc f0 46 2f bc
       -0.011938417 -0.009519785 -0.014832828 -0.010698065
000260 48 c0 8c bc 04 b9 25 bc 5f 0a 25 3e 9b 26 b1 3d
       -0.01718153 -0.010114912 0.16117238 0.086499415
000270 50 f4 42 bc 10 b3 f1 bb 5e 0e 6e bc 4d bd 84 be
       -0.011899069 -0.0073760822 -0.014529793 -0.25925675
000280 d9 b1 5a bb 1c bf 20 bc 22 19 16 be 20 0e 4b bc
       -0.0033370166 -0.009811189 -0.14658025 -0.012393504
000290 2f 22 09 bc 04 23 28 bc 68 fc 98 bc 30 7b d5 bd
       -0.008369966 -0.010262255 -0.018675044 -0.10423887
0002a0 f8 42 71 3e 61 d4 5c be 13 dc 1a bb d0 c4 52 bb
       0.23560703 -0.21565391 -0.002362971 -0.0032160766
0002b0 b2 4a 0a bc 8b 81 85 be 88 c9 71 bb 55 5a 27 bd
       -0.00844066 -0.26075396 -0.0036893804 -0.04085763
0002c0 e9 4a 83 bd 97 4a 08 bd f4 04 97 bb a8 c7 3b bc
       -0.06410772 -0.03327426 -0.0046087448 -0.011461176
0002d0 b2 e4 8b bc 38 fc 1c be 45 78 8a bc f3 e1 1c bc
       -0.017076824 -0.15330589 -0.016903052 -0.009575355
0002e0 f2 f3 a2 bc 38 92 a6 bb 7a 7b 9b bc f0 7c 4d bb
       -0.019891713 -0.0050833486 -0.018979777 -0.0031354986
0002f0 79 b8 19 bb 91 43 43 bc 54 93 41 bc 24 4e 6f bc
       -0.0023455902 -0.011917965 -0.011814911 -0.0146060325
000300 33 bb cf bd fa 04 bf bc a7 8b 3f 3e 34 4c 60 3d
       -0.10143127 -0.023317803 0.18705617 0.054760173
000310 0c 03 23 bc f4 0d c1 bc f4 e9 cb bc 43 44 69 bd
       -0.009949457 -0.023566224 -0.024891831 -0.056949865
000320 81 f1 32 bc e0 70 01 3e 2f 4f ff bb a0 46 6c 3e
       -0.010921837 0.12640715 -0.007791422 0.23073816
000330 48 d7 ec bb 15 70 1e bd 14 5d 0e be a6 6b 63 bc
       -0.007227812 -0.03868111 -0.13902694 -0.013880646
000340 b0 5c 60 bb 4d d7 83 bc 1a b3 88 bc 27 91 86 bc
       -0.0034234934 -0.016093874 -0.016686965 -0.016426636
000350 57 18 45 be 3f 1d 70 3d 00 d1 82 bc 6e 28 31 bc
       -0.19247566 0.05862164 -0.0159688 -0.010812862
000360 9d 5e 30 bc 31 3d 8e bc eb 42 33 bb 0b 97 1b bd
       -0.010764745 -0.017363163 -0.0027353119 -0.037985843
000370 0c 42 3c bc 43 64 94 bb 6c da 55 bc 89 d1 38 bc
       -0.011490356 -0.0045285537 -0.013052564 -0.011280426
000380 af 2b 9c bc e0 5b 3b bc 41 fa 66 bc b9 49 0e be
       -0.019063799 -0.011435479 -0.014097751 -0.1389531
000390 21 92 cf 3d 6a 4f d6 bb 0a 92 84 be 7d 0b 23 bd
       0.10135294 -0.0065402286 -0.2589267 -0.039805878
0003a0 e6 a6 d1 bc 48 33 28 bc 45 7d 90 bb ac 73 62 bc
       -0.025592279 -0.010266133 -0.0044094645 -0.013821524
0003b0 15 d1 12 bc 2e 09 8f bc 68 0a 20 bc 1f 95 eb bc
       -0.008960982 -0.017460432 -0.009768106 -0.02875763
0003c0 67 93 7f bc b6 0a 9b bd d9 97 b6 bb 89 5a 8c bb
       -0.015599108 -0.07570402 -0.005572301 -0.0042832536
0003d0 80 c6 32 3e 69 64 3c bc 93 39 c7 3b 67 57 07 bc
       0.17458534 -0.011498549 0.0060798614 -0.008260584
0003e0 24 11 1b bc 4f 39 f7 ba dd ca 59 bc 3f d0 93 bc
       -0.009464536 -0.0018861684 -0.013292995 -0.018043635
0003f0 21 d0 c6 bb 35 f0 95 bd bf e5 3a bc 44 99 38 bc
       -0.0060672914 -0.073212065 -0.011407315 -0.01126701

network.6.weight f4 [256, 256]
000000 72 da b4 39 b1 e6 cb be 1a 78 19 3e 16 52 19 b9
       0.0003449503 -0.3982444 0.14987221 -0.00014621796
000010 48 2d 1b be 56 71 bb 39 8d 5a 8c 39 f3 29 e4 38
       -0.15153992 0.0003575186 0.00026770346 0.00010879701
000020 1e 13 10 3a a1 90 80 ba e4 10 ba b9 7b fa e0 be
       0.0005496013 -0.0009808728 -0.0003548927 -0.439411
000030 44 ad da 3d d9 53 31 3e 1e 29 cd be 19 c0 d7 3b
       0.10677579 0.17317142 -0.40070432 0.006584179
000040 9b 1c db bd 38 34 6b ba ee b5 98 3b da 57 b7 3d
       -0.106988154 -0.000897232 0.0046603596 0.08952303
000050 31 2f bd 3b 14 da 00 3e 16 df 77 3a 86 67 db b7
       0.005773448 0.1258319 0.00094555446 -2.6155041e-05
000060 5d 15 5b be b2 ba 33 3e 47 65 d3 3b c2 d0 d5 3b
       -0.21394868 0.17551687 0.006451282 0.00652513
000070 a6 9e 89 ba 77 62 98 bb 02 de c2 3b 7a f5 e5 3b
       -0.0010499551 -0.00465041 0.0059468755 0.0070177885
000080 d9 40 83 b9 a4 b7 db 3b 93 cb 81 3b 3d ca f3 3b
       -0.00025034582 0.0067052413 0.0039610355 0.00743988
000090 60 dd a4 3a 8d bb 16 b9 1c e5 73 b9 cd c5 11 b9
       0.0012578182 -0.00014374983 -0.00023259636 -0.00013901964
0000a0 89 06 25 bb f2 1c 27 bf da f9 1a 3a 07 d9 36 ba
       -0.0025180897 -0.6527854 0.00059118646 -0.00069750886
0000b0 23 89 c0 3b 76 16 8c be b8 0e e7 be 4c ab 7f bd
       0.005875723 -0.27360886 -0.45128417 -0.06241922
0000c0 72 35 f4 3b e3 40 0f bd c1 91 f8 3b f3 52 a5 3a
       0.0074526602 -0.03497399 0.0075857346 0.0012613222
0000d0 d5 30 11 3e a6 2d 42 39 e5 0c e4 3b b8 56 32 3b
       0.14178784 0.00018518287 0.006959545 0.0027212333
0000e0 a0 39 3a ba 9e 16 f2 ba 2f 6b de b9 cd fe ce 3b
       -0.00071039237 -0.0018469875 -0.00042422998 0.0063169957
0000f0 aa 7d 97 bd be b1 32 bb 41 9f fb b9 04 2d 1f 3a
       -0.073970154 -0.0027266587 -0.00047993104 0.00060720765
000100 a9 5d e2 3b 35 6e b8 ba e1 81 54 bf 56 15 18 ba
       0.006908138 -0.001407093 -0.8301068 -0.0005801519
000110 aa 70 f3 3b db 78 a0 3c d1 0b ba 3a 0c e0 8b bc
       0.007429202 0.019588878 0.0014194195 -0.017074607
000120 1a b5 56 be 2c a2 76 bd 24 ac 9f 3a 4a 9e af be
       -0.20967522 -0.060213253 0.0012182039 -0.34300452
000130 08 9d 9d be 9b 9d e6 3b c8 f2 ba 3b 0a 99 9b 39
       -0.30783868 0.007037831 0.0057052113 0.00029677927
000140 d8 92 da 3b 6f 47 33 38 16 50 69 bd 9c da 88 3a
       0.006670337 4.2743453e-05 -0.05696114 0.0010441127
000150 53 12 f1 3b ab ed e2 bd f4 08 ed 3b 6d c0 eb bd
       0.0073569207 -0.11080488 0.0072337333 -0.11511312
000160 16 d9 02 be 66 7b ca be a3 31 d6 3b 05 de ca 3b
       -0.12778124 -0.3954727 0.006536679 0.0061910176
000170 d6 de a5 38 64 6c e6 3b 73 b7 de 3b 63 c0 df 3b
       7.9093195e-05 0.007031964 0.006796771 0.006828354
000180 6d 06 58 bd 48 15 71 be be 30 99 39 41 c5 ba 39
       -0.052740503 -0.23543274 0.0002921875 0.0003562365
000190 12 3f 76 39 35 3a 3d bc f4 61 c3 3b 9e f9 32 bb
       0.00023483884 -0.011549522 0.0059626047 -0.0027309428
0001a0 18 71 d4 3b 3c 0c 1a b9 69 e9 da b8 e6 00 3a 39
       0.0064832084 -0.00014691142 -0.00010438526 0.00017738677
0001b0 4b 78 62 bb ee 9c ca bd 7d 7e 51 bb 38 75 16 bb
       -0.0034556563 -0.09893213 -0.0031966262 -0.0022958051
0001c0 52 d5 08 bf 34 4f 54 3e ee ff dd 39 69 7e 09 3c
       -0.534505 0.20733339 0.00042343087 0.008391955
0001d0 07 81 68 3c 3b cd 15 3b ff 50 78 3d a2 e3 1a be
       0.014190919 0.0022857923 0.06062412 -0.15125898
0001e0 be db 02 3a e7 ab 51 bf f7 93 5d bd 02 d1 ae be
       0.00049918506 -0.8190293 -0.05409619 -0.34143835
0001f0 59 d6 86 39 44 90 42 39 a5 90 35 bf cb 5a c8 3b
       0.00025718173 0.00018555025 -0.70923835 0.006114339
000200 49 5a b5 3b 18 d4 91 39 59 9a 94 ba 4d 7d 91 be
       0.0055344445 0.00027814577 -0.0011337503 -0.2841591
000210 05 58 15 b9 fd d5 ec 3b 5f 4f 45 3b 0e 27 8b 3a
       -0.00014242537 0.007227658 0.0030107123 0.0010616498
000220 9a db 35 bf e9 11 09 3c 07 f9 60 3a 01 0a c2 3a
       -0.7103821 0.0083660865 0.000858203 0.0014804007
000230 8d 7e 83 bb 2c 4b 88 3a f2 1e 97 3a 32 8b 21 3e
       -0.0040128888 0.001039838 0.0011529608 0.15775755
000240 2f d3 77 bb 59 f6 88 be 07 ff 81 3b 48 1e 8c be
       -0.0037815084 -0.26750448 0.003967169 -0.27366853
000250 71 1f cc 3b 42 22 df 3b e2 56 b6 3b 43 11 a2 3a
       0.006229334 0.006809504 0.0055645565 0.0012364764
000260 8c 4b d4 38 1b a9 ad b9 b3 0c b9 be 7b b6 83 be
       0.000101230195 -0.00033123125 -0.361425 -0.2572516
000270 76 72 5e bb 0d cc ec b9 b3 14 f4 3b 8b 7d bc bd
       -0.0033942736 -0.00045165457 0.0074487566 -0.09203633
000280 70 f9 97 ba d5 df ee 3a 38 00 8f 3e 0d 12 c9 3b
       -0.0011594724 0.0018224666 0.27929854 0.006136185
000290 b6 25 ac ba a9 a3 f5 39 fb 2b 45 bb a6 93 eb 3d
       -0.0013133797 0.00046851978 -0.003008603 0.11502771
0002a0 b4 6f 4e bf 9d 18 ba be 01 46 68 3a c1 4e 0a 3a
       -0.80639195 -0.36346903 0.0008860529 0.00052760175
0002b0 7d b1 ed b7 46 68 2a 3e 6d ad 89 b9 73 5d 16 bf
       -2.8335251e-05 0.1664134 -0.0002625989 -0.5873634
0002c0 eb 31 35 bf f0 02 06 bf 7c 63 a4 39 0d 43 0d 3c
       -0.70779294 -0.5234823 0.0003135464 0.008621943
0002d0 92 62 3d bb cc aa a3 be 9d 85 e2 3b 8a 00 5f ba
       -0.0028897864 -0.31966245 0.0069129006 -0.0008506855
0002e0 eb 98 06 ba 41 f2 76 3a af cd 2b bb ad d2 60 ba
       -0.0005134481 0.0009420254 -0.0026215126 -0.0008576315
0002f0 7b 04 58 ba c2 37 d9 3b 78 8b f7 3b 32 28 e2 3b
       -0.0008240414 0.0066289613 0.007554468 0.0069017643
000300 88 3e 7f bf 1b 3a 88 bb d5 7d be bd 57 55 ae be
       -0.9970479 -0.0041573173 -0.09301344 -0.34049484
000310 62 55 64 b9 38 98 c3 3b 55 85 df 3b 5e 77 35 be
       -0.00021775582 0.0059690736 0.0068213143 -0.17721316
000320 33 a9 ba b9 53 01 28 bf 12 0c 11 39 0b e5 d5 3e
       -0.00035602748 -0.6562702 0.00013832774 0.41776308
000330 3e 86 bf b9 41 3d 93 be d4 00 88 3d 37 f3 ef 3b
       -0.00036530377 -0.2875767 0.06640783 0.0073226946
000340 b5 d1 cc ba 1c 8d d2 3b da 54 0e 3c 5e 99 40 bb
       -0.0015626462 0.006425513 0.008687222 -0.002938829
000350 81 84 67 be d5 1a 6d be 57 93 3f bb 08 6a 1c 39
       -0.2260914 -0.23154767 -0.0029232108 0.00014916819
000360 e1 86 df b8 02 f4 02 3c 75 53 2c ba e0 a3 d0 3b
       -0.00010658592 0.007992746 -0.00065737154 0.0063671917
000370 ea 5c 42 39 f1 bf 20 ba fe ed 5b bb d6 e0 17 3c
       0.00018535895 -0.0006132117 -0.0033558602 0.009269914
000380 cd 90 cf 3b f1 5b d0 3b 73 29 d1 ba 50 1c 85 be
       0.0063344003 0.0063586165 -0.0015957787 -0.25998163
000390 9a 1a fa bd 3b fd ef b9 1e 90 18 3e 70 69 ae ba
       -0.12212105 -0.00045774304 0.14898726 -0.0013306569
0003a0 fc 79 d0 3b 75 36 5d bb 24 4a 32 3a db 00 9d 3b
       0.006362198 -0.0033754383 0.0006801209 0.0047913617
0003b0 7e ea b3 bb 7a 85 e5 3b 50 ab 8e ba 21 ca b9 3e
       -0.0054906 0.007004437 -0.0010884795 0.36287025
0003c0 70 aa f7 3b 11 63 fe bc 17 27 b9 39 6f 94 d6 ba
       0.0075581595 -0.031053098 0.00035315074 -0.0016371141
0003d0 b0 93 71 bf f8 9a b5 3b 83 a4 35 3d 71 4e e6 b9
       -0.9436598 0.0055421554 0.044346344 -0.00043927462
0003e0 2c 26 a1 3d 92 f3 d8 39 40 b9 06 bb 81 5c f4 3b
       0.07868609 0.00041380204 -0.0020557195 0.0074573164
0003f0 b8 38 4c 3d 53 29 e2 be 55 64 b9 3b cc 0f c7 3b
       0.04985878 -0.44172153 0.0056577125 0.006074881

network.6.bias f4 [256]
000000 19 93 fe bb 5e d3 0f 3e e5 c1 b4 bc 30 26 1a bd
       -0.0077690003 0.14045474 -0.022065112 -0.037634075
000010 38 d5 2d bc fd ef e3 bc 2a 03 71 bb 18 1c 37 3e
       -0.010609917 -0.027824396 -0.0036775568 0.1788181
000020 a3 89 1d bd 95 4d dc 3d 9c 40 ee bd b3 b6 14 bd
       -0.03846134 0.10756985 -0.11633417 -0.036307048
000030 9b 8b 86 bb 2a 2f d7 bd 10 1a 64 bb 74 1f 22 3c
       -0.0041059977 -0.10507043 -0.0034805574 0.009895194
000040 f7 7a 0b bc 17 46 0b bb 04 3f 9f bc 1c d4 00 be
       -0.008513204 -0.0021251494 -0.019439228 -0.12580913
000050 e2 9d 18 bc 33 f4 38 bc 9f 0b 1e bd 56 87 28 be
       -0.009314986 -0.01128869 -0.0385853 -0.16457877
000060 53 54 3a bc ac 24 25 3d 8b 9d 05 bd b2 ad c0 bc
       -0.0113726435 0.040318176 -0.032620948 -0.023520324
000070 0f 5c 8d bc 96 a0 53 bc 7f 46 7d bc 8b d7 4b bc
       -0.017255811 -0.012916705 -0.015458702 -0.012441526
000080 f6 45 50 be f1 11 6b bb ae a6 13 bd 44 16 8f bb
       -0.20339188 -0.0035868848 -0.03604763 -0.004366668
000090 00 da 05 be 35 fb 9e 3d ba e4 86 bd 4d 46 0c be
       -0.13071442 0.07762758 -0.06586595 -0.13698693
0000a0 87 8f 95 bc 59 4e f5 bb 85 ac ff bc e6 23 74 bc
       -0.018256916 -0.0074861464 -0.031210193 -0.014901137
0000b0 a5 3e 32 3d bf b2 d7 bb 25 32 ed bc 70 d1 a3 bc
       0.043516774 -0.0065825875 -0.028954575 -0.019997329
0000c0 d9 86 10 3d 61 cf 3a 3e 29 ad 12 bb 44 73 fe bb
       0.03528485 0.18243171 -0.0022381044 -0.0077652056
0000d0 b1 e9 ad bb 53 cc 04 bd 01 d1 b0 bb dd 27 c8 3d
       -0.005307399 -0.03242142 -0.005396009 0.09773228
0000e0 23 f6 85 bc 1e 31 18 be 9a 49 b4 bc df 99 6e bd
       -0.016352719 -0.14862487 -0.022007752 -0.05825221
0000f0 1e 72 bf bd e4 aa ad bd cc 7b 0e bc 90 0f e2 bc
       -0.09347938 -0.084798604 -0.008696508 -0.027595311
000100 e6 8d 4e be 37 d0 29 bc 15 26 ec bb 42 d2 3c bc
       -0.20171317 -0.010364584 -0.007206688 -0.011524739
000110 ea 70 07 bc 1f 47 14 bd 5e 36 ae bc 5f 34 25 be
       -0.008266667 -0.03620064 -0.021266159 -0.16133259
000120 0b 85 b7 3d 8f dd 14 bb ba f3 b7 bc da e6 3e bc
       0.08960923 -0.0022715067 -0.022455085 -0.011651719
000130 51 9e 05 3d 57 15 d6 bb 4b ba 0b bd 6d e3 2b bc
       0.032621685 -0.0065333056 -0.03411321 -0.010491234
000140 7b c9 3c bc 16 5f bd 3c 50 98 35 bd 60 c6 1b be
       -0.011522646 0.02311663 -0.04433471 -0.15212393
000150 14 7d bc bb 00 bf f0 bb 20 35 c8 bc db d7 c4 bc
       -0.005752215 -0.0073469877 -0.024439394 -0.02402871
000160 e2 3a e9 bd e9 40 28 bd 55 ed 98 bb 18 0a 63 bc
       -0.11388184 -0.04107753 -0.004666964 -0.013857387
000170 7b 4e d3 bc 53 a7 a2 bc 4e 01 2e bc 24 a7 1a bd
       -0.025794258 -0.019855177 -0.010620428 -0.037757054
000180 8d da a4 bd 8b 45 09 bc a7 c8 0a bc 6b 96 de bc
       -0.08049498 -0.008378397 -0.008470691 -0.027171334
000190 88 73 47 bc e5 d8 0a bc af ab c7 bc 0e ac 61 be
       -0.012173541 -0.008474563 -0.024373857 -0.2203829
0001a0 b4 39 c6 bc d1 4e 09 bd 22 a4 06 bc 3d e0 9d bd
       -0.024197437 -0.03352243 -0.008217843 -0.07708786
0001b0 55 49 68 bb 11 ad 97 bc ce 1d ab bb bf 2d 08 bc
       -0.00354441 -0.018515142 -0.005222059 -0.008311688
0001c0 79 46 0c bd 1e 7b 76 bc 2c 74 8b bd dd 4c 0d bd
       -0.034246895 -0.015044002 -0.068092674 -0.03449713
0001d0 30 76 11 bd c9 33 c2 bc 9e be 74 3d be 0e d7 bb
       -0.035513103 -0.023706334 0.0597521 -0.0065630367
0001e0 a7 75 53 3d e7 48 65 bc 6c 82 74 bb 6c 36 08 bc
       0.051625874 -0.013994432 -0.0037309183 -0.008313756
0001f0 ec 80 a5 3d 73 f8 44 bc 79 ef 4e bd 1c 1e 03 be
       0.080812305 -0.012022126 -0.050521348 -0.12804455
000200 c3 a8 48 bc 4f 7b 03 bd 35 4a 0f bc a1 cd 5d bc
       -0.012247267 -0.032100018 -0.00874572 -0.013537795
000210 90 6e fd 3c 56 00 50 bc bd 91 42 bc fc 40 20 bc
       0.03093651 -0.012695393 -0.011875567 -0.0097811185
000220 d5 75 4d bb 94 6e 06 bc 7f e3 1e be d5 54 cc bc
       -0.003135075 -0.008205075 -0.1551647 -0.024942795
000230 d5 a7 79 bb 2c 1d aa bc dd 20 67 3d a1 4c 95 bd
       -0.003809442 -0.020765863 0.056427825 -0.072900064
000240 cf 6c ca bd 9c f6 8c bd fa 9c 2a bc 6b 1b da 3d
       -0.09884035 -0.068829745 -0.010413403 0.10649761
000250 82 69 a0 bc a6 07 f6 ba d5 f0 4b bc 14 aa 0b bc
       -0.01958156 -0.001877059 -0.012447556 -0.0085244365
000260 38 eb cb 3d 14 4e 92 bc 94 ec 59 be 78 ee 15 bb
       0.09956974 -0.017859496 -0.21281654 -0.0022877734
000270 d6 36 bd bd 4a 09 13 bc 62 5d 23 bc 33 e6 85 3d
       -0.09238975 -0.008974383 -0.009970995 0.06538048
000280 c9 5c b8 bc be f5 93 bc 0f 65 f1 bc f9 95 27 bd
       -0.02250518 -0.018061515 -0.029467134 -0.04091451
000290 73 18 ab 3d 3e 19 47 bd 9b ae 0c 3d 63 5e 09 bd
       0.08354273 -0.048608057 0.034346204 -0.03353728
0002a0 d2 0e b6 bc 32 2a 70 bb 03 a8 ff bc 6a ac 99 bc
       -0.022223864 -0.0036646244 -0.031208044 -0.018758971
0002b0 26 69 b8 bb 79 b1 21 bc ce 2f fe bb ff c1 f6 bc
       -0.005627769 -0.009868973 -0.0077571636 -0.030121801
0002c0 13 65 b4 bc b5 90 27 3d 9e 12 de bb b6 d2 51 bc
       -0.022020852 0.040909488 -0.0067771217 -0.012806585
0002d0 2b e4 26 be 79 22 69 3d ee ea 48 3e a3 ad f2 bd
       -0.16297977 0.05691764 0.19620869 -0.11849525
0002e0 71 7f 8f bc 37 d6 25 bc e3 9b 07 bd f0 9e a4 bb
       -0.017516823 -0.010121874 -0.03310765 -0.0050238296
0002f0 a8 7e 13 bd 76 5c 5e 3d 33 9b 2a 3d 1d 17 1b be
       -0.03600946 0.054287396 0.041651916 -0.15145536
000300 bf 4f 31 bd 1c 25 07 3e ba 4f a6 bc 21 75 21 bc
       -0.043288942 0.1319775 -0.020301688 -0.009854586
000310 44 7f c4 bd 8a f6 a1 bc fa a2 bf bc 43 ef 34 bc
       -0.095945865 -0.01977088 -0.023393143 -0.011043373
000320 3c 08 86 bb 85 d7 b1 bc d5 18 30 bc f0 1c 03 bc
       -0.004090337 -0.021709213 -0.010748108 -0.008002505
000330 14 e6 64 bc 48 8c a3 bb cd 83 a2 bc 4a 82 92 bc
       -0.0139708705 -0.004991088 -0.019838238 -0.017884392
000340 c6 43 4b 3e 22 05 11 bc c8 dd 4f bc 64 36 72 bb
       0.19850072 -0.008851321 -0.012687154 -0.003695869
000350 de 1b 3c 3e 5f b2 58 bc 7c 87 6d bb 0a f8 21 bc
       0.18370005 -0.013226121 -0.0036244085 -0.009885797
000360 47 b9 28 3d 1c 84 c6 bc 7b e3 48 bc 9d de 2d bd
       0.04119232 -0.024232917 -0.012261267 -0.04244863
000370 a1 10 8f 3b 28 fa 81 bd cf f6 38 bc 92 33 e6 be
       0.004365996 -0.06346542 -0.0112893125 -0.4496122
000380 0a ec 38 bc b7 ec 76 bc 2e 67 3b 3e 29 41 7f 3e
       -0.011286745 -0.015071086 0.18301079 0.249272
000390 5a 27 14 bd c0 c2 88 3d 2c da 37 bc 3d a9 08 bc
       -0.03617034 0.066777706 -0.01122145 -0.008341131
0003a0 dd ce 33 3c c4 3d 70 bc ed 8b 20 be 5c a9 c1 bd
       0.010974613 -0.014663164 -0.15678377 -0.09456131
0003b0 fe d8 36 bc 3f 7e 14 3e 00 2a ae bc af fb 69 bc
       -0.011160133 0.14501284 -0.021260262 -0.014281197
0003c0 47 c4 47 bc c1 18 13 bd 20 7c 89 be 7e 54 93 bc
       -0.012192792 -0.03591228 -0.26852512 -0.017984625
0003d0 92 73 2f bd 7f 10 71 3d fa ab 5e 3e 00 d1 22 bd
       -0.042834826 0.058853623 0.21745291 -0.0397501
0003e0 40 c0 41 bd fe 00 54 bc 59 f0 15 bc 12 12 b9 bc
       -0.047302485 -0.01293969 -0.009151542 -0.022591624
0003f0 c1 9a f5 bc 9b 38 6b bc b6 54 a5 3d 70 24 26 bd
       -0.029981019 -0.0143567575 0.08072798 -0.040562093
