animation_PPO/models/first.pt (torch, 549291 bytes, 9 tensors)

log_std f4 [2]
00000000: a4b2 56bf fe66 b9bf
-0.83866334 -1.4484556

network.0.weight f4 [256, 16]
00000000: de67 fa3c a9a0 b43c 6280 4abd c476 0f3d
00000010: 87d4 ccbc a25d 57bd 3ed5 5fbd 2ed4 2abd
00000020: cce2 1bbd 221b f9bc 364a c3bc 9572 3cbc
00000030: ad69 853c c4a4 273c d6b2 93bc 0f8e bfbc
00000040: 0d94 47bd 344b 46bc 6a26 9f3b 2122 a23c
00000050: 9768 8a3b ac78 573b 4e36 a9bb d885 d5bb
00000060: e64a 0ebd d341 f6bc b3ac 0abd 9a6c e3bc
00000070: f371 91bc 24a3 5cbb 8621 d3bb 649d 5f3b
00000080: c601 d73c 78fc ae3c 418c e3bc d966 e63c
00000090: 3d00 debc efec 60bd 3518 61bd 65ed 33bd
000000a0: 1145 20bd 995f edbc e3fd d0bc ed62 4bbc
000000b0: 63ab 533c 48f9 083c 07b5 97bc 39d7 c1bc
000000c0: 8740 563d ace6 b63c 17c7 cebe a993 19be
000000d0: 8f40 bcbd 217e b4bd 695f 0dbe 7baa 0ebe
000000e0: 3a2c cebd 039b 4abd cc70 03bd 4c9a 3f3c
000000f0: 246b 2c3d ba7c f938 166c 9fbc 0e11 93bd
00000100: 7a31 a33c b817 323c 5762 dabc 3634 9b3c
00000110: d515 aabc db0f 33bd 5fb8 1ebd 2190 d8bc
00000120: fe81 b3bc 68c6 c9bc 9f36 aebc e5f9 1abc
00000130: 2a11 6d3c ab22 103c a747 8cbc e5dd aebc
00000140: 6701 40bb 4ae5 21bb 3dcb 213b 3a6a 9bba
00000150: 7ae1 54bb 141b 6fbb 9412 6ebb e47c 0abb
00000160: e343 44bb 6a3e 30bb 0966 1bbb e246 3bbb
00000170: 8bde 36bb a829 1ebb 9dd4 2abb b0fb eaba
00000180: c5b7 963d 0b24 953d 51ed 9cba 5e67 66be
00000190: fe00 08be 6e46 1ebe a1ce 85be cf48 80be
000001a0: d82b 40be e811 00be c145 87bd f7ba 903c
000001b0: c579 243d c47b 5e3d 8d38 71bc 9ecb 82bd
000001c0: 5409 bf3c ba79 8a3c b435 113c a67f 80bc
000001d0: 065f dcbc df54 39bd cee4 47bd 0db4 2bbd
000001e0: 648a 07bd 8a81 f5bc 2146 dbbc 86ec 83bc
000001f0: a79d 4a3c c072 da3b 8b3f 22bc 499f f4bc
00000200: 3906 d9b9 d8f8 22ba 2422 663a 6345 593a
00000210: 95c6 89ba 7dc2 00ba d1c3 77ba 2cba 87ba
00000220: ff79 48ba 25f2 dbba 3984 b6b8 56c3 eeb9
00000230: 51eb 97ba ea4b 24ba d383 86ba 2dfc deb9
00000240: f08a d43c ab93 303d 1e57 49be f348 b9bd
00000250: f772 97bd 5345 c1bd 5ca2 02be 2c4a 43be
00000260: d629 bfbd f44d 48bd 9872 50bc 9736 98bc
00000270: 2602 0b3d adec 7ebc 652f c7bc a88d 74bd
00000280: cc32 423a 759d 10ba 2649 d137 7810 24ba
00000290: 647b 6a3a 1ca2 a0ba c56d acba 26ec fbb8
000002a0: 08e7 f2b9 f1f8 89ba 9883 42ba 5382 8639
000002b0: d7ae 33ba fd1b c3ba 0607 043a f4f6 f739
000002c0: 9051 03be 6536 893c 2ea9 89bc 00e0 b2be
000002d0: 9ebf d73c 34d4 e7bd 6301 61be 49e9 75be
000002e0: db1d c6be 644e 32be 9e29 82be f942 78be
000002f0: 55b9 0d3e 0ee7 2c3e 726e ab3d 5da9 2bbd
00000300: 6d8f 8fbb 9156 7fbb 6336 b23a da7a ed3a
00000310: af63 abbb 946d b5bb 07f0 99bb 3912 4cbb
00000320: 060d 8abb a3d2 81bb dc49 98bb 443a b7bb
00000330: 0963 abbb f109 b0bb 11cb abbb a62c 90bb
00000340: d72c ea3c 1df4 913c 8fc2 eabc e8bb 183d
00000350: ee83 bbbc 20a3 44bd 8b91 51bd 5869 2ebd
00000360: 231e 1bbd aeef f4bc eb5c bdbc fb25 6cbc
00000370: 7ad1 693c 1dc0 1c3c 938c 83bc 5978 b2bc
00000380: 1422 ca3c 3660 8a3c dbfd f73c a229 a3bc
00000390: f333 f6bc 1c9c 43bd 5ceb 41bd 6a09 2ebd
000003a0: 1c2d 0bbd dea5 dbbc 7668 e1bc 29ca 97bc
000003b0: 5388 443c 279b 0c3c 73fe 72bc 217c 12bd
000003c0: c37b cbb7 c4a4 40b9 f2d4 4bb9 5050 58ba
000003d0: 7019 7aba 3fe2 5aba 25eb 5dba 7b8c 273a
000003e0: 25c6 a2b9 7aa6 9cb7 131d aeb9 541e a6b9
000003f0: b9ac 83ba baab 0fba 8217 fdb8 e7b3 8dba
0.030567106 0.022049265 -0.04943884 0.035025373 -0.025003685 -0.05257953 -0.054646723 -0.041706257
-0.038058087 -0.030408446 -0.023839097 -0.011501928 0.016285742 0.010232154 -0.018029612 -0.023383169
-0.048725177 -0.012102891 0.0048568742 0.019791665 0.004223894 0.0032878323 -0.0051639443 -0.0065161996
-0.034739397 -0.030060684 -0.033856105 -0.027761746 -0.01775453 -0.0033666575 -0.0064432053 0.0034120912
0.026245963 0.02136062 -0.02777684 0.028125213 -0.027099723 -0.054913457 -0.054954726 -0.04392757
-0.039128367 -0.028976249 -0.025511688 -0.012413722 0.01291928 0.0083602145 -0.018518938 -0.023662196
0.05230763 0.02232679 -0.40386268 -0.14997734 -0.09192001 -0.0881312 -0.13805927 -0.1393222
-0.10067029 -0.049464237 -0.032089993 0.011694502 0.042094365 0.000118964774 -0.01946072 -0.07180987
0.019921053 0.010869913 -0.02665822 0.018945795 -0.020762363 -0.043716293 -0.03875005 -0.026435914
-0.021912571 -0.02463074 -0.02126628 -0.009458994 0.014469424 0.008797328 -0.01712401 -0.021346042
-0.002929771 -0.0024703317 0.002468779 -0.001185722 -0.0032483027 -0.0036484646 -0.0036326991 -0.002113157
-0.002994769 -0.002689267 -0.002371194 -0.0028576185 -0.0027903642 -0.0024133716 -0.0026066669 -0.0017927792
0.0735927 0.07282265 -0.0011972581 -0.22500369 -0.13281628 -0.15456554 -0.26134208 -0.2505555
-0.18766725 -0.1250683 -0.066051014 0.017667277 0.04015519 0.05431725 -0.014722955 -0.06386493
0.023319878 0.016903747 0.0088629015 -0.015685868 -0.02690078 -0.045246955 -0.04880219 -0.041919757
-0.033090964 -0.029968996 -0.026766839 -0.016103994 0.012366689 0.0066665113 -0.009902845 -0.02986111
-0.00041394102 -0.000621689 0.0008778891 0.00082882325 -0.0010511453 -0.00049117935 -0.0009451481 -0.0010355166
-0.00076475734 -0.0016780539 -8.703065e-05 -0.00045540434 -0.0011590515 -0.00062674156 -0.0010262675 -0.00042531025
0.025945157 0.043109577 -0.19662139 -0.09047117 -0.07394975 -0.09437051 -0.12757248 -0.19071263
-0.093341514 -0.048902467 -0.012722634 -0.018580718 0.033937596 -0.015559358 -0.024314592 -0.059705406
0.0007408082 -0.0005516627 2.4948804e-05 -0.00062585576 0.0008944778 -0.0012255344 -0.0013155272 -0.00012012599
-0.0004632997 -0.0010526461 -0.00074201217 0.0002565557 -0.0006854361 -0.001488566 0.0005036447 0.00047295506
-0.12824082 0.01674957 -0.016804304 -0.34936523 0.026336487 -0.113197714 -0.21973185 -0.24014772
-0.38694653 -0.17412716 -0.25422376 -0.24244298 0.1384023 0.16885015 0.08370675 -0.041909564
-0.0043811114 -0.003896151 0.0013596531 0.0018118278 -0.005230389 -0.0055367444 -0.004697803 -0.0031138791
-0.0042129783 -0.0039618774 -0.0046474766 -0.0055916626 -0.005230312 -0.005372279 -0.0052427133 -0.0043998538
0.028585834 0.017816598 -0.028657226 0.037288576 -0.022890057 -0.04800713 -0.05116419 -0.042580932
-0.037870537 -0.029899444 -0.023115596 -0.014413352 0.0142711345 0.009567288 -0.016058242 -0.021785902
0.024674453 0.01689158 0.030272415 -0.019917313 -0.030054068 -0.0477563 -0.047343597 -0.042489447
-0.033978567 -0.02681249 -0.027515631 -0.018529015 0.011995393 0.008581913 -0.014831173 -0.03576291
-2.4257117e-05 -0.00018371927 -0.00019438917 -0.00082517136 -0.00095405336 -0.00083497533 -0.000846552 0.00063914777
-0.00031046677 -1.867417e-05 -0.00033209528 -0.00031684584 -0.0010045982 -0.00054806063 -0.00012068359 -0.0010811061

network.0.bias f4 [256]
00000000: 839b 29bc ee2b cdba 12b5 44bc 8472 5bbd
00000010: 2323 39bc 025d 36bb 4111 86bd c0ee 5cbc
00000020: a4d3 4aba f1c6 ecbc 63c2 76b9 85fd 17bd
00000030: b2b0 a2bb 52ef 30bc 1a49 77bc 41a7 edb9
00000040: 6d27 6abd a3d0 20bc 2289 11bd 48a4 fabc
00000050: b953 cabb 5588 22ba dbd5 cfbb 2ec6 a6ba
00000060: 80a7 1039 cada e3bc 191b d4bb 5bec 3ebd
00000070: fea0 6ebd de65 93bd 4c48 b3bc d9f5 adbc
00000080: ac6c fdb9 439b a0ba 0dd1 9dbb 9d77 15bd
00000090: 3e08 1dbb 3e4f 093b 3f14 28bd 273c 02bc
000000a0: 8531 7fb9 244e 50bd 7359 f5bb c250 debb
000000b0: d623 5fbc 0000 0000 2dc2 9cbb 1261 3ebd
000000c0: 2d08 683d ed0e eaba 78b7 ce3d 9460 95bd
000000d0: 4416 22bc 9923 65bb 5295 16bc 061c 8bbd
000000e0: 91de 5aba 693d 4cbd 2236 80bc f947 1bbb
000000f0: c43d 20bd 7e27 31bc 5116 c2ba 2b33 8fbd
00000100: 7231 d0bb 0f09 0ebd 1ccc 0ebc 130a bebd
00000110: fdd9 2bbb 1416 13bb eb7a a1bb 9f15 19bc
00000120: 5130 94ba a97c 17bb 9627 04bb ce56 c2b9
00000130: 64aa 16bc b00f 5dbc 9a35 05bc 6197 67bc
00000140: f634 d0bb 7a9b aabd 0000 0000 05a4 4bba
00000150: e23d 77bb 0000 0000 b0d9 d93c d76d 84bd
00000160: 558a 7bbd 29f8 f43c 849c 8cba aadd 07ba
00000170: 2cae 3bbc 9caa 13ba a402 51bc 0000 0000
00000180: b57f edba 2f10 60bc 0000 0000 d2a0 3eba
00000190: 71c6 40bb aff3 0fbb 8c39 0abb fbb7 36bd
000001a0: dfda 69bd 5c5c 0fbc 6456 fcbd 467f 73bb
000001b0: 7d5b 5dbd 6f7e 47bd f10b e7bc 55ed 83bb
000001c0: 7f69 afbc 411a 03bc c191 7cbc 235b fcba
000001d0: 1066 e9b9 fb54 acbb c9a1 aebc 608e 8abc
000001e0: 2f0c 7abd e1bd c7b9 af69 8cbd 7eac a7bc
000001f0: f2d7 cdbb 2084 e7bb a2cb 8bbd eb08 28bc
00000200: dc0f 35bb 78eb 77bb 6d97 d4b9 7c6c 9abc
00000210: b2ba ecbb 8433 01bc f2e3 1abc 3b7c 87bd
00000220: 0000 0000 aea6 ffb9 7892 44bc d9ee 03bb
00000230: e8f7 28ba 8f64 d83d 935b 38bb c9c7 20bd
00000240: 6427 11bc 35fb d0b9 0e86 c2ba a994 77bb
00000250: b1a8 0eba 1a2d cfbc 54d8 abbb 0a47 46bb
00000260: 9f0a b8bd 08af 53bd 8300 aabb 491e 8abb
00000270: d305 1aba 3d5b 0abd ccca 65bd ed5f ffbb
00000280: 37c9 0bbc 3ffe 66bd 6098 3cbb c30f fdbc
00000290: 60ca 7bbb d122 79ba c8df 5abb 7844 10bd
000002a0: fa9b e5bd b3d4 86bc 0000 0000 d026 853c
000002b0: deb5 1abd 6a2d 6cba 4d31 58bd ecac 5dba
000002c0: 4485 53bb 6008 3fbc 2b1c 5bbb 8e87 09be
000002d0: c0c8 10ba b81a de3c 0000 0000 e7a5 fabd
000002e0: 6cf1 efbd 1b30 72bd c039 7dba 2f16 c4bc
000002f0: 0c64 fb3d 6fe0 193d 265f 8fbd 38c3 26bd
00000300: a0b9 26bd b61a 91bd 2b00 c0bb 8263 a2bd
00000310: 3305 9fb9 4011 6ebd ec9b 33bd 51ca e5bb
00000320: fbe2 87bc ef1b 1eba e8bd 96bb d4bc 53bb
00000330: bb7d 93bd 9b05 03bd 3a32 23bb 09db 48bc
00000340: 146f 17bb 0000 0000 5c5d b3bd 6397 91bd
00000350: 9d40 41ba a6ca 87ba a355 cebb e46c 85bb
00000360: 92ce b9bb e331 d5bc b3b5 2fbb 605f d5bb
00000370: 5ab6 10bd a120 a4bb 3ac3 a1bb 3cb0 d7b9
00000380: 75ff edbc 322d 7abd dc64 283d 3552 cbbc
00000390: ee9c 52bc b58f 86bc cc33 bfb9 7d5d 0dbd
000003a0: 4192 0cbd 1be2 903b e8ed d1ba 6989 acb9
000003b0: f298 8ebd 5dc9 9db9 8e2b b0bd 4c1b 15bc
000003c0: 5f86 9fbb 4ad2 2fbb 3386 eaba 029b 34bb
000003d0: 2181 7dbb ba8c 82bc 244a 9aba e1c7 ceb9
000003e0: a33f 5bbc fa05 a9bb 7b96 913d 5f02 9dbd
000003f0: 5533 1cbc 6276 3abd 699f 5ebc 0b6c e6bd
-0.010352018 -0.0015653351 -0.012006061 -0.053576007 -0.011299881 -0.0027826433 -0.0654626 -0.013484657
-0.00077372254 -0.028903456 -0.00023532803 -0.03710701 -0.0049649114 -0.010799246 -0.015093112 -0.00045328776
-0.057166506 -0.009815368 -0.03553117 -0.030595914 -0.0061745313 -0.00062001246 -0.006342632 -0.0012723857
0.00013795309 -0.027814288 -0.006472957 -0.046612125 -0.058259003 -0.07197164 -0.02188506 -0.021235393
-0.00048336887 -0.0012253303 -0.0048161806 -0.036491025 -0.0023961212 0.0020951773 -0.041034933 -0.007948912
-0.00024337143 -0.05085577 -0.00748747 -0.0067845294 -0.013619384 0.0 -0.0047838897 -0.046479292
0.056648422 -0.0017857231 0.10093588 -0.072938114 -0.009893004 -0.0034963845 -0.009190874 -0.067924544
-0.0008349205 -0.049863253 -0.015650813 -0.0023694022 -0.039121404 -0.010812638 -0.0014807676 -0.069921814
-0.0063535506 -0.034676608 -0.008715656 -0.09279265 -0.002622246 -0.002244358 -0.004927983 -0.009343534
-0.0011305903 -0.0023115075 -0.0020165197 -0.00037067238 -0.009195898 -0.01349251 -0.008130455 -0.014135213
-0.0063539697 -0.08330436 0.0 -0.0007768276 -0.0037726094 0.0 0.02659306 -0.06466263
-0.06141122 0.029903488 -0.0010727798 -0.0005182872 -0.0114551 -0.0005633028 -0.012756977 0.0
-0.0018119725 -0.0136757335 0.0 -0.0007271889 -0.0029415155 -0.0021965315 -0.002109143 -0.04460905
-0.057093497 -0.008750048 -0.12321165 -0.0037154718 -0.05404233 -0.04870456 -0.028203936 -0.004026095
-0.02141261 -0.008001865 -0.01541561 -0.0019253235 -0.00044517266 -0.005259154 -0.02131738 -0.016913593
-0.061046775 -0.0003809771 -0.06856095 -0.020467993 -0.006281846 -0.007065311 -0.06825949 -0.010256032
-0.002762786 -0.003782956 -0.00040548612 -0.018850558 -0.0072244043 -0.007885817 -0.00945376 -0.06615492
0.0 -0.00048761576 -0.0119978115 -0.0020131378 -0.00064456323 0.10566055 -0.0028130754 -0.03925303
-0.008859489 -0.00039860015 -0.0014840977 -0.0037777817 -0.0005442007 -0.02529006 -0.005244294 -0.0030254745
-0.08986401 -0.051680595 -0.0051880493 -0.004215036 -0.00058755017 -0.033778418 -0.056101605 -0.0077934177
-0.00853186 -0.05639481 -0.0028777346 -0.030891305 -0.0038420185 -0.0009503784 -0.0033397544 -0.035221547
-0.11211391 -0.016458845 0.0 0.016253859 -0.0377711 -0.0009009453 -0.052781392 -0.00084562483
-0.0032275477 -0.011659712 -0.0033433537 -0.13430616 -0.0005523078 0.02711235 0.0 -0.122386746
-0.117159694 -0.05912791 -0.00096597895 -0.02393636 0.12274942 0.037567552 -0.0700057 -0.04071352
-0.04070437 -0.07085173 -0.005859395 -0.07929136 -0.00030330717 -0.05812192 -0.04384987 -0.0070126434
-0.016587725 -0.0006031384 -0.0046002753 -0.0032308595 -0.072017156 -0.031987768 -0.0024901764 -0.012259253
-0.002310698 0.0 -0.08758041 -0.07108953 -0.0007371994 -0.0010360077 -0.00629683 -0.0040718187
-0.005670377 -0.026024764 -0.0026811182 -0.0065116137 -0.035330154 -0.0050087725 -0.004936603 -0.000411393
-0.029052475 -0.061078258 0.041111812 -0.024819473 -0.012854798 -0.016425947 -0.0003646895 -0.034512985
-0.034319166 0.004421485 -0.0016016336 -0.00032908775 -0.06962766 -0.000300954 -0.086020574 -0.009100746
-0.004868313 -0.0026828223 -0.0017892778 -0.0027558212 -0.0038681703 -0.015936244 -0.0011771363 -0.00039440303
-0.013381871 -0.005158183 0.0710878 -0.07666468 -0.009533723 -0.045523055 -0.013587811 -0.11251076

network.3.weight f4 [256, 256]
00000000: b129 d0bb 05f7 523a 5ec6 d9bb 8991 55bb
00000010: 1cb0 e0bb 90b6 1b3a 1d14 01bc aeb6 f439
00000020: de81 1c3a 041f fcbb 77db ecb7 14c6 1439
00000030: 0e32 a53a ba53 c0bb d1b2 1aba 9614 2aba
00000040: 30cc 81b9 cc1c 8ebb 4b21 31b9 cfd9 f4bb
00000050: 73d7 6338 66d6 98ba 1e8e f7b9 c1a5 a2b9
00000060: 1e39 32ba 5057 d7bb 57c3 6839 40b2 23ba
00000070: e5e7 96ba a7de ddbb 0fac 0438 69c5 09bc
00000080: ab26 e1b9 dd75 3b3a 7317 4b3a c2d3 ccb9
00000090: 7059 483a 408b 4dba ebba 123a 9928 0abc
000000a0: 303e 1d3a 5eb6 c6bb 8409 12ba 7471 01bc
000000b0: ccbb 11bc 2ea5 ebb9 1305 f938 579e bf39
000000c0: 0fb3 ffbb cc19 a2ba e503 88bb 0ce0 4238
000000d0: a7ee ce39 b80e e438 bde8 ccbb 2c40 c938
000000e0: c290 7cb8 c904 c039 4c30 4839 2e78 46ba
000000f0: 58c2 cdbb f8f6 cebb bdd3 39b7 4823 c0bb
00000100: 2902 c139 e6b9 cb3a e2ac 9cba 8126 a5ba
00000110: 218d d6b8 41c1 733a 9257 e1b9 b9fc 343a
00000120: aedb 76b8 72bc 323a 3085 5aba 5de5 05b9
00000130: 70b0 fd38 161c 04bc 6dd3 8739 7a22 193a
00000140: 6635 783a 4e9c 06bc 6916 9fb9 b743 b53a
00000150: 3048 153a 1c96 fcb8 32df e4bb 3a2e 7b39
00000160: 840a 4fbb f17a cdbb 00db 91ba a64f d839
00000170: ab7c 0b3a 5024 ac38 5176 6e39 8947 11ba
00000180: ae86 323a 3b1a adbb 0224 9239 ced3 d5ba
00000190: 2112 3339 f3b1 15b9 34f0 2e3a a993 ff38
000001a0: d634 dabb 7b53 74b9 f8bc d6bb 6e6a f33a
000001b0: e1d5 8eba b829 e8b9 bc53 c3bb e214 9138
000001c0: c13b 7339 f331 e6b9 d310 cbbb 0771 63ba
000001d0: 4f01 5eba fc61 ee39 b02d babb 24bf 013a
000001e0: 9e8b ffbb 3893 75b9 2574 10bc 3047 133a
000001f0: 400d 0aba 7271 fbbb 9495 eabb 0016 d0bb
00000200: 2953 1036 6fe8 103a 6faa d539 b1db c8ba
00000210: 9be8 03ba efde 9c39 2d89 c639 b8ff ddb9
00000220: 80f6 263a 1c06 c33a f6e4 ecb9 0c6a 70b9
00000230: 7ced f839 3dd5 0bbc 1ef2 15b9 4f45 eabb
00000240: 9b16 afb9 aeb0 dc38 b239 2c39 de5c 1f3a
00000250: 7ebb 96b9 9a61 d8bb fd04 633a 2ba0 863a
00000260: 1299 05bc ff3d f4bb 155d 98b9 24c6 cfb9
00000270: 003a 5ab9 9d47 f2bb 9b0b 1cbb 72a5 bbb9
00000280: e897 823a 9cf7 a5b9 b24e 67ba fb6a 42b9
00000290: 526b dc39 dbd1 13ba 6af4 06bc 6078 1eb9
000002a0: 0b73 5239 0157 b538 903f 07ba f461 09bc
000002b0: 4529 b8bb f5fc 3bb7 77f6 2eba 46b7 a3ba
000002c0: 9b84 e8b9 8a3a b5bb 54c0 8eb8 8251 4d3a
000002d0: 709a 913a 813a 1539 bb58 d939 aa6b 10ba
000002e0: 8378 e7b8 9fb3 b5bb 1bac a738 b6bb 11bc
000002f0: 0265 f4bb 2594 b7bb 5d5d 9238 9f56 05bc
00000300: 1483 6b39 7172 19ba 8764 4fb9 9a2b b3bb
00000310: 42ad 4eba b879 edbb 6d3c 06bc 5c72 afb9
00000320: c6b4 b0b9 ac1d 583a bc4a 8639 9734 b137
00000330: 5f2c 003a 129d d0bb eb8a 303a ef16 a2bb
00000340: 1943 523a f362 98b8 7a85 d7bb 647d 05bc
00000350: 646e 45ba 225f 8e3a c3bc 82b9 b3e8 f139
00000360: 5457 47ba 23f2 b0b8 c52d c538 3605 0dba
00000370: dc41 f3bb 408b ed37 8c42 5e39 db95 8239
00000380: 66d5 7bb9 95f1 7839 036c 7fb9 e406 05bc
00000390: 0c0a a9bb 43d6 e9bb e74b deba dd78 06bc
000003a0: 1436 4339 539f fc39 0f31 8ab7 c664 08ba
000003b0: 108f 92bb 07e5 a7b9 8d03 66ba 14ec d4b8
000003c0: e3c4 79bb eea8 61ba c534 d63a 5916 86ba
000003d0: c150 cfba 7b7f 0ab9 e514 9436 33f4 f038
000003e0: 0f8f 85bb f9d3 4539 ea96 a339 a9fd abb9
000003f0: 8190 ccb9 ea70 05bc 4b9b 4eba 7909 debb
-0.0063526263 0.0008047673 -0.0066459617 -0.0032587966 -0.0068569314 0.00059399847 -0.007878331 0.00046675414
0.00059702795 -0.007694127 -2.8235589e-05 0.0001418817 0.0012603418 -0.005869356 -0.00059012795 -0.0006488053
-0.0002475693 -0.004336929 -0.00016892438 -0.007472254 5.432167e-05 -0.0011660575 -0.00047217397 -0.00031022544
-0.0006798672 -0.0065716878 0.00022198014 -0.0006244518 -0.0011513202 -0.006770927 3.1631494e-05 -0.008408883
-0.00042944154 0.0007151047 0.00077473297 -0.00039067684 0.0007642722 -0.0007840879 0.0005597311 -0.008432531
0.00059983414 -0.0060642203 -0.0005570876 -0.0079005845 -0.008894872 -0.0004494576 0.000118741904 0.0003654833
-0.007803328 -0.0012367307 -0.004150855 4.6461864e-05 0.00039469192 0.00010874629 -0.0062533305 9.59638e-05
-6.0216298e-05 0.0003662466 0.00019091478 -0.0007571009 -0.006279271 -0.006316062 -1.1076158e-05 -0.005863581
0.00036813438 0.0015543073 -0.0011953379 -0.0012599976 -0.000102306025 0.00092985114 -0.0004298059 0.00069041137
-5.8855563e-05 0.00068182417 -0.00083358865 -0.00012769313 0.00012096844 -0.008063337 0.0002590673 0.0005841624
0.0009468406 -0.008215977 -0.0003034354 0.0013829385 0.00056946557 -0.000120442564 -0.0069846148 0.00023954446
-0.003159196 -0.0062707593 -0.0011127889 0.00041258073 0.0005321006 8.208363e-05 0.00022741525 -0.00055419706
0.000681023 -0.005282668 0.00027874118 -0.0016313733 0.00017077524 -0.00014276039 0.00066733663 0.000121868514
-0.0066591306 -0.00023300752 -0.0065532885 0.0018571147 -0.0010897481 -0.0004428157 -0.0059609096 6.9180285e-05
0.00023196546 -0.00043906234 -0.006197074 -0.0008676205 -0.0008468823 0.00045467902 -0.005681716 0.00049494416
-0.007798626 -0.00023419864 -0.0088167535 0.0005618213 -0.00052662566 -0.007673436 -0.0071589444 -0.006350279
2.1506078e-06 0.00055277994 0.0004075351 -0.0015324262 -0.00050319143 0.00029920737 0.00037867707 -0.0004234293
0.0006369129 0.001487914 -0.00045184017 -0.00022927689 0.00047479186 -0.008534727 -0.00014299943 -0.0071493755
-0.00033395443 0.00010523327 0.00016424691 0.0006079207 -0.00028749922 -0.006603432 0.0008660106 0.0010271122
-0.008154171 -0.0074536796 -0.0002906105 -0.00039629743 -0.00020811707 -0.007393791 -0.0023810628 -0.00035790686
0.0009963484 -0.00031655736 -0.0008823677 -0.00018541135 0.0004204163 -0.0005638876 -0.008236984 -0.00015112897
0.00020070017 8.646958e-05 -0.0005159313 -0.00838517 -0.005620154 -1.1204965e-05 -0.00066742994 -0.0012490533
-0.00044349287 -0.00553066 -6.8069116e-05 0.0007832275 0.0011108648 0.00014231542 0.00041455575 -0.0005509207
-0.000110373854 -0.005545094 7.995238e-05 -0.008894851 -0.00745833 -0.005602377 6.979213e-05 -0.008138328
0.00022460177 -0.000585354 -0.00019778508 -0.005467844 -0.0007884094 -0.007247176 -0.008193118 -0.00033463805
-0.00033704023 0.00082441675 0.00025614153 2.1124533e-05 0.00048894243 -0.0063663805 0.00067345676 -0.0049465816
0.00080208626 -7.2663555e-05 -0.006577191 -0.008147571 -0.0007531403 0.0010862092 -0.0002493617 0.00046140476
-0.00076042605 -8.4374355e-05 9.402217e-05 -0.00053794996 -0.0074236225 2.8317445e-05 0.0002119636 0.00024907183
-0.00024016722 0.0002374112 -0.00024358933 -0.008119319 -0.0051586684 -0.0071361377 -0.0016959877 -0.008207527
0.00018616795 0.0004818389 -1.6473727e-05 -0.00052030047 -0.004472621 -0.0003202336 -0.0008774333 -0.00010152921
-0.0038111738 -0.00086082413 0.0016342631 -0.0010230049 -0.0015816913 -0.00013208196 4.413176e-06 0.000114895774
-0.004075892 0.0001886635 0.00031202222 -0.00032804653 -0.00039017576 -0.008144597 -0.0007881417 -0.0067760316

network.3.bias f4 [256]
00000000: 51bf 1ebc 2a5f 56bd 54e4 77bd 4ec4 63bb
00000010: 5882 8138 f700 62bc 0303 afbd d895 33bc
00000020: 5086 ebbb e01c 35bb b11f 0ebb 5c7b a1bd
00000030: 7c61 25bb 9003 22bc 97fc 7abc 28ad 14bd
00000040: 3f36 14bc 7cad b4bc 8a61 28bd bc90 34bc
00000050: 1056 4dbc 575a 63bd e25f 723d 5df0 8ebb
00000060: d16e ffbb ed80 88bb e7e0 dabd 54df 86bd
00000070: a158 57bc 3de1 70be b1de 10bc 4bda 26bd
00000080: b250 5ebc dcc0 19bc 3c0d 13bc f870 7abd
00000090: 38bd 32bc 0fd5 55bd b5ec 07bc d007 44bd
000000a0: 88f2 b1bb bfd4 f4bb 1125 aaba 1457 0abb
000000b0: c913 8dbc fa35 d3bd 8259 0cbc a480 03bd
000000c0: 6a97 0bbe d9fc 24bb 217a 65bd d066 6ebd
000000d0: 3f68 1f3d cb0b a3bd 774f 27bd 8a35 67be
000000e0: ea9b 00bc 2bc5 c8bc 1e8a ef3d aba1 1ebc
000000f0: f45e 21bc b089 3ebd 80c5 a1bb 6e3c 0cbc
00000100: a5b5 75bd 5848 b0bc bdf8 dbbc 20ab 09bc
00000110: 3489 593d 7599 5bbe 6824 eebb 1290 86bb
00000120: 6528 a03d 0203 15bc 9493 08bc 1b19 b3be
00000130: eacf d5bb d020 56bd 60f0 0bbd 50cb 4abb
00000140: 1b6b b9bb 7e56 dabd e1ae 58bd ae88 27bc
00000150: 4aaa fdbb 7b5b d53d 1288 ccbb 808e 0cbc
00000160: edd2 94bb 08d1 58bd 53b4 fbbc 1b1d 093d
00000170: e589 9bbc b07b 38bd 4ed2 4fbd 74c4 58bd
00000180: ecbf abbd 7c11 63be 20da 753d a7db ad3d
00000190: c078 debb 32cc babb 7c7f dbbb e256 74bb
000001a0: 559a 91bb fb42 173a 29bd 9d3d 7b27 08bc
000001b0: b255 51bc 2668 46bb 6310 293b 9499 ebbb
000001c0: d754 d6bd 6ca7 5bbb 8033 833c 524a 95bb
000001d0: 618c 54be 8550 1b3e 6f18 6b3b 88e7 97bb
000001e0: f0a9 06bd cb93 87bc eedf 2bbc 52dd 89bb
000001f0: 8f3d 87bb 1d87 bfbd 106d 843d 9ac8 36bc
00000200: a025 a1be fc58 bebb 5ca6 27bc a7ab 00bc
00000210: ef48 b3bb 0a45 82bb e806 9dbc 9c5f 343d
00000220: 7a4a 9ebd d2fb 10bd c7c7 39bc fbf4 13bc
00000230: 28bb dfbb bfc2 66bc 43bf 04bc 3bcd 9cbb
00000240: 180c aebb 5b87 2ebc d768 65bc 0498 d0bb
00000250: 1575 e4bb e029 1cbc 5453 87bc d637 11bc
00000260: 257b 16bc c6a4 73bd 00be 21be b06e 14bc
00000270: c885 38bc 3734 ddbd 53d4 2fbc 2721 90be
00000280: c5f7 b7bb 7cd1 acbb 49ff a2bb b039 853d
00000290: c7a1 e2bc 1a9b 51be d030 8bbd bcdd e0bb
000002a0: 91bd 2fbc c3ae 0bbc 9cac 20bc 5f7c 3dbd
000002b0: fce5 67bc 9810 69bd a094 17bc 540b 98bc
000002c0: 37ef 27bc 80a3 5bbd 5b84 9dbd 874f a8bd
000002d0: c082 45bd 74fe 95bc c2aa 91bc a49d 03bc
000002e0: 63df bcbd 2577 0ebc 5b08 d5bb b36d 21bc
000002f0: 9da6 9f3c c6bc 84bc bc21 af3d b1db bcbb
00000300: a9ff 993d d4e2 15bc 01d5 e7bd 71e1 ebbb
00000310: b37f b8bd 8139 b7bb 9f90 2e3d a832 12bd
00000320: c1e0 03bc 5ba1 71bb 9f4e 41bd c283 563d
00000330: c5fa 95bb f183 5fbc b297 2b3c 4eba ecbc
00000340: c049 4abe cf97 f9bb 6ea4 cd3d 5ef5 28bc
00000350: 01b9 6dbb 0eed 55bb af15 30bc 7ba5 fabb
00000360: 0bc6 dfbb 4771 c4bb ac03 a1bc c4ad 74bc
00000370: fa45 943c e272 acbb 1c68 7abc c2f1 b8bb
00000380: dff4 29be 602d 1e3d d529 69bb 6ad1 75bb
00000390: 127d 583c ff5a 97bc 5d78 2fbd e8d4 caba
000003a0: 7185 75bd d90c 91bd 8492 18bc dfea 30bb
000003b0: 91f1 25bc 843c 553d 4d91 52bb ad5f e0bd
000003c0: 9211 21bc d907 09bc a792 6ebd 7f1d 99bb
000003d0: 0d99 69bc 521e 25bd 2f52 08bc fc8f 23bd
000003e0: dc91 1cbc c349 73bb e602 3abc eb75 483d
000003f0: e346 22bd bec3 bebb a362 29bc 79af 9cbc
-0.009689168 -0.05233685 -0.060520485 -0.0034754458 6.175478e-05 -0.013794175 -0.08545496 -0.0109610185
-0.007187642 -0.002763562 -0.002168637 -0.07884857 -0.0025235107 -0.009888545 -0.015319011 -0.036297947
-0.009046136 -0.02205538 -0.041108645 -0.0110208355 -0.012532726 -0.055506077 0.059173472 -0.0043621496
-0.0077951928 -0.00416576 -0.10687428 -0.06585565 -0.013143689 -0.23523422 -0.008842156 -0.040735524
-0.013569044 -0.00938436 -0.008975323 -0.06114289 -0.010909371 -0.05220514 -0.008296181 -0.047859013
-0.0054305233 -0.0074716504 -0.0012981017 -0.0021109032 -0.017221348 -0.103130296 -0.008566262 -0.032105103
-0.13631979 -0.0025175123 -0.056024674 -0.05820352 0.038917776 -0.07961234 -0.040847268 -0.22579017
-0.007849673 -0.02450808 0.11696266 -0.009682099 -0.009849299 -0.046518028 -0.004936874 -0.008559329
-0.059987683 -0.021518871 -0.026852006 -0.008402616 0.053109363 -0.21445258 -0.0072675236 -0.00410653
0.07820205 -0.009094955 -0.008335967 -0.3498009 -0.0065250294 -0.052277386 -0.034164786 -0.0030943938
-0.00565852 -0.10661028 -0.052901153 -0.010225458 -0.0077412473 0.10417839 -0.006241807 -0.0085788965
-0.004541746 -0.052933723 -0.030725634 0.033475023 -0.018986652 -0.045039833 -0.05073767 -0.052921727
-0.083862156 -0.22174639 0.060022473 0.08489161 -0.006789297 -0.0057006115 -0.006698547 -0.0037283232
-0.0044434466 0.0005770174 0.07702095 -0.008310194 -0.012776779 -0.003027448 0.002579712 -0.007189939
-0.10465401 -0.003351654 0.016015768 -0.004555979 -0.20756675 0.15167435 0.0035872718 -0.004635755
-0.03287691 -0.016549965 -0.010490401 -0.0042072916 -0.0041272114 -0.09351943 0.064661145 -0.011156226
-0.31474018 -0.0058089476 -0.010232534 -0.007853425 -0.005471341 -0.0039755153 -0.019168332 0.044036493
-0.07729049 -0.035396405 -0.011339135 -0.009030576 -0.0068277307 -0.014084517 -0.008102241 -0.0047852076
-0.0053115003 -0.010652388 -0.014002047 -0.006365778 -0.006971965 -0.009531468 -0.016519226 -0.00886341
-0.009184633 -0.059483312 -0.15795135 -0.009059593 -0.011262365 -0.10800975 -0.010731774 -0.28150293
-0.005614253 -0.005273996 -0.00497428 0.06505144 -0.027665032 -0.20469323 -0.067964196 -0.0068623703
-0.0107263485 -0.008525553 -0.009806778 -0.046261188 -0.014153954 -0.05690059 -0.009251744 -0.01856009
-0.010249904 -0.053622723 -0.076912604 -0.08218294 -0.048220396 -0.01830981 -0.017781619 -0.00803319
-0.09222295 -0.008695398 -0.00650124 -0.0098528145 0.019488627 -0.016203295 0.08551356 -0.005763494
0.075194664 -0.009148318 -0.11319924 -0.0071985056 -0.09008732 -0.005591572 0.04261839 -0.03569284
-0.008049191 -0.0036869857 -0.04719412 0.052371748 -0.004577013 -0.013642297 0.010473179 -0.02889743
-0.19754696 -0.007616974 0.10041128 -0.010312406 -0.00362736 -0.0032642516 -0.010747357 -0.0076491213
-0.0068290285 -0.005994949 -0.019655071 -0.014934007 0.018099774 -0.0052627185 -0.015283611 -0.005644054
-0.16597317 0.03861749 -0.0035577912 -0.0037508854 0.013213413 -0.018476008 -0.042839397 -0.0015474828
-0.059941713 -0.070825286 -0.009312276 -0.0026995463 -0.010128395 0.052059665 -0.0032130063 -0.10955749
-0.009830849 -0.008363687 -0.058245327 -0.0046727057 -0.014257682 -0.04031212 -0.008320375 -0.039932236
-0.00955626 -0.0037122823 -0.01135323 0.04894058 -0.039618384 -0.005821674 -0.010338458 -0.01912664

network.6.weight f4 [256, 256]
00000000: 52f1 88ba b740 12bc 5596 f4bb 9a5c 51ba
00000010: 0401 84bc 8594 0bbc b2d9 85bc e356 a139
00000020: bd6f e239 50d2 e7b9 4869 ecbb 0b5e 15ba
00000030: cf29 85ba b3ff 93b9 02f7 ec3b 2b68 26bc
00000040: 0b56 9e3c 153c 213a a752 fabb 6362 0a3c
00000050: aae3 3f3c 32e4 1a38 cadd 5c39 d34a 84ba
00000060: abba 0abb b1ed 9b39 4338 c9bb a056 35bd
00000070: 013b 68bc b40e cd3a b92b 873a bdb6 14bc
00000080: c6bd 77ba 52ce 54b9 b52f ab3b d351 d3ba
00000090: f3d3 bd39 df8f 4bbb 3dce 0b37 c50f 0dbb
000000a0: 6f39 2438 8b54 2c3a 29c3 6e3b d415 5c37
000000b0: 9ca8 733a d618 99bc ae77 b23c f001 a93b
000000c0: 53cb dcb9 b981 ebb9 cdff b3bb b985 12bc
000000d0: f51b 19bc 7ae9 d4ba 0752 7a39 d049 0fbc
000000e0: c8dc 4b3a 4da1 d33b 0072 05bc c450 73b9
000000f0: b4a7 c03c deef 5839 a819 7139 490e 763a
00000100: 55bd f0b9 ca4f a9b9 d29d a8bb 5e92 8839
00000110: 3484 07bc 272a bebc b082 52b9 af23 43bd
00000120: b33f bf36 6763 c7b9 8b40 0c39 fca6 e3bb
00000130: 7750 7bb9 ab23 2737 2691 fdbb f48f 363a
00000140: 1ba7 8cb9 923d 49bc 61bc 3339 207e 14ba
00000150: 1c9e 4aba b376 1039 29c1 51ba 6e98 5e3a
00000160: cbc3 3bba b6f5 00b9 efc7 763a 7cea 55bc
00000170: 766b e03c 4f7f 56b8 2ed9 52bb 424f bcbb
00000180: 5050 e43b 15b1 7cbc 285d ab3b 4b9f 90bc
00000190: 562b 88ba f90b 8339 b19d a0b9 d2f2 6ab9
000001a0: 8908 35ba 036c 27bc e3db 24bc fcd2 6cb8
000001b0: b528 20ba d33e ceb9 ba4f e1bb 8c83 89b9
000001c0: 2c14 19bc b7e1 d1b9 4fbf 12bc d40c 97ba
000001d0: cc8f d9bb c5e1 33bc 1ab3 18bc 8d81 a43a
000001e0: b73b ffbb 065a dbba 56b0 6239 1c51 9a39
000001f0: ed5b a038 e047 a6bb db91 06bc 3094 973b
00000200: 5119 b4bc fbf9 c939 616a af39 b566 32ba
00000210: 0afd 35ba c0b7 b33b bb9b fdb9 f73f d838
00000220: 9b62 7c3a 3c63 b4bb 9add 5bba 5e95 3c3a
00000230: 0e0c 4539 5a13 5637 943e 87ba 9b4f 173a
00000240: f2a5 6eb9 34d3 e9b9 6c9b f8b9 9cd5 6fb9
00000250: 2b94 e6b7 2d4e 8eb9 337a e4bb 4975 a0b9
00000260: cdfc c6b9 1ce8 17ba be99 1cbc 9639 693a
00000270: a001 36b9 4a5b 9bbc 9043 39ba c727 04bb
00000280: ef1a 923a 1771 193a c56e 2f3a fef9 24bc
00000290: e627 1ebc 3bc8 6cbb b3e3 0fbc 4b22 fab9
000002a0: 53d5 c9b9 ba78 d2b9 b3bd a0b9 b185 33bc
000002b0: a9ea adba 946b 6cbc 1b13 f039 62d8 1dba
000002c0: 5fcc 05bc 4162 0ebc d313 98bc b483 4ebc
000002d0: 5421 a03a 8cc9 eab8 7ff9 16ba b42f 51ba
000002e0: beb4 2a3b 7773 773c 4214 c139 41a1 e8b9
000002f0: 2410 42bc 32a7 f139 41a2 77ba b373 9ab7
00000300: 8a86 59bc 1d13 8db9 5718 eebb d5c5 043a
00000310: 90df 0bbc cbb3 c4b9 4f56 e1bb 0e43 1539
00000320: a90f 9c3a c8b0 34b9 d436 973c 06b5 84ba
00000330: a7dd beb9 ecb7 b03b a2be bbbb 197b b7b9
00000340: ec82 3ebc 9e55 abb7 1bac 613a 9b9b 2fba
00000350: 7512 c8b8 0739 1dba 11a4 3aba 1663 523a
00000360: 47c6 46ba 6d46 8b3c 8122 96b9 c47d dd39
00000370: d92a 0cba 49af 513a aa75 023a fa85 f5b9
00000380: 0a53 12bc 35b6 1c3c b68b f63a 486c 483a
00000390: f751 1fbc 2d19 db39 5e17 82bc 3848 583a
000003a0: c42e 1cbc 8979 8eb9 e84b 26ba e2e7 1bba
000003b0: 556f 1aba eb9f b6bc 1e3a 46b9 cc1b cbba
000003c0: 3a6b 2239 4b48 623a 1a43 f7bb 0a23 943a
000003d0: 84ba 1eba bd76 45ba 64ea 7d3a 67e5 fbbb
000003e0: 9169 5439 910c acb9 322e c2b9 1fe6 14bc
000003f0: 7618 16bc ce5a 46ba eea2 0bbc d772 3f39
-0.0010447896 -0.008926562 -0.00746421 -0.0007986516 -0.016113766 -0.008519297 -0.016339157 0.0003077305
0.0004318933 -0.00044216448 -0.007214699 -0.00056979124 -0.0010159555 -0.00028228536 0.007231594 -0.0101566715
0.019328138 0.00061506155 -0.0076392475 0.008446309 0.011711994 3.6928985e-05 0.00021063458 -0.00100931
-0.0021168392 0.00029740998 -0.00614074 -0.044272065 -0.014174224 0.0015644641 0.0010312713 -0.009076771
-0.00094505807 -0.00020294756 0.005224193 -0.0016122408 0.00036206804 -0.0031061096 8.333064e-06 -0.0021524292
3.9154136e-05 0.0006573877 0.0036432242 1.3118104e-05 0.0009294839 -0.0186886 0.021785583 0.0051577017
-0.00042113158 -0.00044919344 -0.0054931403 -0.008943015 -0.009345044 -0.0016243898 0.00023872415 -0.008745626
0.00077767344 0.0064584375 -0.0081448555 -0.00023204373 0.023517467 0.00020688723 0.00022993109 0.0009386284
-0.0004591743 -0.0003229364 -0.005145767 0.00026048993 -0.008271266 -0.02321346 -0.00020075846 -0.047641452
5.699659e-06 -0.00038030298 0.00013375485 -0.0069473963 -0.00023967201 9.96228e-06 -0.0077382503 0.00069642
-0.00026827384 -0.012282746 0.00017140947 -0.0005664546 -0.00077292486 0.00013777129 -0.00080015004 0.0008491342
-0.00071626593 -0.00012298566 0.00094139477 -0.013056394 0.027394991 -5.114014e-05 -0.0032172906 -0.005746753
0.006967582 -0.015423079 0.005229611 -0.017654082 -0.0010388892 0.00024995187 -0.00030635067 -0.00022406437
-0.0006905874 -0.010218623 -0.010062191 -5.646328e-05 -0.00061095814 -0.0003933819 -0.006875959 -0.00026228686
-0.009343188 -0.00040031757 -0.008956744 -0.0011524209 -0.0066394564 -0.010979121 -0.009320045 0.0012550816
-0.007789101 -0.0016735203 0.0002161873 0.000294336 7.646517e-05 -0.005074486 -0.008213486 0.0046258196
-0.021984728 0.00038523957 0.0003345786 -0.00068054657 -0.0006942308 0.005484551 -0.0004837195 0.00010311597
0.00096277305 -0.0055049937 -0.0008387208 0.00071938883 0.00018791875 1.27599e-05 -0.0010318332 0.0005772055
-0.00022759268 -0.00044598582 -0.00047418044 -0.00022872392 -2.7487133e-05 -0.00027142596 -0.006972575 -0.00030604962
-0.00037953854 -0.000579478 -0.009558139 0.00088968256 -0.00017357478 -0.018964428 -0.00070672575 -0.002016531
0.0011146943 0.00058533385 0.0006692226 -0.010069368 -0.009653067 -0.003613009 -0.008782315 -0.00047709266
-0.00038496646 -0.0004014427 -0.00030658915 -0.0109571675 -0.0013268787 -0.0144299455 0.00045790602 -0.0006021318
-0.008166402 -0.008690418 -0.01856414 -0.012604643 0.0012216964 -0.000111955305 -0.0005759224 -0.00079798256
0.0026047672 0.015103213 0.00036826922 -0.00044370632 -0.011844669 0.00046091672 -0.000944648 -1.8412107e-05
-0.0132767055 -0.00026907856 -0.007266085 0.00050648797 -0.008537188 -0.0003751799 -0.006876744 0.00014234727
0.0011906523 -0.00017231994 0.018458761 -0.001012475 -0.00036404768 0.005393019 -0.0057295123 -0.00034996195
-0.011627894 -2.0424657e-05 0.00086087146 -0.0006698907 -9.540181e-05 -0.00059975724 -0.0007119785 0.0008025629
-0.0007582646 0.017001355 -0.00028635937 0.00042246107 -0.0005346961 0.0007998837 0.000497664 -0.00046829862
-0.008930931 0.009564926 0.0018809948 0.00076455297 -0.009724132 0.00041789692 -0.015880283 0.00082505075
-0.009532634 -0.000271749 -0.00063437084 -0.0005947334 -0.00058912236 -0.022293052 -0.00018904402 -0.0015495955
0.00015489469 0.00086319883 -0.007545841 0.0011301946 -0.00060550147 -0.0007532647 0.0009686111 -0.007687259
0.00020257222 -0.0003281576 -0.00037036982 -0.009088068 -0.009161105 -0.00075666315 -0.008522732 0.0001825796

network.6.bias f4 [256]
00000000: 0177 f0bc 5de8 6c3d 59da 91bc a876 03bc
00000010: 4162 f2bc c060 88bb 41d6 a9bb 9d61 83bc
00000020: 1d41 6abc a80c b7bc eac7 87bb 6c63 97bd
00000030: bdc4 e63d 2135 d7bb b5d0 e2bb c4c3 3b3d
00000040: 673c 1b3d b660 9dbd 97b6 9ebd a96e a2bd
00000050: ba8d 62bb d1fc 04bc b9c6 25bc 3d62 77bd
00000060: 12b7 bb3d c6b1 e9bd 400b 973d 2eb2 693b
00000070: 31d6 d73d 3cf4 80bb b73e a4bb b6e8 a43d
00000080: f0eb 95bc e86d 2cbc c57b 97ba 31ea 1abd
00000090: 4ca4 07bd ebf8 ddbd 7768 ff3c 46e2 7ebc
000000a0: 3698 41bc db04 c8bd 19d9 22bc 3ecf fcbb
000000b0: ba15 e63d b89d 4bbc 2dcc 92bc 6adc aebb
000000c0: fe28 a2bc 902c 34bc d4b4 8bbc d39b 3fbc
000000d0: 68b1 2bbd fe04 a93d 6d3e adbd cf74 08bb
000000e0: a044 47bd c31e 06bd 70cc 13bc a075 89bb
000000f0: ed2f 87bd 4127 a5bd 7073 babb 18cc 0cbc
00000100: e609 33bd 930e 1abc 4f7b 83bc 0ca6 4dbb
00000110: 495e 8f3d 68e4 ee3d 551c 93bc 5d91 21bc
00000120: 5e05 16be 9d55 81bb 8c76 5abb 3260 3fbd
00000130: c761 efbd 0c0f 593d 6faa 27bc 2828 123e
00000140: 3f86 a2bc 85d3 20bc 091b 5dbd 830b 313b
00000150: c1ac 5abc 8a48 1fbc 075d 07bd 665a cabc
00000160: 47b8 9ebd a9f2 2fbc 92c2 99bd 506c 02be
00000170: c854 e33d 2b61 b2bd 4e9a e4bc 3d6f 2cbd
00000180: 1d83 84bd e71d cbbc 2f6a f6bb 78d3 8bbb
00000190: 677c a3bb 6c61 61bc 7fde 5fbc fb39 8ebc
000001a0: de79 9bbc 9a36 8abd 887d 9ebb 040a d6bb
000001b0: 78eb 00bc 909c afbb 2df1 81bc 0f71 09bd
000001c0: 9ea2 5ebc 49f8 f0bb 8282 59bd a925 54bb
000001d0: 9e6d aebd e2ea 4ebc 4844 b9bc ec2e 6fbd
000001e0: e7b2 133c 96d3 68bd 04b7 b2bb 7d33 eebc
000001f0: 6630 a0bb 5d9b c43c 0127 89bb b5d5 97bc
00000200: 60cc 97bd 188c f6bc cfad 8cbc b5bb 35bc
00000210: b7d0 f4bb bb39 a5bb b4f3 e9bc 3788 b4bd
00000220: 6a74 143d b4ee 22bc d168 6fbe 086d 40bc
00000230: d737 ceba 60e7 fbbb 6841 a6bb b5c4 d13d
00000240: 7b78 fbba ce56 9ebc c107 27bc fb40 14bd
00000250: 211a 5cbd c11a 10bb 57c3 eabc f61e aebc
00000260: 3d62 e4bc 1564 1abe 49b3 973c 45c4 513d
00000270: 4902 a23b 6caa 49bb 6c1e 84bd 5c50 91bc
00000280: 8539 e7bc 6e1b 273d 9fe2 78bc 3110 89bc
00000290: d5c4 f5bb 2137 27bc 0a0b 57bb ba7f ecbc
000002a0: e813 3bbd e32b 90bc 6e30 8dbd 8b61 e8bb
000002b0: 3d4a a3bb 1979 48bd 2ee1 8cbb ab10 bfbc
000002c0: 4e6e 3bbb b70f 19bd d46b 89bc 80cb 28bc
000002d0: 092a 43bc 4a84 20bc 6260 b1bd d5e6 9dbc
000002e0: e3de d0bd 60f5 8abc f473 b4bc bd0a 8ebc
000002f0: ede2 eabd 592d f3bb 6f8e 08be fd02 053e
00000300: 5180 95bb bb0f 70bc 5ec7 13bc 60ad 07bc
00000310: fedb bdbc 712a 04bd a2a1 05bc 266a 72bb
00000320: c56a 8fbc ee88 81bc 0b2b 42bb 2fd0 a3bd
00000330: e0e4 f0bb e91d a0bc 6f99 b1bb 5d4a 543d
00000340: d9d8 03bd e9d9 0ebc 9acd c0bd 95e4 1abc
00000350: 6b6a 69bd 4701 03bd c266 533d e7e9 fcbb
00000360: df85 573d 455a 77bc 8731 88bc 9907 28bc
00000370: 6a80 b2bb 9709 3dbc 9a6c daba 1ba8 a4bd
00000380: a8fa 17bc 5c8c b8bc e1cd adbc 5cc6 8fbd
00000390: 5971 86bc 6010 0fbb 7d9d c8bc 6b34 7cbc
000003a0: eb0d 90bc 0b90 893d bea0 96bc 38b7 21bc
000003b0: 12e4 44bd aa08 c53d f9fb 09bd 4b73 ebbb
000003c0: bc59 7ebd c056 21bc 4cd6 94bb 0586 1abc
000003d0: 5d42 a6bd 208b 10bc 43cc 0dbc 21f9 b6bd
000003e0: 175a 13bd e497 d8bc 4147 cfbb 82b3 873d
000003f0: a899 a1bc 111c c6bc b88c 1abc e3e5 8d3d
-0.02935362 0.057838786 -0.017804312 -0.008023895 -0.029587867 -0.004161924 -0.0051830118 -0.016037757
-0.014297751 -0.022344902 -0.0041437047 -0.0739201 0.112679936 -0.0065676128 -0.0069218525 0.045840994
0.0378994 -0.07684462 -0.0774967 -0.07931263 -0.003456934 -0.008116917 -0.01011818 -0.06039642
0.09165777 -0.11410861 0.07375193 0.0035659182 0.10538901 -0.003935365 -0.005012359 0.080521986
-0.01830098 -0.010524251 -0.0011557272 -0.037821 -0.03311567 -0.10838493 0.031177742 -0.0155568775
-0.011816075 -0.09766551 -0.009939455 -0.007715135 0.11234613 -0.01242774 -0.017919624 -0.005336334
-0.019794937 -0.010996953 -0.017053999 -0.011694866 -0.041917235 0.08252905 -0.084591724 -0.0020821576
-0.04864943 -0.03274418 -0.00902091 -0.00419493 -0.06600938 -0.08064128 -0.0056900308 -0.008593582
-0.04371061 -0.009402889 -0.016050009 -0.003137949 0.07000405 0.11664659 -0.017957846 -0.009861317
-0.14650485 -0.0039469735 -0.003333482 -0.0467226 -0.116885714 0.052992865 -0.010233506 0.14273131
-0.019839404 -0.009816055 -0.05398086 0.0027014918 -0.013346852 -0.0097218845 -0.033047702 -0.024701308
-0.07749992 -0.010739007 -0.075078145 -0.1273663 0.11100155 -0.087099396 -0.02790561 -0.042098273
-0.064703204 -0.024794532 -0.0075199823 -0.0042671524 -0.004989195 -0.013756137 -0.013663887 -0.017361632
-0.01897901 -0.06748696 -0.004836742 -0.0065319557 -0.00786864 -0.00535924 -0.015862072 -0.033555087
-0.013588576 -0.0073538166 -0.053102978 -0.003237108 -0.085170016 -0.012629243 -0.022615567 -0.058394358
0.009014822 -0.05684241 -0.005453946 -0.029077286 -0.004888582 0.023999864 -0.004185558 -0.01853452
-0.07412028 -0.030096099 -0.017172722 -0.011092116 -0.00747117 -0.0050422824 -0.02855859 -0.088150434
0.036243834 -0.009944607 -0.23379828 -0.011744745 -0.0015733194 -0.007687494 -0.005073715 0.10242597
-0.0019185686 -0.019328501 -0.01019472 -0.036194783 -0.053735856 -0.0021988603 -0.028657598 -0.021254998
-0.027878875 -0.15077241 0.018518107 0.051212568 0.00494412 -0.0030771745 -0.06451115 -0.017738514
-0.02822567 0.040797643 -0.015190749 -0.016731353 -0.007500271 -0.010206015 -0.0032812976 -0.028869499
-0.04567328 -0.017599052 -0.06894003 -0.007091706 -0.004983215 -0.048943613 -0.0042993044 -0.023323378
-0.0028599682 -0.037368502 -0.01677505 -0.010302424 -0.011911877 -0.009797165 -0.08660962 -0.019275108
-0.10198762 -0.016962707 -0.022027947 -0.017339105 -0.11469064 -0.0074211773 -0.13335584 0.12989421
-0.0045624156 -0.014652188 -0.009019701 -0.008281082 -0.02317619 -0.032267038 -0.008156212 -0.003698954
-0.017506966 -0.015812363 -0.0029627706 -0.07998692 -0.007351503 -0.019545512 -0.005419902 0.05182873
-0.032189224 -0.008718946 -0.094142154 -0.009453912 -0.056986254 -0.03198364 0.05161167 -0.007718313
0.052617904 -0.0150972055 -0.016625179 -0.010255718 -0.005447437 -0.011537931 -0.0016664446 -0.08039876
-0.00927607 -0.022527866 -0.021216335 -0.07020256 -0.01641147 -0.0021829829 -0.024489159 -0.015393357
-0.017584762 0.06716927 -0.018387195 -0.009870343 -0.048069067 0.09620793 -0.033687565 -0.007185375
-0.062097296 -0.009847343 -0.0045421477 -0.009431367 -0.081181265 -0.0088222325 -0.008654657 -0.08934236
-0.03597459 -0.026439615 -0.006325633 0.06626035 -0.01972659 -0.024183305 -0.009432964 0.06928613

mu.weight f4 [2, 256]
00000000: ff3b c0bc 5c92 edbd e04d 5ebc b82d dd3b
00000010: a6fc 253b aa8c 4839 7708 253c aeba 213b
00000020: 7946 f537 c1fc 42bc 2531 d4b9 2477 723d
00000030: 6e44 c8bd 6646 15bb 5377 30bc cd60 ec3b
00000040: 0c2f eb3d 60f7 73bc 9303 a2bb 0888 c2bc
00000050: 7a9b 8f3b 4dd9 df3a 7ea8 afbb bc61 453d
00000060: 6f45 d3bd d34a 273c a66f 65be 0c74 3a3d
00000070: 7fbf 513d 77a4 baba e88c 71bb 3891 80bd
00000080: 97f4 1eba 5c7b 52bc 714b 6f39 c01a e5bc
00000090: c83e 4e3c 6c3e 8b3d 0576 3b3e f5e8 b2bb
000000a0: 695b dd3b e6a0 d63c 06e0 d53b 781c 1c3a
000000b0: 437e cfbd 1129 0c3c d1bb 363b fa9e 8a3a
000000c0: 6922 833c 09a7 ccbb 8bb1 2e3d 3009 67bc
000000d0: 5aa6 073c cd84 80bd f284 a8bc 574b 693a
000000e0: 7905 d6bb 32d2 7c39 71a0 13be 7634 78bb
000000f0: c32c 4d3c 7fd0 c1bc e8c1 37ba e061 793b
00000100: 34f9 14ba dadf 8bba f87c 02bd 87d0 11ba
00000110: e326 07be 35fa 8fbc 730e 28bc 29a7 8dbc
00000120: aecb d23d a169 0abb 5011 d73a 87f3 013e
00000130: 37de 253d 5331 133e 02fb e33c 9f9f 57be
00000140: 79f4 8abc a336 4c3a 17e2 9f3d ebad e43c
00000150: 19ad 7b37 599d c03b 59c6 c5bb 7819 783b
00000160: f307 35bd 412c 013c 0eb2 d63c 7b1c 02bb
00000170: 9be7 a9be 46bb fabc c1fa 74bb b259 c53b
00000180: 1d38 96ba 22f0 5039 3a21 5c3b 07f1 64bb
00000190: 9a45 a53b 286e f6bb f37d 0e3c 1806 8dbb
000001a0: 8a51 adbb e40f 3bbe e85d bf3b 4202 2d38
000001b0: 23d5 adbb 4d9f ee3a 3cfe a8bc 024b 373c
000001c0: 4b4d 2e3c c3a5 c6bb 8c14 e2bc 2a87 c93b
000001d0: e408 923c 17e9 0a3c 9fe5 5bbc 1a71 9c3d
000001e0: 4715 24be 8fa5 ddbc 9ae1 8bbb b751 c1bb
000001f0: 6d2a 6cbc 81fa 093e 39a1 b9bb 6128 b83c
00000200: f2b3 fcbd ff5b af3b d27b b7bb 329e 20bc
00000210: 1898 c43b 7c66 8abb d99a 4a3c 3565 033d
00000220: 6a0f 8cbe 6c75 a03b 1496 0fbd cab6 0abc
00000230: 1fc2 d7ba 07f2 c23b 4fc5 de3b 7a02 77be
00000240: 1037 b6b9 0425 a63b 26ab 003e 9236 f9bb
00000250: 8dc6 343c f005 733b 8054 a53b 4cbb ee3c
00000260: 1fae 41bd 2ed9 423d a5d7 0e3d bdea bebd
00000270: ceb5 003d 3c9a 9bbb ca82 d73c c4b8 81b9
00000280: 217e 3fbd 6cc1 a83d af20 893d b080 6cbc
00000290: fb6a 603c ce93 15bb 5ddb 32bb b369 aa3b
000002a0: cc45 023c 4153 febb 3c21 513c 313e 8b3b
000002b0: 606c ef3d 071c 223d f53c 38bb 4a7d 02bc
000002c0: a3ac 823b 7033 e1ba dc29 29bc c018 7bbb
000002d0: 802e c7bd ee7b f13b db74 293c 8ea4 643b
000002e0: a399 4a3d f2fd 7e3b 8dec 4d3c c8fc 983b
000002f0: c5fe 2a38 ff77 e3bb 473c 1fbd fbeb 603c
00000300: 688c efba 617c aabc c367 d5bb 6b94 c33b
00000310: 7a39 b6b9 97da 4cbd f773 643b f207 f33b
00000320: 707b 3cbb 8b90 5abd bfd8 acb8 d16b 3fbc
00000330: e23f 0e3b 6df1 3d3b 43d1 ab3b 6519 05be
00000340: 07ef e33b 6cc5 05bc 320f 0dbd aa4b c4bb
00000350: e7f4 003d 64f8 e33b 4ccc 29be e639 0ebb
00000360: 4b60 46bc cbf4 77bb e14a 09bc 5a3b e13b
00000370: 6292 a03b ad33 d33b f00d 243a 32fd 14bd
00000380: 77f5 c03b 317e 883d 24bc 11bb 2335 cc3c
00000390: 19ac 7ebb 2499 d0bb 28eb 4bbb 7c1b 0fbc
000003a0: e861 d13d 4ce8 043e cb8e 9b3c a21f 10bc
000003b0: 2402 8dbd b29b 253e c3cf be3c fb7a 863a
000003c0: 6fb1 c73b 3f64 8b3b 2561 d4bd 6183 d3bb
000003d0: 5062 323e 6494 18bd bf56 123e 833c 91bb
000003e0: 17ab 07bc 6ae2 333c ddb9 433b 90e8 42be
000003f0: 4c15 013b 2bbf 1abc 0068 ce3b 6d0c f03d
-0.023466108 -0.116001815 -0.013568372 0.006749835 0.0025327592 0.00019125888 0.010072819 0.002467792
2.9239092e-05 -0.011901082 -0.00040472407 0.059195653 -0.09778677 -0.0022777556 -0.010770637 0.007213688
0.11483583 -0.014890522 -0.0049442737 -0.023746505 0.004382548 0.001707831 -0.005360662 0.04818891
-0.10315978 0.010210711 -0.22405872 0.045520827 0.051208016 -0.0014239688 -0.0036857668 -0.06277698
-0.00060636684 -0.012846794 0.0002282092 -0.027966857 0.01258821 0.067990154 0.1830674 -0.0054598995
0.0067552817 0.02619977 0.00652695 0.000595517 -0.101315044 0.008554713 0.0027882943 0.0010575943
0.016007619 -0.006245498 0.042649787 -0.014101312 0.008279407 -0.0627533 -0.020571206 0.0008899471
-0.006531414 0.00024110897 -0.14416672 -0.0037873066 0.012522879 -0.023658989 -0.000700979 0.0038052723
-0.0005682886 -0.0010671571 -0.03185746 -0.0005562384 -0.13198428 -0.017575363 -0.010257351 -0.017291622
0.10292755 -0.0021120089 0.0016408358 0.12690555 0.040495124 0.14374284 0.02782965 -0.21056984
-0.016962277 0.0007790124 0.07806795 0.027914962 1.5001068e-05 0.0058781323 -0.006035608 0.0037856977
-0.044197034 0.007884086 0.02620795 -0.0019853401 -0.33184513 -0.030606877 -0.0037380906 0.0060226554
-0.0011460815 0.00019925882 0.003358914 -0.0034933703 0.0050436975 -0.007520456 0.008697021 -0.004303705
-0.005289261 -0.1826778 0.005840052 4.1248517e-05 -0.005304949 0.0018205434 -0.02062904 0.011187317
0.010638545 -0.006062241 -0.027597688 0.006150146 0.017826505 0.0084784245 -0.013421445 0.0763876
-0.16023742 -0.027056484 -0.004268837 -0.0058996337 -0.014414412 0.13474466 -0.005664971 0.022480192
-0.12339009 0.005351543 -0.0055994773 -0.009803342 0.0059995763 -0.004223643 0.01236602 0.03207894
-0.2735551 0.0048968103 -0.035055235 -0.008466432 -0.0016461051 0.005949262 0.0067984234 -0.24122038
-0.0003475477 0.0050703306 0.12565288 -0.0076053822 0.011033666 0.0037082396 0.0050454736 0.029142044
-0.047285195 0.0475704 0.034873623 -0.093221165 0.031423382 -0.004748611 0.026307482 -0.00024742458
-0.046751145 0.08240017 0.06695687 -0.014434978 0.013697381 -0.0022823694 -0.0027291395 0.0052005886
0.007951211 -0.0077613895 0.012764271 0.004249357 0.11690593 0.03957751 -0.0028112505 -0.007964442
0.003987865 -0.0017181467 -0.010324921 -0.0038314313 -0.09725666 0.00736951 0.010342802 0.0034888121
0.049462926 0.0038908687 0.012568605 0.0046688057 4.076843e-05 -0.006941795 -0.038875844 0.013728137
-0.0018276097 -0.020811262 -0.0065126135 0.0059686205 -0.00034756568 -0.05001315 0.003485916 0.0074167186
-0.0028760098 -0.053360503 -8.241971e-05 -0.01168342 0.0021705558 0.0028983012 0.005243452 -0.12997968
0.0069559845 -0.008164745 -0.03443832 -0.005990465 0.031483557 0.0069571007 -0.1658184 -0.002170199
-0.012107919 -0.0037835117 -0.008379669 0.0068735303 0.0049002627 0.006445369 0.00062581804 -0.03637428
0.0058886367 0.06664694 -0.0022237385 0.024927681 -0.0038859902 -0.006365912 -0.0031115506 -0.00873458
0.10223752 0.12979239 0.018988987 -0.008796604 -0.06885174 0.16172674 0.023292428 0.001026004
0.00609415 0.0042538936 -0.10370091 -0.0064548706 0.17420316 -0.03725089 0.14290904 -0.0044322624
-0.008280537 0.010979274 0.0029865422 -0.19034028 0.0019696532 -0.009444992 0.006299019 0.1172112

mu.bias f4 [2]
00000000: 8d86 babd 531c a73d
-0.09107695 0.08159699
