animation_PPO/models/first_critic.pt (torch, 548627 bytes, 7 tensors)

network.0.weight f4 [256, 16]
0	0x3e32ee30	0.17473674
1	0x3c4b811f	0.012420922
2	0x3e369b9b	0.17832796
3	0xbec10e26	-0.37706107
4	0xbf8537b3	-1.0407623
5	0x3d30f7d9	0.043205116
6	0x3eeb0e56	0.45909375
7	0x3e31778c	0.1733076
8	0x3e301881	0.17196847
9	0x3b9ab9a1	0.0047218357
10	0xbf0860e3	-0.5327284
11	0xbd38d152	-0.0451215
12	0xbe2041c5	-0.15650089
13	0xbe054976	-0.13016304
14	0xbde877c3	-0.11350968
15	0xbf0655a2	-0.52474415
16	0xbd4c01ef	-0.04980653
17	0xbd31d9d9	-0.043420646
18	0xbd9f9f27	-0.07794028
19	0xbe208f42	-0.15679649
20	0xbd359f57	-0.04434141
21	0xbd0491bf	-0.032365557
22	0xbdf5c044	-0.119995624
23	0xbca67370	-0.020318717
24	0xbd71a1e0	-0.058992267
25	0x3d0ff6df	0.035147544
26	0x3ad90c5b	0.0016559468
27	0xbc0badc0	-0.008525312
28	0xbbcffd3c	-0.0063473266
29	0xbe18fa9b	-0.14939348
30	0x3d6dca2d	0.058054138
31	0x3d6d77af	0.057975467
32	0x3da8e923	0.08247592
33	0x3bb7ee88	0.005613152
34	0xbe2eccf0	-0.17070365
35	0xbdb2cd2b	-0.08730539
36	0x3cadba8f	0.021207122
37	0xbe94a7f8	-0.290344
38	0xbcd8d0b3	-0.026466703
39	0xbe6af528	-0.22945082
40	0xbd9efc35	-0.077629484
41	0xbd403628	-0.046926647
42	0x3d2da899	0.042397115
43	0x3dbcbe12	0.092159405
44	0xbd94ff28	-0.0727523
45	0xbd07bb33	-0.03313751
46	0xbdbe3147	-0.09286743
47	0x3c29221c	0.010323074
48	0xbd6e1635	-0.058126647
49	0xbcf60bf2	-0.030034993
50	0x3da126c0	0.07868719
51	0x3e0b38d3	0.13595895
52	0xbe14623e	-0.14490601
53	0xbd232ab8	-0.03983566
54	0x3cdaf7ce	0.02672949
55	0xbb823c4c	-0.003974473
56	0x3d4b1603	0.04958154
57	0xbdd6265f	-0.104565375
58	0xbdfceab3	-0.12349453
59	0xbd79d62b	-0.060995262
60	0x3d1dad2e	0.038495235
61	0xbd30c05c	-0.0431522
62	0x3b949661	0.004534528
63	0x3cb5dc47	0.022199763
64	0xbb98d16d	-0.0046636374
65	0xbd172a30	-0.036905468
66	0x3ceb17d5	0.028697887
67	0xbc808586	-0.015688669
68	0xbc34ff4d	-0.011047197
69	0xbc97b246	-0.018517625
70	0x3d33c61c	0.043890104
71	0x3c879c4c	0.01655402
72	0xbc7030e6	-0.014660096
73	0xbd00c8ae	-0.031441383
74	0xbdb0f6c3	-0.08640816
75	0xbc734b47	-0.0148494905
76	0xbda1fea1	-0.07909895
77	0xbdfb051b	-0.12256833
78	0x3d72414a	0.059144296
79	0xbcf8a3b5	-0.0303515
80	0xbdf4ac4c	-0.119469255
81	0xbe30cc26	-0.17265376
82	0x3f371552	0.7151691
83	0x3ffad515	1.9596277
84	0x3e4933a4	0.19648606
85	0x3d927674	0.071514994
86	0x3d1533c1	0.03642631
87	0x3e801b52	0.25020844
88	0xbda6c0d5	-0.081422485
89	0xbe497bfc	-0.19676203
90	0xbe99a7d2	-0.3001085
91	0xbed65b1c	-0.41866386
92	0xbe688065	-0.22705229
93	0x3db873af	0.0900644
94	0xbda9be75	-0.0828828
95	0x3daa1016	0.083038494
96	0xbe3b1b9d	-0.18272252
97	0x3b57c015	0.0032920886
98	0x3c9e5aae	0.019330349
99	0xbc40520d	-0.011738312
100	0xbcd4711b	-0.02593284
101	0xbd1922ad	-0.037386585
102	0xbd4a1748	-0.04933861
103	0xbd9a5e55	-0.07537524
104	0xbd93fa4b	-0.07225474
105	0xbd2cbf61	-0.0421747
106	0xbd24b08f	-0.040207442
107	0xbd5c46ea	-0.053778566
108	0xbd26ed68	-0.040753752
109	0xbdd6ba31	-0.10484732
110	0x3d6c2194	0.05764921
111	0x3d7adfa6	0.061248444
112	0x3c0e5692	0.008687632
113	0xbd0b817c	-0.034059033
114	0x3e5637dc	0.20919746
115	0xbd2defd4	-0.042465046
116	0xbda96c00	-0.082725525
117	0xbe354f86	-0.17706117
118	0xbde918d0	-0.11381686
119	0xbd207499	-0.039173696
120	0xbd9af7c4	-0.07566789
121	0x3cbf3605	0.023341188
122	0x3c84e08d	0.016220355
123	0xbc2a3f6e	-0.010391099
124	0xbd818668	-0.06324464
125	0x3c885435	0.016641716
126	0xbc46502f	-0.012104078
127	0xbe23051d	-0.1591992
128	0xbc8e62a3	-0.017381018
129	0x3d85e3fa	0.06537624
130	0xbd2ead58	-0.042645782
131	0x3db825ee	0.089916095
132	0xbd3c8257	-0.04602274
133	0xbd7590c7	-0.059952524
134	0x3b00cfb1	0.0019655044
135	0xbd2cfe25	-0.04223456
136	0xbcec6372	-0.028856013
137	0xbc96c35a	-0.018403698
138	0xbd328775	-0.043586213
139	0xbd88e9c1	-0.0668521
140	0xbd1b639c	-0.03793679
141	0x3d2f4334	0.0427887
142	0xbd4ff6f6	-0.05077263
143	0xbd7c6d2e	-0.06162756
144	0xbeb1ed49	-0.34751347
145	0x3e4fd561	0.20296241
146	0x3fbe7b2c	1.4881339
147	0xbf5ddc74	-0.8666451
148	0xbe57ba68	-0.21067202
149	0xbe34bb89	-0.17649664
150	0xbe393431	-0.18086316
151	0xbe3e009f	-0.18554924
152	0xbe21e721	-0.15810825
153	0xbe96ff70	-0.29491758
154	0xbe1952f5	-0.14973052
155	0xbde41bb4	-0.111380965
156	0xbe0bc99b	-0.13651125
157	0x3e1e00b6	0.15429959
158	0x3d0813b2	0.033221908
159	0x3d786f4a	0.06065301
160	0xbe307b99	-0.17234649
161	0xbddae49c	-0.10688135
162	0x3ec3bcaa	0.38229877
163	0xbebf0c56	-0.373141
164	0x3c2e720a	0.010647306
165	0xbdae61b5	-0.0851473
166	0xbcf589c0	-0.02997291
167	0xbddda072	-0.10821618
168	0xbe9491d3	-0.29017505
169	0x3d196895	0.037453253
170	0x3d7837cc	0.060600087
171	0xbecb92d5	-0.3976046
172	0x3ca60b32	0.02026901
173	0x3c801faa	0.015640099
174	0x3cb9f6c8	0.022700682
175	0x3d83d3fa	0.06436916
176	0x3e689525	0.22713144
177	0x3e4b9e86	0.1988469
178	0x3f1b9e30	0.6078825
179	0xbf1bc51b	-0.60847634
180	0xbf613992	-0.8797847
181	0xbe05e4ed	-0.1307561
182	0xbf019869	-0.50623184
183	0x3e25bf34	0.1618622
184	0x3e86b973	0.26313362
185	0x3e53cf99	0.20684661
186	0x3e558ac6	0.20853719
187	0x3da3a1fa	0.07989879
188	0xbe05f510	-0.13081765
189	0xbebd026b	-0.36915907
190	0xbe4f9047	-0.20269881
191	0xbf2d1456	-0.67609155
192	0xbdc5bc04	-0.09655002
193	0xbcb888df	-0.022526203
194	0x3e7f15c4	0.24910647
195	0xbe20629d	-0.15662618
196	0xbe349ba3	-0.17637496
197	0xbd972c54	-0.07381502
198	0x3cf1a8c9	0.029499428
199	0xbdbd88c5	-0.09254602
200	0x3d0ed661	0.034872416
201	0xbe0d8b5f	-0.13822697
202	0xbb9b918e	-0.004747576
203	0xbc0bed09	-0.0085404
204	0x3dd7bdf3	0.10534277
205	0xbb4d8ae5	-0.0031363305
206	0xbd935867	-0.07194596
207	0xba409f32	-0.00073479407
208	0x3e0a8157	0.13525902
209	0xbdd80bbd	-0.10549114
210	0xbe8ab656	-0.27092236
211	0x3cee8922	0.029118124
212	0x3d8c4edd	0.068509795
213	0xbc40bc6d	-0.011763674
214	0xbe0faed0	-0.1403153
215	0x3de36bd0	0.11104548
216	0xbcacce65	-0.02109451
217	0xbe0bfdea	-0.1367108
218	0xbd3df7f8	-0.04637906
219	0x3c4ab605	0.012372498
220	0xbcf806ab	-0.030276617
221	0xbd6a1b01	-0.05715466
222	0xbdb4002e	-0.08789097
223	0xbddd57d0	-0.108077645
224	0xbd7601f9	-0.060060475
225	0xbe168017	-0.146973
226	0x3d8cf629	0.06882889
227	0x3d104538	0.035222262
228	0xbcfc2fe4	-0.030784555
229	0x3c0b7602	0.008512022
230	0xbdd951d2	-0.10611309
231	0xbc96e0a2	-0.01841766
232	0xba299a5d	-0.00064698403
233	0xbd32a733	-0.043616485
234	0xbc9ee669	-0.019396977
235	0x3ced3577	0.028956158
236	0x3d93578f	0.07194435
237	0x3d13204d	0.035919476
238	0xbcbdedb6	-0.023184638
239	0xbbe39e46	-0.006946358
240	0xbe6e0866	-0.23245391
241	0x3d3ee112	0.046601363
242	0xbd8fe7cd	-0.07026634
243	0xbf0e43d8	-0.5557227
244	0x3e34025a	0.17579022
245	0x3ead4826	0.33844107
246	0x3e75b7fd	0.23995967
247	0xbdab7c01	-0.08373261
248	0xbd47d00f	-0.048782405
249	0xbea188a4	-0.3154956
250	0xbe30abde	-0.17253062
251	0xbedee4a4	-0.43533814
252	0xbf2c8033	-0.67383116
253	0xbf32da9e	-0.69864833
254	0xbf0c8551	-0.54890925
255	0xbe369e79	-0.1783389

network.0.bias f4 [256]
0	0x3e77f703	0.24215321
1	0x3bc613c9	0.006044839
2	0xbdb8a90f	-0.0901662
3	0xbced8ba3	-0.028997248
4	0xbd5e3d8e	-0.054257922
5	0x3ddec516	0.10877435
6	0xbd9c00ef	-0.076173656
7	0xbd1d494e	-0.038399987
8	0x00000000	0.0
9	0xbcaab132	-0.020836446
10	0xbe033df1	-0.12816598
11	0x3e8a401f	0.27002046
12	0xbe099c7c	-0.134386
13	0xbd014954	-0.03156407
14	0xbd99ea39	-0.075153776
15	0x3e6c1ec1	0.23058607
16	0xbd364f5c	-0.044509277
17	0x00000000	0.0
18	0x3ec6ffda	0.38867074
19	0xbc878408	-0.01654245
20	0xbdffede0	-0.12496543
21	0x3bc0b554	0.005880991
22	0xbe35d24f	-0.17756008
23	0xbca2209d	-0.019790942
24	0xbccc7d5d	-0.024962122
25	0xbc877ce8	-0.016539052
26	0xbcdb57a6	-0.026775192
27	0xbc8a7ba5	-0.016904661
28	0x3e05ab18	0.13053548
29	0xbdac754a	-0.084208086
30	0x3ec6a8c8	0.38800645
31	0xbd2df78c	-0.042472407
32	0xbda764ff	-0.0817356
33	0x00000000	0.0
34	0x3e9f577a	0.31121427
35	0xbdc17736	-0.09446566
36	0x00000000	0.0
37	0x3a0804df	0.0005188714
38	0xbe1e5260	-0.15461111
39	0x3b54bf26	0.0032462566
40	0xbc2b84a0	-0.010468632
41	0x3e5bc468	0.21461642
42	0xbc1c16b5	-0.009526898
43	0xbcdbcb8d	-0.026830459
44	0xbe48938f	-0.19587539
45	0xbcda5862	-0.026653472
46	0x3cec8655	0.028872648
47	0xbe1e55f4	-0.15462476
48	0xbc2a7b9c	-0.010405447
49	0xbdbb4999	-0.09144897
50	0xbe116aae	-0.14200851
51	0xbc913d63	-0.017729467
52	0xbc1b287b	-0.0094701005
53	0xbc99fd46	-0.018797528
54	0xbe55ea9b	-0.20890276
55	0xbd0c9644	-0.034322992
56	0x3eb9a0ab	0.36255392
57	0xbdd359c3	-0.10319855
58	0xbcc3ae88	-0.023886934
59	0xbd88df46	-0.06683211
60	0xbe147fe9	-0.14501919
61	0x00000000	0.0
62	0xbdb46c4f	-0.08809721
63	0xbc8a7c3d	-0.016904945
64	0xbc272107	-0.010200745
65	0xbd381ef9	-0.044951413
66	0xbb5abfef	-0.0033378561
67	0xbcdf188a	-0.02723338
68	0xbcd5590d	-0.02604344
69	0xbca881a3	-0.020569628
70	0x3c5b44cf	0.0133831045
71	0xbd4d1cb1	-0.05007619
72	0xbc8d9249	-0.017281668
73	0x3e9f20c7	0.31079695
74	0xbc129d7b	-0.008948679
75	0xbe842730	-0.25811148
76	0xbc985f61	-0.018600168
77	0xbc1b40f5	-0.009475936
78	0xbe4ec858	-0.20193613
79	0xbd89403f	-0.06701707
80	0xbd0e3dd4	-0.034726933
81	0xbbff1800	-0.0077848434
82	0x00000000	0.0
83	0xbe2b88ea	-0.16751447
84	0xbe5f8f00	-0.21831894
85	0xbdeb278c	-0.11482152
86	0xbcb9d3b6	-0.02268396
87	0xbe1a9379	-0.15095319
88	0x3e986c1b	0.29769978
89	0xbcb0127c	-0.021493189
90	0xbd6a1619	-0.05714998
91	0x3e95afa6	0.29235572
92	0xbc740556	-0.01489385
93	0xbcf8a620	-0.030352652
94	0x3d169f89	0.03677324
95	0xbd3306ee	-0.04370778
96	0xbe49d2eb	-0.19709365
97	0xbd3a7875	-0.045525033
98	0xbd296ca4	-0.041363373
99	0xbdcb81ba	-0.09936853
100	0x3e83fa96	0.2577712
101	0xbcf7357c	-0.03017687
102	0xbc7d3e96	-0.015456816
103	0x3efa1c85	0.48849884
104	0xbd95c4a7	-0.07312899
105	0xbe1c072e	-0.15237114
106	0xbe2379e2	-0.15964463
107	0xbc92d38e	-0.017923143
108	0xbd0141b3	-0.031556796
109	0xbccbb9ff	-0.024868963
110	0xbcee3377	-0.029077275
111	0x3e63aee6	0.22234687
112	0xbde23801	-0.11045838
113	0x3ef8b4e0	0.48575497
114	0x3d9688f5	0.07350341
115	0xbdba59e7	-0.09099179
116	0xbc969bf8	-0.018384919
117	0x3df89ecf	0.12139665
118	0x3cfdf887	0.031002296
119	0xbd81c507	-0.06336408
120	0x3df62164	0.120180875
121	0xbc14105b	-0.009037103
122	0xbd71940b	-0.058979075
123	0xbb12d5dd	-0.0022405304
124	0xbc5afb73	-0.013365614
125	0xbe66f453	-0.2255414
126	0xbc2dbbf9	-0.010603898
127	0xbd01110d	-0.0315104
128	0x3e4874b3	0.19575767
129	0x3f02804e	0.5097703
130	0xbda1b3ea	-0.07895644
131	0x3d229cc2	0.039700277
132	0xbd9453a8	-0.07242519
133	0x3dfc703a	0.12326093
134	0xbcdae027	-0.026718212
135	0xbd370667	-0.04468384
136	0xbe2e441c	-0.17018169
137	0xbe225b81	-0.15855218
138	0xbe0cce61	-0.13750602
139	0xbe15fa58	-0.1464628
140	0x3dd4190b	0.10356339
141	0xbc6a925a	-0.0143171195
142	0xbccab368	-0.02474375
143	0xbd4367c8	-0.047706395
144	0xbdf90fa7	-0.121611886
145	0x3e74fc7d	0.23924442
146	0xbdac9094	-0.084260136
147	0xbddbf8d5	-0.1074082
148	0x3eeef3a1	0.4667025
149	0xbbe10afb	-0.006867764
150	0xbd7eb6a5	-0.062185902
151	0xbe44346f	-0.19160627
152	0xbdb33f2a	-0.08752282
153	0x3edc3598	0.4300964
154	0xbdf99eac	-0.121884674
155	0xbc601422	-0.013676675
156	0xbcdb5e49	-0.026778357
157	0xbda02962	-0.07820393
158	0xbcc2e9b8	-0.023793086
159	0x3e86aa84	0.26301968
160	0x3eadc5e2	0.33940035
161	0x3d4ac0bb	0.04950021
162	0x3edc102c	0.42981088
163	0xbe4816a1	-0.19539882
164	0xbd228019	-0.039672945
165	0xbda3974e	-0.079878435
166	0x3ec341fc	0.3813628
167	0xbd280aab	-0.0410258
168	0xbd1a08d3	-0.03760607
169	0xbd7a5a73	-0.061121415
170	0xbd87decb	-0.06634291
171	0xbd068527	-0.032841828
172	0xbc0d73a3	-0.008633527
173	0xbea6e21d	-0.32594386
174	0xbe71cdcd	-0.23613663
175	0xbde40212	-0.111332074
176	0x3e0cd5f1	0.13753487
177	0x3df289aa	0.118426636
178	0xbcdaab89	-0.026693122
179	0xbc1a29fd	-0.009409425
180	0xbd847683	-0.06467917
181	0xbdb450b8	-0.088044584
182	0x3eea2b9c	0.45736396
183	0x00000000	0.0
184	0x00000000	0.0
185	0xbcbf5a62	-0.023358528
186	0xbc92d08a	-0.017921705
187	0xbdce6e40	-0.10079622
188	0x3ec4a8d1	0.38410047
189	0xbd275492	-0.040852137
190	0xbe01ecf4	-0.12688047
191	0xbc1a9e65	-0.009437178
192	0xbd6f02d0	-0.05835229
193	0xbe27c0ba	-0.16382113
194	0xbdf404f4	-0.11915007
195	0x3b9330fb	0.004491923
196	0xbdd28b29	-0.10280449
197	0x3ed21042	0.4102803
198	0x3e7edb6b	0.24888389
199	0xbd2844bb	-0.04108117
200	0xbc9a5b1a	-0.018842269
201	0xbd31c694	-0.04340227
202	0x3d7c91d0	0.061662495
203	0xbca6a7bc	-0.020343654
204	0xbd6e95e1	-0.058248404
205	0xbdc16bb8	-0.09444374
206	0xbcf20f19	-0.029548215
207	0xbd290ff3	-0.041274976
208	0xbdca5cf9	-0.098810144
209	0x3e94453b	0.2895907
210	0x00000000	0.0
211	0x3be109fb	0.006867645
212	0xbcee3e17	-0.029082341
213	0x3ef70999	0.4824951
214	0xbc8aa28f	-0.016923217
215	0x3e7c4cb7	0.2463864
216	0x3ec9342a	0.3929761
217	0x3ea8318d	0.32850304
218	0xbc903abd	-0.017606134
219	0xbea5e5d5	-0.3240191
220	0xbddc379d	-0.10752795
221	0x3c1fd921	0.009756357
222	0x3e3efe7a	0.18651763
223	0xbc60da55	-0.013723929
224	0xbd87174a	-0.06596239
225	0xbc1c0f26	-0.009525096
226	0xbd1b4820	-0.03791058
227	0xbd4fcd9f	-0.050733205
228	0xbe2d5558	-0.16927087
229	0xbe4815d6	-0.1953958
230	0xbc143dba	-0.00904792
231	0x3df4d37d	0.11954401
232	0x3e82f46e	0.2557711
233	0xbddf18d8	-0.108934104
234	0x3d87c03a	0.06628461
235	0xbcafcb67	-0.021459294
236	0x3e2e228f	0.1700537
237	0xbe0984d7	-0.1342958
238	0xbe000c64	-0.12504727
239	0xbdfb4f62	-0.122710004
240	0xbb9f1f07	-0.0048559937
241	0xbda60798	-0.08106917
242	0xbe096416	-0.13417086
243	0x3e840599	0.2578552
244	0xbcb0d851	-0.021587523
245	0xbd07a5e3	-0.033117186
246	0xbd8bd876	-0.06828396
247	0xbde8f71e	-0.11375259
248	0x3e7ada3d	0.24497314
249	0xbd5a77af	-0.053336795
250	0x3ddf0ff4	0.10891715
251	0xbb6f7983	-0.0036540932
252	0xbd87ade1	-0.06624962
253	0xbccaadbe	-0.02474105
254	0xbe13d2b4	-0.14435846
255	0xbd4de3ee	-0.0502662

network.3.weight f4 [256, 256]
0	0xbf030dec	-0.5119312
1	0xbd0bb87c	-0.034111485
2	0xbdb74861	-0.08949352
3	0xbcfbb26f	-0.030724732
4	0x3da4f904	0.080553085
5	0x3e7779bf	0.24167536
6	0xbdcd47ee	-0.10023485
7	0xbc1f8173	-0.009735453
8	0xbd9c2de1	-0.07625938
9	0x3e9b1734	0.3029114
10	0xbde415c2	-0.111369625
11	0x3d971861	0.07377697
12	0x3d943fa3	0.072387
13	0xbe826e62	-0.2547484
14	0xbd0e17b1	-0.034690563
15	0xbd980fb7	-0.07424872
16	0xbde6d722	-0.11271502
17	0xbd93bbad	-0.07213531
18	0xbf08725f	-0.53299516
19	0x3d4792d9	0.04872403
20	0x3d88838c	0.066657156
21	0x3e49b822	0.19699147
22	0xbb85ce10	-0.0040834025
23	0xbe1bc478	-0.15211666
24	0xbd7b4d99	-0.0613533
25	0x3d85104b	0.06497248
26	0x3e6d9073	0.23199634
27	0xbb3dd28c	-0.0028964607
28	0xbedc366a	-0.43010265
29	0xbc04286e	-0.00806628
30	0xbf3c66a5	-0.73594123
31	0x3e095238	0.1341027
32	0xbec48ee8	-0.3839028
33	0x3c26b3f3	0.010174739
34	0xbef6e8b3	-0.4822441
35	0x3d0cd2cb	0.034380715
36	0x3c5d2bf5	0.01349925
37	0x3e0b3d98	0.13597715
38	0xbe004f1a	-0.12530175
39	0x3e27289e	0.16324088
40	0x3df94299	0.121709056
41	0xbd1c06a2	-0.038092263
42	0x3bbbfa54	0.0057366285
43	0xbdd0a401	-0.10187531
44	0xbe19e38b	-0.15028207
45	0x3d423293	0.047411513
46	0xbd062894	-0.032753542
47	0xbd4d0b55	-0.050059635
48	0x3dd2cd8c	0.10293111
49	0xbe9cffd6	-0.30663937
50	0xbe0bda72	-0.13657549
51	0x3cafc338	0.021455392
52	0xbd7f0291	-0.062258307
53	0x3c6e2f65	0.014537667
54	0xbe88f93e	-0.26752657
55	0xbd31e50e	-0.043431334
56	0xbe3f5f0d	-0.18688603
57	0x3d21cd69	0.039502535
58	0x3d75d3e7	0.06001654
59	0xbc9886ba	-0.01861893
60	0xbf2a3062	-0.66480076
61	0xbda47645	-0.080303706
62	0xbccb3582	-0.024805788
63	0x3d73f2c1	0.05955768
64	0x3d38feaa	0.04516474
65	0xbdeef650	-0.11668074
66	0xbd97f6ff	-0.07420158
67	0x3b1b1b30	0.0023667328
68	0x3db814f2	0.0898837
69	0x3e4e432a	0.20142809
70	0xbed681f6	-0.41896027
71	0xbdb6d8b0	-0.089280486
72	0x3d92e4df	0.0717256
73	0xbf0f5ad9	-0.55998
74	0xbd21a8dd	-0.03946768
75	0x3e0aff25	0.13573892
76	0x3d9bdf7a	0.07610984
77	0xbd89036f	-0.06690108
78	0x3dec02a2	0.1152394
79	0x3ea6903e	0.32531923
80	0x3d7fbb08	0.062434226
81	0x3dd7f486	0.10544686
82	0x3c33d37e	0.010975717
83	0xbd4647ac	-0.048408195
84	0x3daa49b0	0.08314836
85	0xbdbf21a9	-0.09332592
86	0xbc20a45c	-0.009804811
87	0xbd07fc1d	-0.03319942
88	0x3e047b47	0.12937652
89	0xbda9b8b7	-0.08287185
90	0x3d971920	0.07377839
91	0xbf3735ee	-0.71566665
92	0xbd989d74	-0.07451907
93	0xbd970f0a	-0.07375915
94	0x3dc72ae5	0.09724978
95	0x3d07e3f6	0.033176385
96	0xbdd34602	-0.10316087
97	0x3c50a892	0.012735503
98	0x3d936cec	0.071985096
99	0x3d92a71e	0.07160781
100	0xbf3ad939	-0.72987705
101	0x3c8d222f	0.017228214
102	0x3d1a67eb	0.03769676
103	0xbeae9709	-0.34099606
104	0xbdb6c2f5	-0.08923904
105	0xbe08851f	-0.13332032
106	0xbd67db51	-0.05660564
107	0xbdbccb25	-0.09218434
108	0xbdc15eaf	-0.094418876
109	0xbdf4a303	-0.119451545
110	0x3d88b083	0.06674292
111	0xbf0f6bf3	-0.5602409
112	0x3d459faf	0.04824799
113	0xbd62c79f	-0.055366155
114	0xbc5af2f2	-0.013363587
115	0xbe09f471	-0.13472153
116	0x3d5af481	0.053455833
117	0x3e88ba20	0.26704502
118	0x3e2bc7b1	0.16775395
119	0xbcebd94d	-0.02879014
120	0x3edfc391	0.43703893
121	0xbe3c3311	-0.18378855
122	0xbe1576fa	-0.14596167
123	0xbcace2e8	-0.021104291
124	0x3e02a3fe	0.1275787
125	0xbf3171d6	-0.69314325
126	0xbe8be8fb	-0.27326187
127	0xbebb1e50	-0.36546564
128	0xbecdedb9	-0.4022043
129	0xbec78190	-0.38966036
130	0x3e74d7e6	0.23910484
131	0xbe4df017	-0.20111118
132	0xbda671d6	-0.08127181
133	0xbebcd0a0	-0.36877918
134	0x3b6a8e33	0.0035790324
135	0x3cf26a65	0.029591748
136	0x3d1112f5	0.03541847
137	0x3c81b011	0.015831025
138	0x3cdb51f8	0.026772484
139	0x3aaa9e88	0.0013017217
140	0xbed153f8	-0.40884376
141	0xbe08acde	-0.13347194
142	0x3e30dc35	0.17271502
143	0xbdb0930d	-0.08621798
144	0x3c6f31fb	0.014599319
145	0xbebae5e4	-0.36503518
146	0xbbf5ff5c	-0.007507248
147	0x3d428740	0.047492266
148	0x3e18d9dd	0.14926858
149	0xbe1813ae	-0.14851257
150	0x3d270c97	0.04078349
151	0xbdd172a1	-0.10226942
152	0xbda35f7b	-0.07977196
153	0xbe56d45c	-0.20979446
154	0x3e5c3141	0.21503164
155	0xbe044661	-0.12917472
156	0xbd9234e8	-0.07138997
157	0x3df4ac15	0.119468845
158	0xbeb5fd8f	-0.35545012
159	0xbde00957	-0.109392814
160	0xbf1c349c	-0.61017776
161	0xbe14bcf7	-0.1452521
162	0xbf89fe17	-1.0780667
163	0xbd58e11f	-0.052949067
164	0x3e3e5a9d	0.18589254
165	0xbeaa8307	-0.3330309
166	0xbe0433eb	-0.1291043
167	0x3e329915	0.17441209
168	0xbd378d80	-0.04481268
169	0xbe3deb31	-0.1854675
170	0xbc2388dd	-0.009981361
171	0xbdd95ccb	-0.10613402
172	0xbd859778	-0.06523031
173	0xbd967328	-0.07346183
174	0x3cc08a68	0.023503497
175	0xbd34d39a	-0.04414711
176	0xbe7aa1dd	-0.24475808
177	0x3d967b59	0.073477454
178	0x3ce8a22f	0.028397648
179	0xbdebfefb	-0.11523243
180	0xbd07a18d	-0.03311305
181	0x3da5de92	0.080990925
182	0xbf0327f8	-0.5123286
183	0x3d99dc88	0.07512766
184	0x3daa42bf	0.08313512
185	0x3d39302f	0.045211967
186	0x3da77cc7	0.08178096
187	0xbdd0e49c	-0.10199854
188	0xbfa102b8	-1.2578955
189	0x3d88d437	0.06681102
190	0xbd50b89a	-0.0509573
191	0x3b4420df	0.002992682
192	0x3c90aec3	0.017661458
193	0xbcc31b21	-0.023816647
194	0x3e249250	0.16071439
195	0x3d9c8ffd	0.07644651
196	0xbd19db1d	-0.03756248
197	0xbfa1d87a	-1.2644188
198	0xbf0b7ed6	-0.5449041
199	0xbddfc5d3	-0.10926404
200	0xbc8688c8	-0.016422644
201	0xbd6bfc91	-0.057613913
202	0xbdd9be9c	-0.10632059
203	0xbe105711	-0.14095713
204	0x3c5e6f88	0.013576396
205	0x3b0e0c49	0.0021674803
206	0xbd0ae520	-0.033909917
207	0xbdcb9f96	-0.09942548
208	0x3eb74439	0.35794237
209	0xbddfbfb0	-0.10925233
210	0xbcb912ec	-0.02259203
211	0x3d11fbe9	0.03564063
212	0xbe0eaf5b	-0.1393408
213	0xbefd4e24	-0.4947368
214	0xbe1c8339	-0.15284432
215	0x3e18a01f	0.14904831
216	0xbeccf831	-0.40033105
217	0xbe0cdb6f	-0.13755582
218	0xbd83abd2	-0.064292565
219	0x3e0212ab	0.12702434
220	0xbd80b3ea	-0.06284316
221	0xbd298095	-0.04138239
222	0xbf38799b	-0.72060555
223	0xbe12d53e	-0.14339158
224	0x3e49629c	0.19666523
225	0xbd270fbc	-0.04078649
226	0x3dee05f2	0.11622228
227	0x3c5ba2ba	0.013405496
228	0xbe1fc349	-0.15601839
229	0xbb8a2867	-0.004216242
230	0xbd87c231	-0.06628836
231	0xbedcf390	-0.43154573
232	0xbdaf5153	-0.08560433
233	0x3e8fbc1b	0.280732
234	0xbc1a3d3e	-0.009414015
235	0xbc82c6a5	-0.015963862
236	0xbd533393	-0.051562857
237	0x3d6166e7	0.055029776
238	0x3f01850c	0.5059364
239	0xbddaf6ad	-0.10691581
240	0x3e4e6fa9	0.20159782
241	0xbce1f588	-0.027582899
242	0xbc0d0fad	-0.008609694
243	0xbf36a6f4	-0.713485
244	0x3e83a1e9	0.25709465
245	0xbdb54608	-0.08851248
246	0xbd8de97d	-0.069293
247	0xbd486a82	-0.0489297
248	0x3e19cd71	0.15019776
249	0xbd90dcec	-0.070733875
250	0xbf39d213	-0.7258617
251	0x3e1f4fe8	0.15557826
252	0x3d32deb9	0.043669436
253	0x3d45519c	0.048173532
254	0xbd8e2de0	-0.06942344
255	0xbe6be0e1	-0.23035003

network.3.bias f4 [256]
0	0x3e8777b9	0.2645853
1	0xbee07c0f	-0.4384465
2	0x3ebd22f4	0.3694073
3	0x3e3b5d52	0.18297318
4	0xbd3a6ff1	-0.045516912
5	0xbecf0673	-0.40434608
6	0xbf6c7e88	-0.9238057
7	0xbd90ea7e	-0.07075976
8	0xbe8412bc	-0.25795543
9	0xbeb3b00b	-0.35095248
10	0xbe099ce5	-0.13438757
11	0x3e8fa769	0.2805741
12	0xbe9a46f7	-0.30132267
13	0x3de30018	0.11084002
14	0xbdbd2c46	-0.0923696
15	0xbe396b97	-0.18107449
16	0x3eaf4eb8	0.34239745
17	0xbe8d64ca	-0.27615958
18	0xbdb63907	-0.08897596
19	0x3ec93605	0.39299026
20	0x3c604321	0.01368788
21	0x3c033408	0.008008011
22	0xbe171a2c	-0.14756078
23	0xbe48d011	-0.19610621
24	0x3ceff85b	0.02929323
25	0xbf16665d	-0.58749944
26	0x3e05beec	0.13061112
27	0x3e01b1ce	0.12665483
28	0xbe399c9b	-0.18126146
29	0xbee33ed9	-0.44383886
30	0x3ee65420	0.44986057
31	0xbd9a7c8b	-0.07543286
32	0xbd619ea6	-0.05508294
33	0x3eb3779c	0.35052192
34	0xbf006d63	-0.5016691
35	0xbeccc03c	-0.39990413
36	0xbf58325a	-0.8445183
37	0x3d7979fb	0.060907345
38	0x3e086b0c	0.13322085
39	0xbb5df667	-0.003386879
40	0xbef266f2	-0.47344166
41	0xbfb3c7b8	-1.4045324
42	0xbdf34485	-0.118783034
43	0x3e4584d0	0.19288945
44	0x3d78bcd6	0.060726963
45	0x3e78f5f6	0.24312577
46	0xbeb4838a	-0.35256606
47	0xbe833ea4	-0.25633729
48	0x3e2be50d	0.16786595
49	0xbe85037a	-0.25979215
50	0x3e49b1bc	0.19696707
51	0x3e6b703c	0.22992033
52	0xbf3e60cc	-0.7436645
53	0x3daffa4e	0.08592664
54	0xbef1da67	-0.4723694
55	0xbe41a7c0	-0.18911648
56	0xbf2ab876	-0.66687715
57	0x3eb8bf0c	0.36083257
58	0xbea10ab9	-0.31453493
59	0xbbc5c444	-0.0060353596
60	0xbeb2d98b	-0.34931597
61	0xbe8fdba3	-0.28097257
62	0x3dd711ee	0.10501467
63	0xbf4cff50	-0.80077076
64	0xbec58428	-0.3857739
65	0xbeb2c1c6	-0.34913462
66	0xbf081ffa	-0.5317379
67	0xbcbc6fc8	-0.02300252
68	0x3bd60de4	0.0065324176
69	0xbf59a02b	-0.8501002
70	0x3da44e5f	0.080227606
71	0x3ed38bac	0.413175
72	0xbf03a3e8	-0.51421976
73	0xbe66f57b	-0.22554581
74	0x3e95bbb2	0.29244763
75	0x3d949367	0.07254677
76	0x3e0ffdc9	0.14061655
77	0xbf2f475c	-0.6846826
78	0xbef975c1	-0.48722652
79	0xbe255b29	-0.16148056
80	0xbeba1908	-0.36347222
81	0x3e008350	0.12550092
82	0xbcee025c	-0.02905386
83	0xbce03146	-0.027367245
84	0x3dff2ba5	0.124594964
85	0xbddcb942	-0.107775226
86	0xbe1db12a	-0.15399614
87	0xbf0bd622	-0.54623616
88	0xbf4337e4	-0.7625716
89	0xbed3ead1	-0.41390088
90	0xbdcf8228	-0.10132247
91	0xbee1fca1	-0.44138053
92	0x3cce7dbd	0.025206441
93	0x3f044955	0.51674396
94	0xbcbae356	-0.02281348
95	0xbe2a7d37	-0.16649328
96	0x3e6d32dd	0.23163934
97	0x3e333100	0.17499161
98	0xbea43a2d	-0.32075635
99	0xbf9b5999	-1.2136718
100	0x3daa9cfb	0.08330723
101	0x3e3facac	0.18718213
102	0x3ec00756	0.37505597
103	0x3e2c768b	0.16842096
104	0x3dff8e2e	0.124782905
105	0xbe078811	-0.13235499
106	0xbea06df6	-0.31333894
107	0x3e3e8830	0.18606639
108	0xbe5daec0	-0.21648693
109	0xbe8ad056	-0.27112073
110	0xbf3d4f9c	-0.739496
111	0xbe050e9d	-0.12993856
112	0xbdcba1e3	-0.09942987
113	0x3e4af099	0.19818343
114	0x3decce73	0.115628146
115	0xbe33180a	-0.17489639
116	0xbf4275ca	-0.7596098
117	0x3e0c4201	0.13697053
118	0x3e48ef27	0.1962248
119	0x3e39d79e	0.18148658
120	0xbeeaa64f	-0.45830008
121	0xbe4a676f	-0.1976602
122	0xbe8c411e	-0.2739343
123	0xbf196f04	-0.5993502
124	0xbdcb46ad	-0.0992559
125	0xbe2c2d27	-0.16814099
126	0xbe590b0c	-0.2119562
127	0x3dfe9ea4	0.12432602
128	0xbbc8aedb	-0.00612436
129	0x3e957414	0.29190123
130	0x3ebf9de5	0.3742515
131	0xbea1f750	-0.31633997
132	0x3e68b665	0.22725828
133	0x3e89f4ad	0.26944485
134	0xbcd5f011	-0.02611545
135	0xbe747cda	-0.23875752
136	0xbe7eadb0	-0.24870944
137	0xbe86b1f4	-0.26307642
138	0x3dfedee2	0.12444855
139	0x3cce2433	0.025163746
140	0x3e00d424	0.12580925
141	0xbe6815f3	-0.22664623
142	0x3e902dc0	0.28159904
143	0xbe50a1c2	-0.20374206
144	0xbe09f645	-0.1347285
145	0xbdaf290b	-0.0855275
146	0x3ee9f565	0.45695034
147	0x3e1749c5	0.14774235
148	0xbe4ecd03	-0.20195393
149	0xbf43d7cc	-0.76501155
150	0x3e830fd0	0.25598
151	0x3cb2e838	0.021839246
152	0xbd9c3332	-0.07626952
153	0xbed5aeb8	-0.41734862
154	0xbeb40492	-0.35159737
155	0xbd57bc3f	-0.05266976
156	0xbe3f8f13	-0.18706922
157	0x3e6b0ea1	0.22954799
158	0x3b08505f	0.0020799858
159	0xbe8b9422	-0.27261454
160	0xbed95c5c	-0.42453277
161	0xbcbba771	-0.02290699
162	0xbe86c443	-0.2632161
163	0xbe197d0c	-0.14989108
164	0xbe8d2d38	-0.27573562
165	0xbe15c5ff	-0.14626311
166	0x3ea4ce0c	0.3218845
167	0x3ce66a45	0.028126845
168	0xbc716502	-0.014733555
169	0xbe119997	-0.14218746
170	0xbe831123	-0.25599012
171	0xbe7ea039	-0.24865808
172	0x3ec931ae	0.39295715
173	0xbe61a1a8	-0.22034323
174	0xbacdcdc7	-0.0015701585
175	0x3d3983de	0.045291774
176	0x3de5291d	0.11189482
177	0xbd32342f	-0.043506797
178	0xbf04df18	-0.51902914
179	0xbe9da448	-0.307894
180	0xbe281809	-0.16415419
181	0x3e2c78ff	0.16843031
182	0xbe443603	-0.19161229
183	0xbdd86380	-0.10565853
184	0xbe03eb6d	-0.12882777
185	0xbeb7590d	-0.35810128
186	0xbeccde89	-0.4001353
187	0xbe9d5f5d	-0.3073682
188	0x3d70fa09	0.058832202
189	0x3df73ebc	0.120725125
190	0x3d7dc39a	0.06195412
191	0xbe5370c0	-0.2064848
192	0xbd4fb184	-0.0507064
193	0xbebe1f55	-0.3713328
194	0x3e1abc35	0.15110858
195	0xbc7eea23	-0.015558752
196	0x3e08bc12	0.13352993
197	0xbe75ce14	-0.24004394
198	0xbed80a86	-0.4219553
199	0xbef49582	-0.47770315
200	0x3e717874	0.23581105
201	0xbd99c66d	-0.0750855
202	0xbed4d8c6	-0.41571635
203	0x3d60c112	0.054871626
204	0xbde50287	-0.11182123
205	0xbd08ce97	-0.033400144
206	0xbf38d2a6	-0.72196424
207	0xbe184bbd	-0.14872642
208	0xbedaa248	-0.42701936
209	0x3eaed67e	0.3414802
210	0xbe0400a1	-0.12890865
211	0x3d962ac8	0.073323786
212	0x3e2ed841	0.17074682
213	0x3e4bd5c3	0.19905762
214	0xbe2659a4	-0.16245133
215	0xbf24b461	-0.64337736
216	0xbd9493c8	-0.072547495
217	0xbdfb0f62	-0.122587934
218	0x3debb8ee	0.11509882
219	0xbe7ae4ea	-0.24501386
220	0xbe7a0699	-0.2441658
221	0xbe7e3590	-0.2482512
222	0xbf12a3f1	-0.57281405
223	0x3d8e0ddb	0.069362365
224	0xbfabe3e5	-1.3428923
225	0xbf1f7aeb	-0.6229693
226	0xbde5f53f	-0.112284176
227	0xbe0163a7	-0.1263567
228	0x3e595935	0.21225436
229	0xbe28f717	-0.16500507
230	0xbec20138	-0.37891555
231	0xbd926beb	-0.0714949
232	0x3e3f8043	0.18701272
233	0x3ebc714b	0.36805186
234	0xbf268138	-0.6504092
235	0xbb670567	-0.0035251023
236	0x3dd23e28	0.102657616
237	0x3cde822e	0.027161684
238	0xbe6c3fd4	-0.23071223
239	0x3da44a0e	0.08021937
240	0xbcb41ba4	-0.021985836
241	0x3ed75068	0.42053533
242	0x3e3b08d0	0.1826508
243	0x3ca89ce1	0.020582618
244	0x3e3e740c	0.18598956
245	0x3e48fecb	0.19628446
246	0xbe425b5b	-0.18980162
247	0x3d2816b0	0.04103726
248	0xbcdd341c	-0.027002387
249	0xbf688348	-0.9082532
250	0x3ea9b9e3	0.33149633
251	0x3e05f743	0.13082604
252	0xbd39ddf6	-0.045377694
253	0xbed1ce69	-0.4097779
254	0xbed7abb0	-0.42123175
255	0x3d81a55c	0.06330368

network.6.weight f4 [256, 256]
0	0xbf216109	-0.6303869
1	0xbf0be474	-0.54645467
2	0xbf05a204	-0.5220034
3	0xbf574e4a	-0.84103835
4	0xbd2cc98e	-0.042184405
5	0xbe998d46	-0.29990596
6	0xbea7d7f8	-0.3278196
7	0xbde634fe	-0.11240576
8	0xbe8e75e9	-0.27824333
9	0x3ecfc868	0.40582585
10	0xbec029cc	-0.37531888
11	0xbd955258	-0.072910964
12	0x3edf9a5b	0.4367245
13	0xbeeb00c9	-0.45899037
14	0x3e0e6abc	0.13907903
15	0x3dcaf856	0.099106476
16	0xbf4228ea	-0.7584368
17	0xbe310e1e	-0.17290542
18	0xbda9328d	-0.08261595
19	0xbed305b0	-0.41215277
20	0xbeb13903	-0.3461381
21	0xbf98b48e	-1.1930101
22	0xbeec7247	-0.46180937
23	0x3de95916	0.11393945
24	0xbee66dd8	-0.4500568
25	0xbe54d29d	-0.20783468
26	0xbdecb988	-0.11558825
27	0x3e0a1cdb	0.1348757
28	0xbf0007f9	-0.50012165
29	0xbe7151e5	-0.23566397
30	0xbda1edf7	-0.07906716
31	0xbe2e0d4b	-0.16997258
32	0xbf31e83c	-0.69494987
33	0xbf0e1227	-0.5549645
34	0xbea7b36e	-0.3275408
35	0xbebe00bd	-0.37109938
36	0x3ec3d01a	0.38244706
37	0xbeac5b89	-0.33663586
38	0x3d026445	0.031833906
39	0x3e93da2f	0.28877398
40	0xbf1f9a4b	-0.6234481
41	0xbd1e4fed	-0.038650442
42	0xbea6b9c0	-0.3256359
43	0xbeaf86ad	-0.34282437
44	0xbe8b8465	-0.27249447
45	0xbe9d3b4c	-0.30709302
46	0x3d854194	0.06506649
47	0xbeaa5a33	-0.33271942
48	0xbec670a3	-0.3875781
49	0xbe18dff4	-0.14929181
50	0xbe99947e	-0.29996103
51	0xbd52ebcf	-0.051494416
52	0xbf0c8b27	-0.5489983
53	0xbeb62247	-0.35573027
54	0xbed1cc35	-0.4097611
55	0xbddef90e	-0.10887347
56	0x3ec75c29	0.389375
57	0xbf5f6b8a	-0.87273467
58	0xbda5c2ce	-0.08093797
59	0x3d121dd0	0.035672963
60	0xbf61cf2d	-0.8820675
61	0xbd9379aa	-0.0720094
62	0xbe7d5cbc	-0.24742407
63	0x3e9f7b65	0.3114883
64	0xbe15ae8d	-0.14617367
65	0xbf347e07	-0.705048
66	0xbebd2f81	-0.36950305
67	0xbec06f4b	-0.3758491
68	0xbd8a06a7	-0.0673955
69	0x3e858f72	0.26086003
70	0xbe63ee49	-0.22258867
71	0xbe18091c	-0.14847225
72	0x3e316711	0.17324473
73	0xbe9aa8e9	-0.30206993
74	0xbeeaf9d5	-0.45893732
75	0xbe8eaf01	-0.27867892
76	0xbf15ddd8	-0.5854163
77	0xbd434c51	-0.047680203
78	0xbe846026	-0.25854605
79	0xbe959e91	-0.2922254
80	0x3d10cd3b	0.035351973
81	0xbf08013b	-0.5312688
82	0xbd3096c6	-0.04311254
83	0xbee31652	-0.44352967
84	0xbd50fb6c	-0.051021025
85	0xbeaf5cf6	-0.3425061
86	0xbde837ce	-0.11338769
87	0xbeb410cd	-0.35169068
88	0x3d9ceca3	0.07662322
89	0xbd805c46	-0.062676
90	0xbedc424f	-0.4301934
91	0xbf20054d	-0.6250809
92	0xbe9cad4f	-0.30600974
93	0xbde2bc26	-0.11071043
94	0x3eb82953	0.35969028
95	0xbf07c6a9	-0.53037506
96	0x3c73beb1	0.014877007
97	0xbe8a3159	-0.26990774
98	0x3dd2dbb7	0.102958135
99	0x3e7a19ef	0.24423955
100	0x3f07336c	0.5281284
101	0x3e3008d0	0.17190862
102	0xbf1d156c	-0.6136081
103	0x3e15afdd	0.14617868
104	0xbc45f030	-0.012081191
105	0xbf121c33	-0.5707428
106	0x3e0a33be	0.134963
107	0x3e809c1b	0.251191
108	0x3d29a9cd	0.0414217
109	0xbd6fdf57	-0.058562603
110	0xbdc68ffc	-0.096954316
111	0xbf74a98f	-0.95571226
112	0xbca94afe	-0.020665642
113	0xbf131e48	-0.5746808
114	0xbeaa9074	-0.33313334
115	0xbf056887	-0.5211262
116	0xbb9c80b8	-0.0047760867
117	0x3db4236d	0.087958194
118	0xbecf838b	-0.40530047
119	0x3d4ed2c8	0.050493985
120	0x3d095fcd	0.03353863
121	0xbf05d964	-0.52284837
122	0xbda98e57	-0.08279102
123	0x3e6445d4	0.22292262
124	0xbed8344f	-0.42227408
125	0x3e0b2a69	0.13590397
126	0xbe8c386d	-0.273868
127	0xbeef5291	-0.4674268
128	0xbe326911	-0.17422892
129	0xbe5feca0	-0.21867609
130	0xbedde873	-0.43341407
131	0x3de54f8b	0.11196812
132	0xbe6ded21	-0.23234989
133	0xbf204574	-0.6260598
134	0xbe5e0bc6	-0.21684179
135	0xbf407e6e	-0.75192916
136	0xbde8976f	-0.11357009
137	0xbe3733bb	-0.17890827
138	0xbe591df2	-0.2120283
139	0xbe11aaa5	-0.14225252
140	0xbf98dd3b	-1.1942514
141	0x3e974731	0.29546502
142	0xbe6430d1	-0.22284247
143	0xbef6781c	-0.4813851
144	0xbe5ec0d1	-0.21753241
145	0xbe451cd6	-0.19249281
146	0x3e8289d8	0.2549579
147	0xbe0b791c	-0.13620418
148	0xbdcdb641	-0.10044528
149	0xbe0de62f	-0.1385734
150	0xbef4b60d	-0.47795144
151	0xbdc27e88	-0.0949679
152	0xbef6ae44	-0.4817983
153	0xbdc09b2d	-0.094045974
154	0x3cd098b5	0.025463441
155	0x3c89581e	0.01676565
156	0xbe2a945d	-0.16658159
157	0xbdc46ccf	-0.09591066
158	0xbec6bc7b	-0.38815674
159	0xbcccc602	-0.024996761
160	0xbf0aacef	-0.54170126
161	0x3daf8cd3	0.08571782
162	0xbf2a0438	-0.6641269
163	0x3cfd36f6	0.030909996
164	0xbf3f8852	-0.74817383
165	0xbeb934a6	-0.3617298
166	0xbebecebf	-0.3726711
167	0xbeac23a3	-0.3362094
168	0x3e15977c	0.14608568
169	0xbe5ab8e2	-0.2135959
170	0xbed19fdf	-0.40942284
171	0x3e9d1550	0.30680323
172	0xbf42cea8	-0.7609658
173	0xbe12e8a6	-0.14346561
174	0xbe112fac	-0.14178342
175	0xbb693410	-0.003558401
176	0xbe40e283	-0.18836407
177	0xbd18fb4a	-0.037349023
178	0x3e8163b6	0.25271386
179	0xbf11a2ff	-0.5688934
180	0x3dbf1595	0.09330288
181	0xbf1e66b2	-0.6187545
182	0xbf19e36e	-0.60112655
183	0xbf0c62a1	-0.54837996
184	0x3e2062e2	0.15662721
185	0xbe937105	-0.28797165
186	0x3d8ab72f	0.06773221
187	0xbe85d357	-0.26137802
188	0xbf059e27	-0.52194446
189	0x3d3985a4	0.045293465
190	0xbe789d5a	-0.24278775
191	0xbf106138	-0.56398344
192	0xbf34a39b	-0.7056214
193	0xbe95fc5c	-0.29294097
194	0xbef2b1f6	-0.47401398
195	0xbf50bc81	-0.81537634
196	0xbf568e95	-0.8381131
197	0xbd6253fe	-0.055255882
198	0x3d68d4f3	0.05684371
199	0xbe258422	-0.16163686
200	0xbecb6e8b	-0.39732775
201	0xbe883cbc	-0.26608837
202	0x3e2912f1	0.16511132
203	0xbf25ae38	-0.6471896
204	0xbe0a7fed	-0.13525362
205	0x3e486142	0.19568351
206	0xbba0fa5c	-0.0049126577
207	0x3e136571	0.14394166
208	0x3de9efb9	0.114226766
209	0xbe89c4f3	-0.26908073
210	0xbf11efe2	-0.5700666
211	0xbcc040d2	-0.023468409
212	0xbe83ad59	-0.2571819
213	0xbf0d5f57	-0.552236
214	0x3e90f750	0.28313684
215	0x3e956f2b	0.29186377
216	0xbee6cad3	-0.45076618
217	0xbe4afc41	-0.1982279
218	0xbf29b27e	-0.6628798
219	0x3dfc5b3f	0.12322091
220	0xbe565a35	-0.20932849
221	0x3dd3c87f	0.10340976
222	0x3c2ebf78	0.010665767
223	0x3d3ca983	0.046060096
224	0xbe65bff6	-0.22436509
225	0xbf3b08e9	-0.7306047
226	0xbf04ff49	-0.51952034
227	0xbe0c2eb9	-0.13689698
228	0xbe015ee5	-0.12633856
229	0x3c3d6327	0.011559284
230	0xbd58bb25	-0.05291285
231	0xbe6b46cd	-0.22976227
232	0xbe7f2713	-0.2491725
233	0xbecb0422	-0.3965159
234	0xbd6e7bb3	-0.058223438
235	0x3c8fa1c3	0.017533189
236	0xbe1d4f5d	-0.15362306
237	0xbdfe8908	-0.124284804
238	0xbe2e58b0	-0.17026019
239	0xbd0f70a3	-0.035019528
240	0x3ebf11b4	0.37318194
241	0xbddebf67	-0.10876351
242	0xbea601e9	-0.32423332
243	0x3dfe8308	0.12427336
244	0xbebdeb00	-0.37093353
245	0xbf123fc4	-0.5712855
246	0xbe8ae73b	-0.2712954
247	0xbd97b8f1	-0.07408322
248	0xbcea2ff6	-0.028587323
249	0x3f005868	0.501349
250	0xbeaa1b79	-0.33224085
251	0xbec2a824	-0.38018906
252	0x3d4400de	0.04785239
253	0xbd409cb4	-0.047024444
254	0xbda0e45f	-0.07856058
255	0x3cd9cadc	0.026585989

network.6.bias f4 [256]
0	0x3e75f28a	0.24018303
1	0xbd78e7ca	-0.060767926
2	0x3e6e2f00	0.23260117
3	0xbe1fbe4f	-0.1559994
4	0xbc7d1044	-0.015445773
5	0xbef3ddb6	-0.4763009
6	0x3f472cb3	0.7780258
7	0xbbb71d54	-0.005588213
8	0x3eacf3a3	0.3377963
9	0x3eb082ab	0.34474692
10	0xbe2de9f3	-0.16983776
11	0xbbd6c1a8	-0.0065538473
12	0xbeaacc90	-0.33359194
13	0xbe5c0b09	-0.21488585
14	0x3eae27b6	0.34014672
15	0x3ed6af60	0.41930676
16	0xbe45241a	-0.19252053
17	0xbe98810d	-0.29785958
18	0xbe774c4d	-0.241502
19	0xbca00177	-0.019531948
20	0xbe92b753	-0.2865549
21	0xbdce0f17	-0.10061472
22	0xbd86fa5f	-0.06590723
23	0x3eae0d01	0.33994296
24	0xbdf69dbc	-0.12041804
25	0xbdbb67fe	-0.09150694
26	0x3eb65b12	0.35616356
27	0xbdb17ef1	-0.0866679
28	0xbe4f9f28	-0.20275557
29	0xbe501415	-0.2032016
30	0x3ecd468f	0.40092894
31	0x3f232ea0	0.6374302
32	0xbdad0165	-0.084475316
33	0x3e774c40	0.24150181
34	0x3e7921c7	0.24329291
35	0x3f04d93a	0.5189396
36	0xbe5ef3c6	-0.2177268
37	0xbe80b1ab	-0.2513555
38	0x3f082a9f	0.53190035
39	0x3d00e036	0.031463824
40	0x3d75479d	0.05988275
41	0x3ef1cec9	0.47228077
42	0xbd464994	-0.048410013
43	0x3e945f69	0.28979042
44	0x3f121ffd	0.5708006
45	0xbe83bc73	-0.25729713
46	0xbf04eacf	-0.5192079
47	0x3e60ed3f	0.21965502
48	0x3f1e4539	0.61824375
49	0xbe043725	-0.12911661
50	0x3f15ba8c	0.5848777
51	0x3f00ab5d	0.5026148
52	0x3bc3f83c	0.0059805196
53	0x3d07d5bb	0.033162814
54	0x3ed4c17f	0.41553876
55	0xbd1576ab	-0.036490124
56	0xbeefc0e5	-0.46826854
57	0x3ee61fe4	0.44946206
58	0xbe14cbea	-0.14530912
59	0x3beeb501	0.007284761
60	0x3e8f371f	0.27971742
61	0x3ef8ff5a	0.48632318
62	0xbc94b228	-0.018151358
63	0xbeec8d23	-0.4620143
64	0x3f175f01	0.5912934
65	0x3ecbdd18	0.3981712
66	0x3eee9269	0.46596077
67	0x3eb4202c	0.35180795
68	0xbe41ba92	-0.18918827
69	0xbe41e668	-0.1893555
70	0x3c47978c	0.012182128
71	0x3d87ec37	0.06636851
72	0x3e5164b4	0.20448571
73	0xbe22cb0a	-0.15897766
74	0xbea7a876	-0.32745713
75	0xbe238dd9	-0.1597208
76	0x3e126d8f	0.14299606
77	0x3ed0c8d5	0.40778223
78	0xbf4cb55e	-0.79964244
79	0x3f3cbbe5	0.73724204
80	0xbe2319d5	-0.15927823
81	0x3e3f01b6	0.18652996
82	0xbddaaaca	-0.10677107
83	0xbe6f445c	-0.23365921
84	0xbe67dfbc	-0.22643942
85	0x3c780082	0.01513684
86	0xbe4db543	-0.20088677
87	0x3e3e694d	0.18594857
88	0x3e8f7b87	0.2802393
89	0x3eaf2e30	0.34214926
90	0x3d440ab2	0.047861762
91	0xbdbb77f6	-0.0915374
92	0xbdc68be8	-0.09694654
93	0x3e84c2fb	0.25930008
94	0xbecd2983	-0.40070733
95	0xbdefeabc	-0.11714694
96	0x3eb27bd6	0.34860104
97	0xbdb52514	-0.08844963
98	0xbe219b84	-0.15781981
99	0xbdf5f765	-0.120100774
100	0xbd46c6cc	-0.04852943
101	0xbe97f341	-0.29677776
102	0x3ea4f902	0.32221228
103	0x3ce99c3e	0.028516885
104	0x3e6f1417	0.23347507
105	0xbe022f21	-0.12713291
106	0xbdcc76f4	-0.09983626
107	0x3ebae899	0.36505583
108	0x3d9dae2a	0.07699235
109	0x3ea72a28	0.3264935
110	0xbdba42bd	-0.090947606
111	0xbdc8edd4	-0.09810987
112	0xbe1b8207	-0.1518632
113	0x3dcead78	0.1009168
114	0x3ecdf4a0	0.40225697
115	0x3ea0178e	0.3126797
116	0xbe4713c8	-0.1944114
117	0xbe21f237	-0.15815054
118	0xbe9fdb05	-0.31221786
119	0x3ccf7591	0.025324615
120	0xbe8d7d02	-0.27634436
121	0x3ea45529	0.32096222
122	0x3e85944b	0.260897
123	0x3e5adfd6	0.21374449
124	0xbce39123	-0.027779168
125	0x3e8e419d	0.27784434
126	0xbd7d395c	-0.06182228
127	0xbe1fb29a	-0.15595475
128	0xbe611a6b	-0.21982734
129	0x3cf619cc	0.030041598
130	0x3e9206bf	0.28520772
131	0x3ebe7763	0.3720046
132	0xbd5a101c	-0.05323802
133	0xbdf2fcf5	-0.11864654
134	0x3dfe36fc	0.12412831
135	0xbee7ae79	-0.452503
136	0xbe11a7fa	-0.14224234
137	0xbdf4073d	-0.11915443
138	0xbe926124	-0.28589737
139	0x3f0bb447	0.54571956
140	0xbe076368	-0.13221514
141	0xbe017c86	-0.12645158
142	0xbea5beea	-0.32372218
143	0xbbbdf45b	-0.0057969517
144	0x3e48f926	0.19626293
145	0x3ea0ba45	0.31392112
146	0x3e9c667d	0.30546942
147	0x3ea736d8	0.3265903
148	0x3df73856	0.12071292
149	0x3e0dc7dc	0.13845772
150	0xbd0a5bf3	-0.033779096
151	0x3e710af5	0.23539336
152	0x3eb3af97	0.35094902
153	0xbe3a5a4d	-0.1819851
154	0xbd8b55d8	-0.06803483
155	0x3ee4561d	0.4459695
156	0x3ebcfd12	0.36911827
157	0xbd721ccf	-0.059109505
158	0xbec19903	-0.3781205
159	0x3e10b5db	0.14131872
160	0x3e1e2859	0.15445079
161	0xbdcaad26	-0.09896307
162	0xbe25b54d	-0.16182442
163	0xbe733adb	-0.2375292
164	0x3ec5d64b	0.38640055
165	0x3ed8031b	0.4218987
166	0x3d612351	0.05496532
167	0xbeaf1674	-0.34196818
168	0x3d734949	0.059396062
169	0xbe2de4d3	-0.16981821
170	0xbe0be75a	-0.13662472
171	0x3eee17af	0.46502444
172	0xbb50b43f	-0.0031845716
173	0x3e9f5afb	0.311241
174	0xbe912081	-0.2834511
175	0x3ea28aeb	0.3174661
176	0xbe12b218	-0.1432575
177	0x3e6cc953	0.23123674
178	0xbe8cd77b	-0.2750815
179	0xbe0c557a	-0.13704482
180	0x3ce95537	0.028483016
181	0x3d492c45	0.049114484
182	0x3f3075cb	0.6892974
183	0x3f3ee3a7	0.7456612
184	0xbeb2bcff	-0.34909818
185	0x3eb5e793	0.3552824
186	0x3e984e96	0.29747456
187	0x3eb2c7cd	0.3491806
188	0xbe9045d3	-0.28178272
189	0xbe7c0e98	-0.24614942
190	0xbd45f78b	-0.04833178
191	0x3e4c74e4	0.19966465
192	0xbd832d42	-0.064051166
193	0x3ef35c7d	0.475315
194	0xbeaf9788	-0.34295297
195	0xbd889df4	-0.06670752
196	0x3ecfd4c1	0.40592006
197	0xbd11d133	-0.0355999
198	0x3e9f2167	0.3108017
199	0x3cd0b267	0.025475694
200	0xbf06994a	-0.5257765
201	0x3ef62afb	0.48079666
202	0xbda4fceb	-0.08056053
203	0xbce0f873	-0.02746222
204	0x3e6b10f6	0.22955689
205	0x3ded109d	0.11575434
206	0xbe01c8c3	-0.12674241
207	0xbe234d08	-0.15947354
208	0xbe08923b	-0.13337032
209	0xbded196f	-0.11577117
210	0xbe8ff722	-0.28118235
211	0x3dbfb760	0.09361148
212	0x3e9748bc	0.2954768
213	0xbe375920	-0.17905092
214	0x3df07592	0.11741175
215	0x3e8c5fcf	0.27416846
216	0xbe52e0af	-0.20593522
217	0xbe3032d0	-0.17206883
218	0xbe1ddbd4	-0.15415889
219	0xbd89a4f5	-0.06720916
220	0xbe7a0afa	-0.2441825
221	0xbb5ca502	-0.0033667688
222	0x3e9344c7	0.2876341
223	0xbe35e7ab	-0.17764156
224	0x3ecb64dc	0.39725387
225	0x3ee80c7b	0.45322022
226	0x3e9bb997	0.3041503
227	0xbd6143c9	-0.054996286
228	0x3cb64d53	0.022253668
229	0xbe9136e9	-0.28362206
230	0x3e770c9a	0.24125901
231	0xbec21581	-0.3790703
232	0x3eb54034	0.35400546
233	0x3e7e89c1	0.24857236
234	0x3e923c58	0.28561664
235	0xbd5dc3d5	-0.054141838
236	0x3e9a263f	0.30107304
237	0xbe25c396	-0.16187891
238	0x3f0aab49	0.5416761
239	0x3d852233	0.065006636
240	0x3e919474	0.28433573
241	0xbea0a284	-0.3137399
242	0x3ed7be84	0.4213754
243	0x3e079cf0	0.1324346
244	0x3d9e7e54	0.07738939
245	0x3f00c7b3	0.50304717
246	0xbe1ea6c2	-0.154933
247	0xbf0f9b97	-0.56096786
248	0x3e4b9905	0.19882591
249	0xbdda2028	-0.106506646
250	0xbead5f44	-0.33861744
251	0xbe21eb17	-0.15812336
252	0x3eefb232	0.4681564
253	0xbe01de4e	-0.12682459
254	0x3da4df2c	0.08050379
255	0xbd00ec71	-0.031475488

network.9.weight f4 [1, 256]
0	0xbd578a77	-0.052622285
1	0x3af4dca9	0.0018681485
2	0xbd6c9b08	-0.057765037
3	0xbb9bc05e	-0.0047531566
4	0xbdcb91fa	-0.09939952
5	0xbdbb07f3	-0.091323756
6	0x3d74f0cd	0.059799958
7	0xbd0f599e	-0.034997575
8	0xbd686b83	-0.056743156
9	0xbd6d049a	-0.057865717
10	0xbd826392	-0.06366648
11	0xbcf1fffa	-0.029541004
12	0xbaa98179	-0.0012932263
13	0xbb9deff5	-0.004819865
14	0xbde200af	-0.11035287
15	0xbe6b0791	-0.22952105
16	0xb9f923ef	-0.00047519754
17	0xbd9b3eb7	-0.07580321
18	0xbcee0206	-0.0290537
19	0xbd47ab8e	-0.04874759
20	0xbbd4c173	-0.0064927875
21	0xbacac71d	-0.0015470717
22	0x3e04986b	0.12948768
23	0xbdf4a9fc	-0.119464844
24	0xbca59b36	-0.020215612
25	0xbce0b435	-0.02742968
26	0xb7dbaec2	-2.6188212e-05
27	0xbc165949	-0.009176561
28	0x3c380657	0.01123198
29	0xbacc777f	-0.0015599577
30	0x3e1dae62	0.15398553
31	0xbda8a61d	-0.082348086
32	0xbd42aee3	-0.047530066
33	0xbd88ed9c	-0.066859454
34	0x3c9e8d2c	0.019354425
35	0x3ddec413	0.10877242
36	0x3bc8054f	0.0061041485
37	0xba92cc51	-0.0011199807
38	0xbeac38bb	-0.33637032
39	0xbe7ca163	-0.24670939
40	0xbdf04d58	-0.11733502
41	0xbe4f3d1a	-0.20238152
42	0xbb02523e	-0.0019885446
43	0xbd36d0d7	-0.04463276
44	0x3e742d1b	0.23845331
45	0x3b88cf33	0.0041750907
46	0xbdd57ac0	-0.10423803
47	0xbd8253f0	-0.06363666
48	0x3d8bf216	0.068332836
49	0xbda7ce22	-0.081936136
50	0xbdad408b	-0.08459576
51	0xbdcd9c2e	-0.100395545
52	0x3d6c62c8	0.057711393
53	0x3d8b36d9	0.06797571
54	0x3cbc01ca	0.022950072
55	0xbdab2c7e	-0.083580956
56	0x3c2b6424	0.010460887
57	0xbdc0c609	-0.09412772
58	0x3bbc8c90	0.005754061
59	0xbe211f5c	-0.15734619
60	0xbcd81452	-0.026376877
61	0xbc6d9643	-0.014501157
62	0xbd9195d9	-0.07108659
63	0xbd45013a	-0.048096873
64	0xbd7aa245	-0.06118991
65	0xbd4e15cf	-0.050313767
66	0xbcbaf1b6	-0.022820335
67	0xbd8967e4	-0.06709269
68	0xbd97a5ed	-0.07404695
69	0xbc21cd86	-0.009875661
70	0xbd933181	-0.071871765
71	0xbd83853e	-0.06421898
72	0x3b38b27e	0.0028182562
73	0xbc211e6e	-0.009833915
74	0xbd4fbc1c	-0.050716504
75	0x3d8d4fdf	0.069
76	0xbc79a145	-0.015236204
77	0x3e4f5108	0.20245755
78	0x3ca8e2c8	0.02061595
79	0xbd789f94	-0.06069906
80	0xbd218b1c	-0.039439306
81	0xbe582b5c	-0.2111029
82	0xbb7f5964	-0.0038963193
83	0xbe51d12f	-0.20489953
84	0x3d804cdc	0.0626466
85	0xbd9923c6	-0.07477526
86	0xbddd9e3a	-0.10821195
87	0x3d9f053b	0.077646695
88	0xbe0db6e0	-0.13839293
89	0xbd8d743b	-0.06906935
90	0xbdf71ed3	-0.12066426
91	0xbbc96460	-0.006145999
92	0xbca09938	-0.01960431
93	0x3dc5cc5d	0.0965812
94	0xbbc4eadd	-0.006009443
95	0x3c8e09f2	0.017338727
96	0x3d4dcfc7	0.05024698
97	0x3b812e77	0.0039423066
98	0xbd513497	-0.051075544
99	0x3d1c0fc5	0.038100976
100	0xbdecf723	-0.11570575
101	0x3b2c734c	0.002631384
102	0x3d068e1d	0.032850374
103	0xbd4cebbc	-0.0500295
104	0xbbd66667	-0.006542969
105	0xbd1c8b63	-0.038218867
106	0xbbfae4d0	-0.007656671
107	0x3e308211	0.17237116
108	0xbe67cd15	-0.22636826
109	0xbc01a1fc	-0.007912155
110	0xbd34cc87	-0.044140365
111	0x3aac172d	0.0013129466
112	0xbb603598	-0.0034211632
113	0x3d307faf	0.04309052
114	0xbdf7054f	-0.120615594
115	0xbdba397b	-0.09092995
116	0x3baa8d62	0.0052048424
117	0x3ba52324	0.0050395895
118	0xbd155805	-0.036460895
119	0xbc1c50df	-0.009540766
120	0x3e4d84db	0.20070212
121	0x3d37089c	0.044685945
122	0x3daba417	0.08380907
123	0xbe0dfaeb	-0.13865249
124	0xbc3719f1	-0.0111756185
125	0xbd0d180d	-0.034446765
126	0xbd33141b	-0.043720346
127	0x3bc92957	0.0061389613
128	0xbda12625	-0.078686036
129	0xbcec710b	-0.028862497
130	0x3dfb3403	0.1226578
131	0x3bb0d1c2	0.005396099
132	0x3db9b5c7	0.090678744
133	0xbaa594f7	-0.0012632896
134	0xbd8409ed	-0.06447206
135	0xbc822f48	-0.015891686
136	0x3db563e5	0.08856944
137	0xbcc3668f	-0.023852615
138	0xbdaa50de	-0.083162054
139	0x3d6ad099	0.05732784
140	0x3bf4f015	0.007474909
141	0x3c546ba9	0.012965121
142	0xbc33b3ae	-0.010968132
143	0xbcd634f2	-0.026148293
144	0xbe0e22dc	-0.13880485
145	0x3d296a18	0.041360945
146	0x3d6f22fa	0.058382966
147	0x3cb7e218	0.022446677
148	0x3c9c3ba3	0.019071406
149	0xbd868965	-0.06569175
150	0xbd8ccc3b	-0.06874891
151	0x3e201781	0.15633966
152	0xbce3cce4	-0.02780766
153	0xbd636d1e	-0.055523984
154	0xbd2ce27a	-0.042208172
155	0xbe36d275	-0.1785372
156	0xbc6d74db	-0.014493193
157	0xbbc0856e	-0.005875281
158	0xbba83fba	-0.00513455
159	0xbd1e3dfc	-0.03863333
160	0x3d0a704e	0.03379851
161	0xbd09c44a	-0.03363446
162	0xbdd7f36c	-0.10544476
163	0xbd18b9a1	-0.037286405
164	0xbd374590	-0.044744074
165	0x3de80207	0.11328512
166	0xbd9fd8b2	-0.07805003
167	0xbb9cb173	-0.004781896
168	0xbd37f96c	-0.0449156
169	0xbd9cdd98	-0.07659453
170	0xbd51c887	-0.05121663
171	0xbe68f515	-0.22749741
172	0x3d727720	0.059195638
173	0xbd9fb887	-0.07798868
174	0xbdc0c977	-0.09413426
175	0xbe0812a6	-0.13288364
176	0x3add39e3	0.0016878214
177	0xbe266cf9	-0.16252507
178	0x3a89d35d	0.0010515262
179	0xbd691c03	-0.05691148
180	0x3c8b40a9	0.016998606
181	0xbdc8982f	-0.09794652
182	0xbe11b8da	-0.14230672
183	0xbe8dc5c6	-0.27689952
184	0xbcd0a7cc	-0.025470637
185	0xbde42d76	-0.111414835
186	0x3bd37cf1	0.006454103
187	0xbc1c3fce	-0.009536697
188	0x3bb7f1d8	0.005613547
189	0x3bbcd68e	0.0057628816
190	0x3ca81089	0.020515697
191	0xbc26448c	-0.010148179
192	0xbca62753	-0.020282423
193	0x3e668bbe	0.22514245
194	0xbb3c49c0	-0.0028730482
195	0xbd8758e2	-0.0660875
196	0xbd73aa2b	-0.059488457
197	0x3decc904	0.11561778
198	0xbdf7a9d9	-0.12092943
199	0x3bd0e968	0.0063754804
200	0x3c9dfab6	0.019284587
201	0xbc0bb874	-0.008527864
202	0x3cef4c03	0.02921105
203	0xbdd7316a	-0.10507472
204	0xbaa12f51	-0.0012297427
205	0x3d2f14d5	0.042744476
206	0xbce3a36b	-0.027787885
207	0x3cb1147d	0.021616215
208	0x3a9a40be	0.0011768562
209	0xbde38ed6	-0.11111228
210	0xbd0d243f	-0.034458395
211	0xbd82bcfd	-0.06383703
212	0xbd3f26bf	-0.04666781
213	0x3bc5cbf6	0.006036277
214	0x3ded8aa7	0.115987115
215	0x3b1f3765	0.0024294492
216	0xbdc5bcde	-0.09655164
217	0xba8f16a6	-0.0010916784
218	0x3d7a61ea	0.061128534
219	0xbd03daee	-0.03219121
220	0xbbfcd55e	-0.007715865
221	0x3cb0aef5	0.021567801
222	0xbd946d73	-0.07247438
223	0xbdd76b28	-0.10518485
224	0x3db76cce	0.089563
225	0xbd8ad2f8	-0.0677852
226	0xbde1be87	-0.11022668
227	0xbba0f021	-0.004911438
228	0x3dbe39b8	0.09288353
229	0xbe0cdc61	-0.13755943
230	0xbcae7c48	-0.021299496
231	0xbd1f7402	-0.038928993
232	0x3c593539	0.013257318
233	0xbe743de1	-0.2385173
234	0xbdb17dfe	-0.08666609
235	0xbcdcb60a	-0.026942272
236	0x3cbd17b0	0.023082584
237	0x3dea089b	0.114274226
238	0x3d80a027	0.06280547
239	0x3dac8bac	0.08425078
240	0xbdf355a3	-0.11881568
241	0xbbf2918e	-0.0074026054
242	0xbd16b177	-0.036790337
243	0xbe06f25f	-0.13178395
244	0x3b9b2c14	0.004735479
245	0xbe1c7594	-0.15279227
246	0x3d517e4c	0.051145837
247	0xbc38d2b2	-0.011280702
248	0xbde6ef60	-0.11276126
249	0xbb24b87b	-0.0025134373
250	0x3b2f5d4e	0.0026758495
251	0x3bb2d12e	0.005457065
252	0x3c82b4c1	0.01595533
253	0x3d7dabf3	0.06193156
254	0xbc3a6bf0	-0.011378273
255	0xbd5c3d0f	-0.053769168
