animation_PPO/models/second_actor.pt (torch, 547860 bytes, 9 tensors)

log_std f4 [2]
0	0xbf49028b	-0.78519505
1	0xbf5b1316	-0.85576

network.0.weight f4 [256, 14]
0	0xbb9040d6	-0.0044022603
1	0x3ab0de0e	0.0013493912
2	0xbb32fa17	-0.002730971
3	0xbba76e5e	-0.0051095923
4	0xbbe6b976	-0.0070411516
5	0xbc0c1a02	-0.008551123
6	0xbc06564e	-0.008199288
7	0xbbaabafc	-0.0052102786
8	0xbb569b6b	-0.0032746445
9	0xbb3c70ae	-0.0028753686
10	0xbb6ed739	-0.00364442
11	0xbb87f8db	-0.004149539
12	0xbb62e9d9	-0.0034624247
13	0xbb51aebd	-0.0031995021
14	0xbbbc1c40	-0.0057406723
15	0x3c09b7c5	0.0084056305
16	0xbb18855d	-0.002327285
17	0xbb6ccdc1	-0.003613338
18	0xbbdbc8df	-0.0067072953
19	0xbbc7b467	-0.0060945037
20	0xbbd3aadd	-0.0064595775
21	0xbb944b41	-0.0045255725
22	0xbb3573e6	-0.002768749
23	0xbafd5b0b	-0.0019329501
24	0xb9d9e430	-0.00041559478
25	0xbb1d30f3	-0.0023985475
26	0xbb448d35	-0.0029991393
27	0xbb5a82ac	-0.0033342047
28	0xb9c4dbbc	-0.00037547748
29	0x3a1919d3	0.0005840335
30	0xba7151b9	-0.0009205598
31	0xb992dafe	-0.00028010452
32	0xb98e1966	-0.00027103274
33	0xbadc2fb5	-0.0016798886
34	0xb8cdf72a	-9.8212e-05
35	0xba13d3aa	-0.00056391454
36	0xb8f5c603	-0.00011719393
37	0xba10cf7c	-0.00055240816
38	0xba76f927	-0.0009421282
39	0xba591d0a	-0.000828222
40	0xba5be7f1	-0.0008388749
41	0xba8fe0d5	-0.0010977039
42	0xbbcfdb0f	-0.0063432525
43	0x3b8e007f	0.004333555
44	0xbb867e0c	-0.0041043814
45	0xbba8e44c	-0.0051541682
46	0xbbf8f852	-0.0075979615
47	0xbc08fd8e	-0.008361233
48	0xbbe884b0	-0.0070958957
49	0xbb7c473f	-0.0038494614
50	0xbb6c1709	-0.0036024472
51	0xbb41a39b	-0.002954698
52	0xbb61282e	-0.0034356224
53	0xbb19f2c8	-0.0023490656
54	0xbb1c6d78	-0.002386896
55	0xbb3c0f6a	-0.002869571
56	0x3abfc457	0.0014630657
57	0x3a2a2859	0.00064909976
58	0xbb560749	-0.003265815
59	0xbaa22da1	-0.0012373218
60	0xbb3bb758	-0.0028643217
61	0xbad20634	-0.0016023577
62	0xbb0c6930	-0.0021425001
63	0xbb12e66b	-0.0022415172
64	0xbb2c1af5	-0.0026261185
65	0xbb13ec77	-0.0022571364
66	0xbb51de6f	-0.003202345
67	0xbb6d132f	-0.0036174764
68	0xbb47baad	-0.0030476258
69	0xbb2b140d	-0.002610448
70	0xbb83425c	-0.0040057134
71	0x3bb0d9ed	0.0053970725
72	0xbb68c181	-0.0035515728
73	0xbb9e9ba1	-0.0048403298
74	0xbc06025f	-0.008179276
75	0xbc241104	-0.0100138225
76	0xbc0680f7	-0.008209459
77	0xbb858831	-0.004075073
78	0xbb83ed6f	-0.004026107
79	0xbb289f5e	-0.0025729756
80	0xbb92c9aa	-0.0044796066
81	0xbb6d22a1	-0.003618397
82	0xbb7ef85a	-0.0038905353
83	0xbb5b29b5	-0.0033441607
84	0xbb66fe3d	-0.0035246753
85	0x3b868c79	0.004106101
86	0xbb733904	-0.0037112841
87	0xbbc529b8	-0.006016936
88	0xbc10d677	-0.008840195
89	0xbc151446	-0.009099072
90	0xbbf88e5a	-0.007585329
91	0xbba09016	-0.004899989
92	0xbb81d36e	-0.003961972
93	0xbb6cb982	-0.0036121313
94	0xbb41da2e	-0.0029579508
95	0xbb8f11cb	-0.0043661348
96	0xbb2f29e2	-0.0026727845
97	0xbb4f26b4	-0.0031608762
98	0xbbabef8a	-0.005247061
99	0x3bfa80d5	0.0076447525
100	0xbb1a4f19	-0.002354568
101	0xbb92a1b9	-0.0044748452
102	0xbbdafc62	-0.0066829184
103	0xbc038616	-0.008027574
104	0xbbf5fe92	-0.007507154
105	0xbb8afe85	-0.004241767
106	0xbb2c1e7b	-0.0026263285
107	0xbab83b81	-0.001405582
108	0xbb69d41c	-0.0035679406
109	0xbb6fb9bd	-0.0036579215
110	0xbb52aa5e	-0.0032145004
111	0xbae9c3e6	-0.0017834872
112	0xbb5b0e2e	-0.00334252
113	0x3bd17373	0.0063919364
114	0xbb6ee006	-0.0036449446
115	0xbb63284b	-0.0034661468
116	0xbbedf974	-0.007262403
117	0xbbfe74b8	-0.007765379
118	0xbbbf4e89	-0.0058382195
119	0xbbb03ac0	-0.0053780973
120	0xbb195ac0	-0.0023400038
121	0xbb852603	-0.0040633692
122	0xbb66c3ce	-0.0035211924
123	0xbb69b29e	-0.0035659443
124	0xbb228ab0	-0.0024801902
125	0xbb6324fd	-0.0034659498
126	0x398b5ca6	0.00026581174
127	0xba187de6	-0.00058171
128	0xba180928	-0.0005799704
129	0xba1c3c34	-0.00059598987
130	0xba83d677	-0.0010058422
131	0xb9ea9f37	-0.00044750582
132	0x392abdf7	0.00016283231
133	0xba36c29c	-0.0006971748
134	0x39273e8f	0.00015949666
135	0xba2e9657	-0.00066599756
136	0xb84f6997	-4.9450984e-05
137	0x39bdf661	0.00036232456
138	0x39997ff4	0.00029277767
139	0xb9f6a721	-0.00047045297
140	0xbb5f8441	-0.003410593
141	0x3bab6763	0.0052308305
142	0xbb13da03	-0.0022560365
143	0xbb8e1357	-0.0043358016
144	0xbbf6531b	-0.007517231
145	0xbc0af7d5	-0.008481939
146	0xbbedd9b2	-0.0072586173
147	0xbba11e00	-0.0049169064
148	0xbb080c81	-0.0020759406
149	0xbb7f262c	-0.0038932664
150	0xbb1384d3	-0.002250959
151	0xbb4e2468	-0.0031454805
152	0xbb1feed9	-0.002440384
153	0xbb5c5a07	-0.0033622996
154	0xb90ab01d	-0.00013226313
155	0xb95603ef	-0.00020410096
156	0xb9181335	-0.00014503005
157	0xb9e8753b	-0.00044337832
158	0xba0c0a34	-0.00053420966
159	0xba6a1ba7	-0.0008930512
160	0x39ac51b1	0.0003286726
161	0x3a59315f	0.000828525
162	0xb92517aa	-0.00015744442
163	0xba83de6c	-0.0010060794
164	0xbad19b11	-0.0015991648
165	0xb9fe7e22	-0.00048540632
166	0xba8c98d0	-0.0010726694
167	0xbae0e708	-0.0017158696
168	0xbb2ead5c	-0.0026653623
169	0x3b7528e7	0.0037408413
170	0xbb2124fd	-0.0024588697
171	0xbba32783	-0.0049790754
172	0xbbfce2aa	-0.00771745
173	0xbc1762f1	-0.009239898
174	0xbc0d60e6	-0.008629059
175	0xbb94da6e	-0.0045426404
176	0xbb432543	-0.0029776848
177	0xbb5460c5	-0.0032406312
178	0xbb4ad4a9	-0.003094951
179	0xbb842513	-0.00403274
180	0xbb48938d	-0.0030605525
181	0xbb60fa7b	-0.0034328985
182	0xbb992ee6	-0.00467478
183	0x3bf66d36	0.007520343
184	0xbb74237f	-0.0037252603
185	0xbba4f0ce	-0.005033589
186	0xbc0f1586	-0.008733159
187	0xbc0beb95	-0.008540054
188	0xbbf02339	-0.0073284176
189	0xbb8a34b1	-0.004217707
190	0xbb44b3a0	-0.0030014291
191	0xbb505f14	-0.0031794952
192	0xbb85f00e	-0.0040874546
193	0xbb873952	-0.004126706
194	0xbb53989c	-0.0032287007
195	0xbb2991d5	-0.0025874276
196	0x3d0d4e15	0.034498293
197	0x3d31a9c1	0.04337478
198	0xbd9afe44	-0.075680286
199	0xbdc3a694	-0.09553257
200	0xbd8b5df0	-0.068050265
201	0xbd16701f	-0.03672802
202	0xbcb8bf3a	-0.022552121
203	0xbcb3cae0	-0.021947324
204	0xbcb06ca8	-0.021536186
205	0xbb47e0fa	-0.0030499087
206	0x3bb44305	0.0055011534
207	0x3c607648	0.013700075
208	0xbd85eebe	-0.06539677
209	0xbdc1e743	-0.09467938
210	0xbb96ca10	-0.0046017244
211	0x3bc558e8	0.0060225613
212	0xbb81d69a	-0.00396235
213	0xbbc5d251	-0.0060370346
214	0xbc296ed6	-0.010341367
215	0xbc2c8e88	-0.010532029
216	0xbc22afc4	-0.009929601
217	0xbb97d99d	-0.004634096
218	0xbb92cbee	-0.0044798767
219	0xbb600414	-0.0034182118
220	0xbb343b8e	-0.0027501318
221	0xbb7cbc34	-0.0038564326
222	0xbb5a27d8	-0.003328791
223	0xbb821909	-0.0039702696
224	0xbaa8b6c6	-0.0012871854
225	0xbad39308	-0.0016141841
226	0xbb665a9f	-0.003514923
227	0xbb6eaa37	-0.0036417374
228	0xbb72ab7b	-0.003702848
229	0xbb038382	-0.0020067398
230	0xbb79e8bb	-0.0038133103
231	0xbb85acc9	-0.0040794355
232	0xbb8c2b42	-0.0042776177
233	0xbb820c22	-0.0039687315
234	0xbb74cb60	-0.0037352666
235	0xbb40b4f4	-0.0029404731
236	0xbb5ca236	-0.0033666021
237	0xbb9f5ea9	-0.0048635793
238	0xbebdbb70	-0.37057066
239	0xbee6b35b	-0.45058712
240	0xbd3245e0	-0.04352367
241	0xbf22c18a	-0.6357657
242	0xbf81d4d9	-1.0143081
243	0xbf7f9298	-0.9983306
244	0xbe542bf1	-0.20719887
245	0xbc0917fb	-0.008367534
246	0x3e51c32f	0.20484613
247	0x3ea7d2f0	0.3277812
248	0x3e9b90fa	0.30384046
249	0xbc8cd3a9	-0.017190771
250	0x3bec3e38	0.0072095655
251	0x3e3dedc0	0.18547726
252	0xbe938fe9	-0.28820732
253	0xbdb4ce00	-0.08828354
254	0xbf3bc8a2	-0.73353016
255	0xbe9d33e8	-0.30703664

network.0.bias f4 [256]
0	0xbb6e314f	-0.0036345308
1	0xbb32da9d	-0.0027290948
2	0xba310f41	-0.0006754287
3	0xbb59b96a	-0.0033222088
4	0xbb32aea1	-0.0027264731
5	0xbb710397	-0.0036775821
6	0xbb677c30	-0.0035321824
7	0xbb458595	-0.0030139436
8	0xbb57d0e8	-0.0032930914
9	0x00000000	0.0
10	0xbb40c8c3	-0.0029416538
11	0xba38a9dd	-0.00070443546
12	0xbb5c0c96	-0.0033576838
13	0xbb68490d	-0.0035443932
14	0xbcc374f7	-0.023859484
15	0xbb882fe9	-0.004156102
16	0xbb7ab26e	-0.0038253325
17	0xbd775258	-0.060381263
18	0xbd73b5a5	-0.0594994
19	0xbbfeff38	-0.0077818893
20	0xbc4a9d43	-0.012366596
21	0xba713c13	-0.0009202372
22	0xbbcc37dc	-0.006232245
23	0xbc1a9cff	-0.009436845
24	0xbd235b7b	-0.039882164
25	0xbb6977ec	-0.0035624458
26	0xbcd5af5e	-0.026084598
27	0xbbdbe449	-0.0067105633
28	0xbb127361	-0.0022346603
29	0xbb5873f5	-0.00330281
30	0xbb7e035a	-0.0038759322
31	0xbb674289	-0.003528746
32	0xbc14fa49	-0.009092876
33	0xbb41fd13	-0.0029600307
34	0xbb68f93e	-0.003554895
35	0xbb496cce	-0.0030735019
36	0xbb5b882f	-0.003349792
37	0xbb362a95	-0.0027796377
38	0xba14ab6f	-0.00056712975
39	0xbbafaf1b	-0.0053614504
40	0xba174a24	-0.00057712407
41	0xbbb9bd69	-0.0056683314
42	0xbb602e5c	-0.003420732
43	0xbbe25577	-0.006907161
44	0x00000000	0.0
45	0xbb49e98d	-0.0030809373
46	0xbcd21a46	-0.025647294
47	0x3de454d7	0.111489944
48	0xbb6b12ea	-0.0035869428
49	0xbb78e677	-0.0037979165
50	0xbb5f5370	-0.0034076832
51	0xbb5bc5ed	-0.003353472
52	0xbc927328	-0.017877176
53	0xbb3b8d05	-0.002861799
54	0xbbbc5678	-0.0057476126
55	0xbc1cbd6d	-0.009566647
56	0xbe5b5f39	-0.21423043
57	0xbba94f8e	-0.0051669544
58	0xbb2a32f6	-0.0025970316
59	0xbb53701b	-0.0032262865
60	0xba96fba1	-0.0011519083
61	0xbb57a2df	-0.0032903475
62	0xbbeeadee	-0.0072839176
63	0xb9aaf387	-0.0003260637
64	0xba82cb05	-0.0009978717
65	0xbb8d3477	-0.004309233
66	0xba0ab37b	-0.0005291027
67	0xbb4d4cf0	-0.0031326376
68	0xbb71d4fe	-0.0036900635
69	0xbade1d55	-0.0016945997
70	0xbb36488b	-0.0027814235
71	0xbb53db23	-0.003232666
72	0xbd54d759	-0.051963184
73	0xbb4608cd	-0.0030217648
74	0xba03fe0d	-0.000503511
75	0xbb07a8a6	-0.0020699888
76	0xba3c7362	-0.0007188824
77	0xbb8773b5	-0.0041336664
78	0xbb3db442	-0.0028946553
79	0xb9ed29b4	-0.00045235234
80	0xbb628b2f	-0.0034567823
81	0xbd7793ba	-0.060443617
82	0xbd1cdfc7	-0.03829935
83	0xbb1cee40	-0.002394572
84	0xbb7d09d9	-0.0038610606
85	0xb9f1a6a9	-0.00046091274
86	0xbc13947e	-0.009007571
87	0xbab7bbc8	-0.0014017755
88	0xbb4ecd05	-0.0031555307
89	0xbb739664	-0.0037168497
90	0xbd3c5dc9	-0.045987878
91	0xba16443c	-0.00057322136
92	0xbc178477	-0.009247891
93	0xbaa4198e	-0.0012519823
94	0xbb66b4b7	-0.003520293
95	0xbb4c4568	-0.00311693
96	0xba0bff97	-0.0005340515
97	0xbbb8ee06	-0.005643609
98	0xbc906d65	-0.017630288
99	0xbb46b67b	-0.003032117
100	0xbbf8a066	-0.0075874804
101	0xbbf14936	-0.0073634638
102	0xbb31ddf4	-0.002714035
103	0xbb716217	-0.0036832148
104	0xbbbe088e	-0.0057993596
105	0xbbb1e691	-0.005429097
106	0xbac3bd04	-0.001493365
107	0xbb537b37	-0.0032269487
108	0xbb5f15d1	-0.0034040103
109	0x00000000	0.0
110	0xbba77854	-0.00511078
111	0x3dc4b065	0.09603957
112	0xbb757192	-0.0037451726
113	0xbb7f0472	-0.0038912562
114	0xbb644d65	-0.003483617
115	0xbb889610	-0.0041682795
116	0xbd6966cf	-0.05698281
117	0xbb7dc9f5	-0.0038725112
118	0xbbe5ff03	-0.007018925
119	0xbb6dd593	-0.003629063
120	0xbdf0c52b	-0.11756357
121	0xbb3aa8f3	-0.002848205
122	0xbb8b81cf	-0.0042574177
123	0xbb72226c	-0.0036946787
124	0xbb802892	-0.0039110864
125	0xb9eb2491	-0.00044849937
126	0xb9d5bd74	-0.0004076768
127	0xbbb434c8	-0.005499456
128	0xba0786dd	-0.00051699375
129	0xbb7072c4	-0.00366895
130	0xbb7903dd	-0.0037996687
131	0xbb51f8b8	-0.0032039117
132	0xbaed5f18	-0.0018110005
133	0xbb69f754	-0.0035700398
134	0xbb437f0a	-0.002983036
135	0xbb6fcf53	-0.003659208
136	0xbc18e71b	-0.009332444
137	0xbb432898	-0.0029778834
138	0xba00e7ee	-0.0004917373
139	0xbba1473c	-0.004921822
140	0xbc962279	-0.018326985
141	0xbb682605	-0.0035423052
142	0x3a856c18	0.0010179309
143	0xba326d73	-0.00068064703
144	0xbb5d38f7	-0.0033755878
145	0x3daee5ee	0.08539949
146	0xbb70d580	-0.003674835
147	0xb97cf190	-0.00024122582
148	0xba18431c	-0.000580834
149	0x3c3bdfb6	0.011466911
150	0xbb3ddbea	-0.002897019
151	0xbba2adbe	-0.0049645593
152	0xbbe5fa3a	-0.0070183547
153	0xbb4a0545	-0.0030825895
154	0xbb3bd7b9	-0.0028662516
155	0xbc1f7b10	-0.00973393
156	0xba11b84a	-0.0005558772
157	0xbb966db8	-0.004590716
158	0xbaf86a18	-0.0018952517
159	0xba197317	-0.00058536365
160	0xbb62409e	-0.0034523378
161	0xbb37b1c3	-0.0028029538
162	0xbb2f4aae	-0.0026747393
163	0xbb532a8b	-0.0032221403
164	0xbb8d86a1	-0.0043190275
165	0xbcd6c88a	-0.026218671
166	0x3e393fc6	0.18090734
167	0xb998edc9	-0.00029168863
168	0xbdf42d3c	-0.1192269
169	0xbb5a6889	-0.0033326468
170	0xbaa46cc9	-0.0012544628
171	0xbb5e6436	-0.0033934242
172	0xba59d7d2	-0.0008310053
173	0xbd52f554	-0.051503494
174	0xbbdce85e	-0.0067415675
175	0xbb8e74b4	-0.004347408
176	0xbb291c1d	-0.002580411
177	0xbb72decd	-0.003705907
178	0xbdbbf5ca	-0.0917774
179	0x00000000	0.0
180	0xbb5c3fc4	-0.0033607343
181	0xbb5819f9	-0.0032974465
182	0xbb197f1a	-0.0023421706
183	0xbabc9ba2	-0.0014389644
184	0xba948743	-0.0011331815
185	0x00000000	0.0
186	0xbd61a0d6	-0.055085026
187	0xbb5ac5dc	-0.0033382094
188	0xbe4c431d	-0.19947477
189	0xbb54a721	-0.003244825
190	0xbb64b3eb	-0.0034897279
191	0xbb09a4ab	-0.002100269
192	0xbb9a557e	-0.0047098985
193	0xbba2738b	-0.0049576215
194	0x00000000	0.0
195	0xbb64db34	-0.0034920694
196	0xbb8c9714	-0.004290471
197	0xbb5bf889	-0.0033564887
198	0xbdb53bc0	-0.08849287
199	0xbb4ba1f7	-0.003107188
200	0xb9f766f1	-0.0004718821
201	0xbb52bd69	-0.0032156354
202	0x00000000	0.0
203	0xbb4f89d0	-0.0031667836
204	0xbab72c8b	-0.0013975067
205	0xbb6189a1	-0.0034414309
206	0xbc1cf743	-0.009580436
207	0xbad754f3	-0.0016428515
208	0xbb6a7271	-0.0035773779
209	0xbc192d16	-0.009349128
210	0xbb2ffb09	-0.002685251
211	0xbb58cb4b	-0.0033080156
212	0xbb6e70d9	-0.003638318
213	0xbb5d954e	-0.0033810916
214	0xba796e30	-0.00095150154
215	0x00000000	0.0
216	0xbb12ad14	-0.0022380995
217	0xbb7e5a31	-0.0038811082
218	0xba9184f2	-0.0011102243
219	0xbd99d949	-0.07512147
220	0xbbc284d3	-0.005936244
221	0x3acc99a4	0.0015609753
222	0xba08c929	-0.00052179635
223	0xbb115715	-0.002217715
224	0xbc1ab53d	-0.009442625
225	0xbbae888a	-0.0053263353
226	0xbbd5e8b4	-0.0065279845
227	0xbb503be0	-0.003177397
228	0xbadd68e4	-0.0016892222
229	0xba4e95b1	-0.0007880582
230	0xbb5d78b2	-0.0033793864
231	0xbb60586d	-0.0034232393
232	0xbb856b0e	-0.0040716
233	0xbadcdc06	-0.001685024
234	0xbb19d7eb	-0.0023474644
235	0xbb52f08b	-0.0032186832
236	0xb9c4c67d	-0.00037531918
237	0xbc13ee48	-0.009028979
238	0xbb6584bb	-0.003502174
239	0xbb4ca7c8	-0.0031227935
240	0xbb75afef	-0.0037488898
241	0xba083b46	-0.0005196821
242	0xbb087899	-0.0020823835
243	0xbb68b9ff	-0.0035511253
244	0xba254437	-0.00063044153
245	0xbb3039a8	-0.0026889835
246	0x3d44b2e6	0.048022173
247	0xbb70c242	-0.003673688
248	0xbb5c2514	-0.0033591436
249	0xbb551889	-0.0032515845
250	0xbc0f7afb	-0.008757348
251	0xbb6708a1	-0.0035252946
252	0xbb44bb43	-0.0030018843
253	0xbae837b2	-0.0017716794
254	0xbb4d0ba5	-0.0031287458
255	0xbb71f488	-0.0036919434

network.3.weight f4 [256, 256]
0	0xb94b371d	-0.0001938012
1	0x39525b9e	0.0002006129
2	0x39ae235b	0.00033214208
3	0xb8ffd134	-0.00012198315
4	0xba24df74	-0.00062894006
5	0xbad1e2cc	-0.0016013025
6	0xb95afbf1	-0.00020883956
7	0xb98e6d37	-0.00027165722
8	0x39b2e4ae	0.00034121185
9	0xb929bce2	-0.0001618746
10	0x398f31db	0.0002731223
11	0x3a6bdae9	0.0008997159
12	0xba366c04	-0.00069588446
13	0x39a88cd1	0.00032148373
14	0x3d3dbf3f	0.046324965
15	0xba78697b	-0.0009476167
16	0xba72ce7c	-0.0009262336
17	0xbe58f9e2	-0.21189073
18	0x3cee6773	0.029102063
19	0xb9a5a308	-0.0003159272
20	0xb93eaa9e	-0.00018183372
21	0x39d20e7e	0.0004006512
22	0x36db8f0e	6.5433624e-06
23	0x3a0ecfd2	0.0005447838
24	0xbd5cc25d	-0.053896297
25	0x39eafe60	0.00044821482
26	0x3cfde531	0.030993076
27	0x39ee0e98	0.0004540577
28	0xba182b58	-0.00058047986
29	0x3a0badae	0.00053283095
30	0xba71fefb	-0.00092314155
31	0xba99a049	-0.0011720742
32	0xba016f9f	-0.00049375923
33	0x3a72a429	0.0009256029
34	0xbb043360	-0.0020172223
35	0x3a48b873	0.00076568796
36	0xba9c44cd	-0.001192236
37	0x3a6515ed	0.0008738924
38	0x3a076385	0.0005164671
39	0x39ae028a	0.00033189758
40	0xb998ff33	-0.00029181837
41	0x39a0d8c0	0.0003067907
42	0x3a6c8993	0.00090231857
43	0x3a91abcb	0.001111382
44	0xb865aefb	-5.4760818e-05
45	0x3a9b5c64	0.0011853096
46	0x3cc0ac7a	0.023519743
47	0xbf13e460	-0.5777035
48	0xb92882f0	-0.00016070507
49	0x389c148f	7.442489e-05
50	0xba9e9c22	-0.0012100975
51	0xb912f9b8	-0.00014016673
52	0x3d05fa96	0.03270968
53	0xb9b34b1c	-0.000341975
54	0xb8f8f9e9	-0.00011872111
55	0xb844a2d7	-4.6881698e-05
56	0x3ec5726f	0.38563868
57	0xba0e222d	-0.00054219627
58	0x3b086ffa	0.0020818696
59	0xb8fe98a8	-0.00012140098
60	0x3a9af1d2	0.0011821336
61	0x3a236878	0.00062335236
62	0x39da0955	0.00041587153
63	0xb850e9c8	-4.980879e-05
64	0xbac22a26	-0.0014813587
65	0x39f1fa12	0.0004615342
66	0xb917809e	-0.00014448396
67	0x3712dda7	8.753886e-06
68	0x38afa41e	8.3752195e-05
69	0x3ad643eb	0.0016347145
70	0x3ac08da2	0.0014690647
71	0xb8c74da5	-9.503522e-05
72	0x3e16ac89	0.14714254
73	0x3a839480	0.0010038763
74	0x394eac5d	0.00019709901
75	0x3a01e1a8	0.0004954585
76	0xb9fe9f39	-0.00048565285
77	0x3a94cdd9	0.0011352851
78	0xb990cada	-0.00027616957
79	0x39da6ba5	0.00041660402
80	0x3a1733cc	0.0005767911
81	0x3cb90ce8	0.022589162
82	0xbcba8b7f	-0.022771595
83	0x3ab3c6ae	0.0013715827
84	0xba808ce4	-0.0009807614
85	0x3a629808	0.000864387
86	0x3abd3a7b	0.0014436984
87	0xb88938ee	-6.543273e-05
88	0x39e90400	0.00044444203
89	0xbaa0abfa	-0.0012258284
90	0xbf0a7f45	-0.5410045
91	0xb9981cff	-0.00029013303
92	0x38435870	4.6573987e-05
93	0x38bfef18	9.1521244e-05
94	0xb895196a	-7.1096074e-05
95	0x3b078a0e	0.0020681652
96	0xb847a240	-4.7596404e-05
97	0x37c8365c	2.3867171e-05
98	0x3dd6ffe6	0.104980275
99	0x3a8a56d9	0.0010554447
100	0xba93ef65	-0.0011286555
101	0x399b2956	0.00029594701
102	0x3a203dc9	0.00061127223
103	0xb9b71638	-0.00034921034
104	0xba8fab60	-0.0010961108
105	0x3919acdc	0.00014655612
106	0xba555d53	-0.00081392116
107	0xbab51179	-0.0013814411
108	0x3a3f2669	0.00072917953
109	0xb9a13cc2	-0.0003075358
110	0xbad11edd	-0.0015954633
111	0x3f03d627	0.51498646
112	0xba5c8cb1	-0.00084132986
113	0xba734dbf	-0.00092812994
114	0x3a664498	0.0008784025
115	0xbb15fd72	-0.002288666
116	0x3d4e36c6	0.050345205
117	0xba9b7488	-0.001186029
118	0x388256e9	6.215071e-05
119	0xba740f05	-0.00093100994
120	0x3d84b7ef	0.06480395
121	0xba0e6453	-0.00054318196
122	0xb93413f5	-0.00017173572
123	0x38fbbd16	0.00012003833
124	0x3a635476	0.00086719485
125	0x3a9628d4	0.001145626
126	0x38a9327c	8.0679514e-05
127	0xb996a1d5	-0.00028730804
128	0x3ab2f12b	0.0013652196
129	0xb8a273a4	-7.746302e-05
130	0x3a38d429	0.00070506573
131	0x3a888c97	0.0010417876
132	0xba7779d2	-0.0009440455
133	0xbae89bcb	-0.0017746625
134	0x3a2c6bfc	0.000657737
135	0xb9a859ea	-0.00032110448
136	0xbba5f1cf	-0.005064226
137	0xb9d592f0	-0.00040736003
138	0x38923caa	6.973122e-05
139	0xbba84b3a	-0.005135921
140	0x3dc19fd2	0.094543114
141	0x3970ab4e	0.00022952
142	0xbcb3d8cc	-0.021953963
143	0xb98e963d	-0.00027196287
144	0x3b2094af	0.0024502685
145	0x3d869155	0.06570689
146	0xb9ccbc00	-0.00039049983
147	0xba28e8f8	-0.00064434065
148	0x3a65330d	0.0008743264
149	0xbec01f6c	-0.37523973
150	0x39a1a690	0.00030832412
151	0xb82143e0	-3.8448605e-05
152	0xbab9a1dd	-0.0014162619
153	0x39ca73ee	0.00038614817
154	0xb8e864b1	-0.00011081377
155	0xbad3e1de	-0.0016165336
156	0x395570e9	0.00020355325
157	0xb99ed6d2	-0.00030296162
158	0x3871610f	5.754927e-05
159	0x39f7baf5	0.00047250805
160	0x39676655	0.00022067998
161	0xb91a0e13	-0.00014691828
162	0x394d0c77	0.00019554967
163	0xb9239fa4	-0.00015604362
164	0x3a90372a	0.0011002768
165	0x39dedac3	0.0004250613
166	0xbcc403b4	-0.023927547
167	0x3a27a0d9	0.00063945126
168	0xbdae50bd	-0.08511493
169	0x3b0b842c	0.0021288497
170	0x3a235d92	0.00062318996
171	0xb9482f0c	-0.00019091013
172	0x3a9211b5	0.0011144193
173	0x3e14a762	0.14516976
174	0x3d28df31	0.041228477
175	0xba031cdd	-0.00050015544
176	0x3a65e9f3	0.0008770518
177	0xba95fd98	-0.0011443375
178	0x3db59c6f	0.08867728
179	0x3a8a677d	0.0010559406
180	0x3aa66486	0.0012694753
181	0xba2ced76	-0.0006596664
182	0x3a73c991	0.000929975
183	0x3a95be8f	0.0011424589
184	0xb8367e4d	-4.3509808e-05
185	0x3a751a6c	0.00093499455
186	0x3c3846e2	0.0112473685
187	0x3a197990	0.0005854601
188	0xbd9579d2	-0.07298626
189	0x390b164d	0.0001326438
190	0x3997fccd	0.00028989316
191	0xba88001b	-0.0010376008
192	0x3a1621d0	0.00057270844
193	0x37f09333	2.8678774e-05
194	0x39820596	0.00024799694
195	0x391a8105	0.00014734648
196	0x3771dbeb	1.4415923e-05
197	0xba4275d1	-0.00074180687
198	0x3d237b58	0.03991255
199	0x392cd070	0.00016480847
200	0x3a8533ab	0.0010162493
201	0x3a33749e	0.00068456854
202	0xba3123e2	-0.0006757361
203	0x38b88a8b	8.799609e-05
204	0x3955ec89	0.00020401379
205	0x3a0b363b	0.000531051
206	0x39ba7f4e	0.00035571534
207	0x3a48cb52	0.00076596916
208	0x3a1a8c2b	0.00058955204
209	0x3a9ee4bd	0.0012122613
210	0x3a6a3dcd	0.00089356006
211	0xb9e176c7	-0.0004300384
212	0xba1b13a7	-0.0005915709
213	0x3a12d9af	0.00056018954
214	0x3ab46b1e	0.0013764834
215	0xb9f7cf94	-0.0004726617
216	0xbac45c17	-0.0014981058
217	0xbaff097e	-0.0019457785
218	0xb98b7ab0	-0.00026603555
219	0xbb8b75ae	-0.004255972
220	0xb9f76c38	-0.0004719214
221	0x3d01165d	0.031515468
222	0x3a2711bb	0.00063731865
223	0x39788328	0.00023699983
224	0xbbbbe125	-0.0057336264
225	0xba2773ca	-0.00063877983
226	0x38a2674d	7.744003e-05
227	0x39d8601b	0.00041270335
228	0xb922d07e	-0.00015527193
229	0x3a152bc3	0.000569042
230	0x39e60b85	0.000438776
231	0xba8c6202	-0.0010710361
232	0xba816e0e	-0.0009874718
233	0x3a9256f8	0.0011164835
234	0xb9600844	-0.00021365384
235	0xb9c6c629	-0.00037913144
236	0x3a0c5b99	0.0005354225
237	0x38dc4aeb	0.00010504372
238	0xbab6d1da	-0.0013948039
239	0x38aec7b9	8.334168e-05
240	0xba76cee5	-0.0009414985
241	0xb93be929	-0.00017920569
242	0x3abbebcf	0.0014337244
243	0xb8bd7c96	-9.035428e-05
244	0x3a3d628a	0.00072244613
245	0xba6e079e	-0.00090801145
246	0x3e67a5de	0.22621867
247	0xb9225427	-0.00015480873
248	0x3a7d5c67	0.0009664953
249	0xb9987ff8	-0.00029087043
250	0x39969b09	0.0002872574
251	0xba448ba1	-0.0007497613
252	0xba48edde	-0.00076648395
253	0x3a6c5759	0.00090157014
254	0x39246807	0.00015679012
255	0x39c9191e	0.0003835642

network.3.bias f4 [256]
0	0xbe7bd60c	-0.24593371
1	0xbdf8e384	-0.1215277
2	0xbb38c207	-0.0028191821
3	0x3d7a69b4	0.061135963
4	0xbe046e4b	-0.12932698
5	0xbb7364b9	-0.0037138893
6	0xbbdbdbf9	-0.0067095724
7	0xbc388b72	-0.011263715
8	0xbbf9a5cf	-0.007618643
9	0xbdf96241	-0.121769436
10	0x3da0ce57	0.07851856
11	0xbd766b54	-0.06016095
12	0xbbf13e48	-0.007362161
13	0xbc309f25	-0.0107801305
14	0xbbe2c52d	-0.006920478
15	0xbc287571	-0.010281906
16	0xbbd6b23a	-0.006552008
17	0xbef917ed	-0.48651066
18	0xbc35415a	-0.011062944
19	0x3c98628d	0.01860168
20	0xbdf30208	-0.11865622
21	0xbdd9763b	-0.10618254
22	0xbd6257de	-0.055259578
23	0x3dda8174	0.106692225
24	0xbd9bf130	-0.07614362
25	0xbbbfcc60	-0.005853221
26	0x3ce3f1e1	0.027825298
27	0xbe8d8fb3	-0.27648696
28	0xbe9ac7d6	-0.30230588
29	0xbda03ffa	-0.078247026
30	0xbba5cb85	-0.005059662
31	0xbc856a18	-0.016285941
32	0xbc5fab71	-0.013651715
33	0xbe3334ca	-0.17500606
34	0xbce9c7bd	-0.028537625
35	0xbd3c5d54	-0.045987442
36	0xbe037c36	-0.12840351
37	0xbdc20563	-0.09473684
38	0xbc1a1bec	-0.009406071
39	0x3d91271c	0.07087538
40	0xbbb30e22	-0.0054643312
41	0xbe274cb6	-0.16337857
42	0xbbfda854	-0.0077410135
43	0xbbc087c4	-0.0058755595
44	0xbe19767f	-0.14986609
45	0xbb8b69d2	-0.004254558
46	0xbb81a92a	-0.0039569335
47	0xbc0936a7	-0.008374847
48	0xbc1fcadc	-0.009752955
49	0xbd6536c5	-0.055960435
50	0xbb863a40	-0.0040962994
51	0xbd385299	-0.045000646
52	0xbc28aacb	-0.0102946265
53	0xbbd05d93	-0.006358811
54	0xbde27f2f	-0.110594146
55	0xbbbb9ad3	-0.0057252436
56	0xbb8f03f9	-0.0043644872
57	0xbc5146a5	-0.012773191
58	0xbeadb5f1	-0.33927873
59	0xbc1e973f	-0.009679615
60	0xbbc9eefb	-0.006162522
61	0xbbe8222b	-0.0070841513
62	0xbdee1e0e	-0.11626826
63	0xbda0e18b	-0.07855519
64	0xbc50c3f8	-0.012742035
65	0xbb78d5d0	-0.003796924
66	0xbde79c68	-0.11309129
67	0xbd9707f6	-0.07374565
68	0xbb33fd82	-0.0027464335
69	0xbb8b0e2b	-0.0042436323
70	0xbdedffa1	-0.11621023
71	0xbf2df00c	-0.6794441
72	0xbe624554	-0.22096759
73	0xbdfb3c05	-0.12267307
74	0xbbd4dc9f	-0.0064960266
75	0xbbc7c66a	-0.006096651
76	0xbbc823fd	-0.0061078058
77	0x3c89640c	0.016771339
78	0xbbd95abd	-0.0066331313
79	0xbc2d7ae2	-0.01058838
80	0xbbba9b49	-0.005694781
81	0xbd29d286	-0.041460536
82	0xbc86e9b5	-0.016468862
83	0xbb5ef9b6	-0.003402335
84	0xbb08a320	-0.0020849183
85	0xbc064e8e	-0.00819744
86	0xbc117a28	-0.008879222
87	0xbc50fc74	-0.012755502
88	0xbba2b977	-0.004965957
89	0xbb0276ad	-0.0019907162
90	0xb9c09fe2	-0.00036740216
91	0xbbe6067c	-0.007019816
92	0xbcf335af	-0.029688684
93	0xbbb88680	-0.005631268
94	0xbef34d9d	-0.47520152
95	0xbb93aade	-0.004506453
96	0xbae3af6b	-0.0017371004
97	0x3e311861	0.17294456
98	0xbefe29d8	-0.496413
99	0xbc54ccd2	-0.012988286
100	0xbdb6a255	-0.08917681
101	0xbe324a49	-0.1741115
102	0xbcf909be	-0.030400153
103	0xbe68fe62	-0.2275329
104	0xbdd3219a	-0.10309143
105	0xbc775c6a	-0.015097717
106	0xbcfa8c03	-0.03058434
107	0xbc610c66	-0.013735866
108	0xbbaaa50a	-0.0052076625
109	0xbbd4f8f3	-0.0064994036
110	0xbf253310	-0.6453104
111	0xbe07fa13	-0.1327899
112	0xbd0ef548	-0.034901887
113	0x3ad4899d	0.0016215328
114	0xbc092740	-0.008371174
115	0xbcbff1e1	-0.023430767
116	0xbbb842cf	-0.0056231986
117	0xbba18854	-0.0049295817
118	0x3c1e3624	0.009656463
119	0xbb8a2dca	-0.0042168843
120	0xbc397763	-0.011319968
121	0xbd6da1c5	-0.058015604
122	0xbc4a7bd0	-0.012358621
123	0xbbd14d4c	-0.0063873883
124	0xbd259293	-0.040422987
125	0xbbaf0f77	-0.0053424197
126	0xbbb62170	-0.0055581853
127	0xbb517a0c	-0.0031963615
128	0x3cadb448	0.021204129
129	0xbbb2182b	-0.00543501
130	0xbc74870e	-0.014924778
131	0xbbbd657c	-0.00577992
132	0xbdde685e	-0.1085975
133	0xbc22a545	-0.009927099
134	0xbc1daebd	-0.00962418
135	0xbbf8d3d4	-0.0075936113
136	0x3d8a006c	0.06738362
137	0xbc52d359	-0.012867772
138	0x3d47a0f3	0.048737478
139	0xbd706695	-0.05869158
140	0xbc19f429	-0.009396591
141	0xbed72d6b	-0.4202684
142	0xbb38e508	-0.0028212685
143	0xbd2bc368	-0.0419344
144	0xbbe3876b	-0.0069436333
145	0xbc2c24a9	-0.010506787
146	0xbb55e261	-0.0032636153
147	0xbd4abafd	-0.049494732
148	0xbbc1f4ad	-0.00591906
149	0xbc305f76	-0.010764947
150	0xbd6d42dc	-0.05792509
151	0xbd8335e7	-0.064067654
152	0xbe234081	-0.15942575
153	0xbd2313e8	-0.039813906
154	0xbbb13fa2	-0.005409197
155	0xbd880bfb	-0.0664291
156	0xbe4d9431	-0.20076062
157	0xbd13baf8	-0.03606698
158	0xbe96db45	-0.29464164
159	0xbbbcf60f	-0.005766637
160	0xbf0ff254	-0.5622914
161	0xbc2d0d84	-0.010562304
162	0xbbb127d4	-0.005406359
163	0xbb43cfba	-0.0029878453
164	0xbbc19a18	-0.005908262
165	0xbcb10498	-0.021608636
166	0xbba318af	-0.0049773077
167	0xbb0311bf	-0.0019999591
168	0xbe2af0dd	-0.16693445
169	0xbb88746a	-0.0041642683
170	0xbc2190c1	-0.009861172
171	0xbd9c3f08	-0.0762921
172	0xbd94f642	-0.072735325
173	0xbbd03f05	-0.0063551688
174	0xbb64d2f2	-0.0034915772
175	0xbe9160db	-0.28394207
176	0xbcebd457	-0.028787775
177	0xbb971d6a	-0.0046116607
178	0xbbda0ccf	-0.006654359
179	0xbb31db60	-0.0027138814
180	0xbc9fdbea	-0.019514043
181	0xbbbdf0d0	-0.0057965294
182	0xbd64a0a5	-0.055817265
183	0xbe0811b2	-0.13288
184	0xbba4fe41	-0.0050351922
185	0xbb36b859	-0.0027880876
186	0xbe0facb3	-0.14030723
187	0xbbb01f27	-0.0053748074
188	0xbc2ee065	-0.010673617
189	0xbd95d093	-0.07315173
190	0xbbad774e	-0.0052937632
191	0xbc9be55c	-0.019030266
192	0xbbd36ade	-0.0064519485
193	0xbc4fcff4	-0.012683857
194	0xbe2cff00	-0.1689415
195	0xbe9217c9	-0.28533772
196	0xbbdad0a8	-0.006677706
197	0x3df93f7b	0.12170311
198	0xbe933991	-0.28754857
199	0xbd8c19ac	-0.06840834
200	0xbbd02b25	-0.0063527995
201	0xbb9544c6	-0.0045553176
202	0xbcdc5a00	-0.026898384
203	0xbbbb0483	-0.005707325
204	0xbc9ba1f2	-0.01899812
205	0xbb1b0260	-0.0023652539
206	0xbd2d78c2	-0.04235149
207	0xbbab0c88	-0.0052199997
208	0xbc154f52	-0.00911315
209	0xbe26ef54	-0.16302234
210	0xbbcfb990	-0.0063392594
211	0xbbe79876	-0.0070677353
212	0xbbc1459d	-0.005898191
213	0xbe378294	-0.17920905
214	0xbcaccf15	-0.021094838
215	0xbbfae829	-0.00765707
216	0xbc21eede	-0.0098836105
217	0xbd2b28ab	-0.04178683
218	0xbd219f1f	-0.03945839
219	0xbb67ab30	-0.0035349838
220	0xbbc181fb	-0.0059053875
221	0xbb8afea7	-0.0042417827
222	0xbb955e30	-0.004558347
223	0xbca32a63	-0.019917673
224	0xbbdde526	-0.0067717014
225	0x3dd421fa	0.10358043
226	0xbbdeffdc	-0.006805403
227	0xbbb9576f	-0.005656175
228	0xbbee0db4	-0.007264817
229	0xbb86ced4	-0.0041140113
230	0xbb92d543	-0.004480989
231	0xbd53e8a4	-0.051735535
232	0xbba481f3	-0.005020374
233	0xbca9fc0d	-0.02075007
234	0xbdaad9fb	-0.08342358
235	0xbd41cab6	-0.04731246
236	0xbbab882c	-0.005234739
237	0xbc7bce0e	-0.0153689515
238	0xbe1c048e	-0.15236112
239	0xbe43936a	-0.19099203
240	0xbbdb8969	-0.00669973
241	0xbd4ecccb	-0.050488275
242	0xba6864f2	-0.00088651397
243	0xbd385790	-0.04500538
244	0xbbe4c833	-0.0069818734
245	0xbbb2d47a	-0.005457458
246	0xbba13c18	-0.004920494
247	0xbe904015	-0.2817389
248	0xbd18eb91	-0.03733403
249	0xbb8cb8e9	-0.004294504
250	0xbe463644	-0.19356638
251	0xbd9daa2b	-0.076984726
252	0xbc568af2	-0.013094651
253	0xbe95d37e	-0.29262918
254	0xbb9f1eba	-0.004855958
255	0xbc1edda1	-0.009696395

network.6.weight f4 [256, 256]
0	0xb9ff8445	-0.0004873594
1	0xbbaba62c	-0.005238315
2	0x3a01f9e9	0.0004958199
3	0xba731de9	-0.00092741713
4	0xb73a525b	-1.1105639e-05
5	0xba759e3e	-0.0009369588
6	0xb6e2685b	-6.7474734e-06
7	0x38d6d446	0.00010243854
8	0x39a4aad5	0.00031407797
9	0x37d3ee73	2.5264197e-05
10	0xba813987	-0.0009859063
11	0xbb975cae	-0.0046192026
12	0x3a6e4bbe	0.0009090266
13	0x3a421510	0.0007403651
14	0xb97a89a6	-0.00023893136
15	0x384ed913	4.9316393e-05
16	0xb98402c3	-0.0002517906
17	0xbab1f653	-0.0013577439
18	0x39870ea3	0.00025760112
19	0xba186c83	-0.00058145093
20	0xb99e6d44	-0.00030217518
21	0x3a2178a7	0.0006159641
22	0x3996634f	0.0002868422
23	0x3a648b0e	0.00087182305
24	0x39827652	0.00024883688
25	0xb850ccd9	-4.9781844e-05
26	0xba2f3c99	-0.000668475
27	0x3949469b	0.00019195156
28	0x39af3c7b	0.00033423663
29	0xbb928071	-0.004470878
30	0xb9a6d5ce	-0.00031821284
31	0xba55638f	-0.00081401406
32	0x398b2ca2	0.000265454
33	0x39fcfe36	0.00048254587
34	0xb8c411fd	-9.349359e-05
35	0x3a0fca9b	0.00054852077
36	0xb9af9fc1	-0.00033497627
37	0x39da8fc9	0.00041687328
38	0xb8c1fb77	-9.249796e-05
39	0xbbb152af	-0.005411468
40	0x39b76819	0.0003498204
41	0xbb9d21b4	-0.0047952775
42	0x3a155870	0.0005697077
43	0xba32be21	-0.00068184925
44	0xbb57123c	-0.0032817265
45	0xb8e246f8	-0.00010789739
46	0x3a85b0be	0.0010199768
47	0xb9df2b1e	-0.00042566
48	0xb9bca669	-0.0003598214
49	0x3a9b9b44	0.0011871834
50	0xb998a7ca	-0.00029116712
51	0x39cf2418	0.0003950901
52	0x390310c8	0.00012499385
53	0xb9c2a897	-0.00037128173
54	0xba3a2aec	-0.0007101733
55	0x3a61ab26	0.0008608572
56	0x39b9ac2e	0.00035414234
57	0x3a41663e	0.0007377601
58	0xbbafce45	-0.0053651654
59	0x3aab9342	0.0013090151
60	0x3a649fb6	0.00087213085
61	0xb9583398	-0.00020618585
62	0x3a1b0070	0.0005912846
63	0xbb8c3573	-0.0042788326
64	0xba71aa55	-0.0009218802
65	0xba2bea04	-0.00065580034
66	0xb9b5f2f7	-0.00034704033
67	0x3a953e92	0.0011386445
68	0x3a001dc2	0.0004887247
69	0xb75d09ff	-1.3174954e-05
70	0xb9d28ca2	-0.000401591
71	0x38f8604c	0.00011843498
72	0x3a842adb	0.0010083573
73	0xba00c157	-0.00049116224
74	0x399dc729	0.0003009376
75	0xb981f9cb	-0.00024790908
76	0xba27f4dc	-0.00064070313
77	0xba5d1432	-0.00084334903
78	0xba0b238b	-0.00053077255
79	0xbac3e74c	-0.0014946251
80	0x38017257	3.0862484e-05
81	0xb82178a2	-3.849774e-05
82	0x3aa40eb4	0.0012516589
83	0x39fa0a15	0.00047691228
84	0xba1f6a20	-0.00060811825
85	0xb9d7cbb3	-0.00041159763
86	0xba19a62a	-0.0005861247
87	0xb9a5cb7b	-0.00031622857
88	0xba5c5669	-0.000840521
89	0x393b8a30	0.00017885189
90	0x39d25ac2	0.0004012194
91	0xb9f37e2d	-0.0004644258
92	0xbaae1571	-0.0013281537
93	0x39c0d8e7	0.000367827
94	0xba321e02	-0.00067946326
95	0x394b5980	0.0001939293
96	0x3830f9de	4.2194377e-05
97	0xba1952a4	-0.0005848801
98	0x3a0a8567	0.0005284161
99	0x3aaf9bce	0.0013397874
100	0x391ce118	0.00014961173
101	0x3a2c0531	0.0006562053
102	0x39b5efce	0.0003470168
103	0xb72c1e09	-1.0258992e-05
104	0x39913722	0.00027697632
105	0xb982d0b6	-0.00024951034
106	0xb8b06453	-8.411021e-05
107	0xbab52f3b	-0.001382328
108	0xba2b21d2	-0.0006528172
109	0x3a91eb92	0.0011132827
110	0x3a62a9a6	0.00086464954
111	0xba281325	-0.0006411544
112	0x398a45aa	0.00026373315
113	0xb9e9880b	-0.00044542583
114	0xb90e29c9	-0.00013557741
115	0x3a8852b7	0.0010400628
116	0x39766238	0.00023496978
117	0xb98b3891	-0.0002655429
118	0x393d52e6	0.00018055327
119	0x385afa70	5.220849e-05
120	0x39b43123	0.00034368885
121	0x3a0b8483	0.0005322175
122	0x3a17a074	0.0005784102
123	0x3805f843	3.1940883e-05
124	0xb9918c82	-0.00027761242
125	0xb926aa3b	-0.0001589441
126	0x39953b85	0.0002846384
127	0x3a526a17	0.0008026673
128	0xb9e02821	-0.00042754508
129	0x39ca9db7	0.0003864595
130	0x394ad4cc	0.00019343494
131	0x39c651c1	0.00037826414
132	0x39afdd70	0.00033543585
133	0x37f85df2	2.960765e-05
134	0x3a4fd6fd	0.0007928459
135	0xba13f8ce	-0.000564468
136	0x38af515b	8.359804e-05
137	0xb8a500eb	-7.867984e-05
138	0xb91a6ec0	-0.00014727842
139	0xba0c8146	-0.00053598394
140	0x3a291d36	0.0006451191
141	0x39cff401	0.00039663914
142	0x389ecd5b	7.5722775e-05
143	0x3a026c2b	0.0004975225
144	0x3998865e	0.0002909181
145	0x3a5f2394	0.00085120765
146	0xba7b0ffb	-0.00095772714
147	0xb9cc184f	-0.00038928023
148	0x396487d2	0.00021794371
149	0xb96ece6d	-0.00022774348
150	0xbbae78ed	-0.005324474
151	0xba6805c8	-0.0008850959
152	0x39c09684	0.00036733237
153	0x39c0ddea	0.00036786433
154	0xb8adb924	-8.283768e-05
155	0xb9433d5c	-0.00018619507
156	0x3883cf86	6.285221e-05
157	0xba330dc0	-0.0006830357
158	0xbb9c25ec	-0.004765263
159	0x3a89384d	0.001046905
160	0xb9b5a54f	-0.00034646175
161	0xba94954f	-0.0011336001
162	0x39222219	0.00015462226
163	0x38cb3694	9.68996e-05
164	0xb959e5cf	-0.00020780343
165	0x39ef04b8	0.00045589148
166	0xb931c5a3	-0.00016953661
167	0x38c096dc	9.183373e-05
168	0xb980f5b4	-0.00024597126
169	0xbabffaa7	-0.0014646844
170	0x3a701124	0.00091578276
171	0xbb909db3	-0.0044133305
172	0xb8d1e913	-0.0001000931
173	0xbb081750	-0.0020765848
174	0x3863f639	5.435033e-05
175	0xba03c7e0	-0.0005027037
176	0x3a82da98	0.0009983359
177	0xb96579c9	-0.0002188451
178	0xb9e735f8	-0.00044099963
179	0xb9885489	-0.00026002925
180	0xba0b4c06	-0.00053137576
181	0x39bd9eac	0.0003616711
182	0xb891c8ad	-6.9515176e-05
183	0xb90dc2ef	-0.00013519426
184	0xb947250e	-0.00018991923
185	0xb9b96097	-0.00035357915
186	0x39d5aee0	0.00040756818
187	0x396919d0	0.00022230227
188	0xbaa2f7c6	-0.0012433461
189	0x3818598a	3.6323014e-05
190	0x37fc6774	3.0088915e-05
191	0x3996f8e0	0.00028795656
192	0xb8b56907	-8.6503154e-05
193	0x3a00608e	0.00048972
194	0x38b2a695	8.51873e-05
195	0xbb82cf16	-0.0039919717
196	0x386e1913	5.6766974e-05
197	0xba5c8a1e	-0.0008412915
198	0x355ad07a	8.15147e-07
199	0x3a50be2d	0.0007962909
200	0xba1ebf86	-0.0006055761
201	0x3a2d82d2	0.000661892
202	0xb9b886ba	-0.00035195594
203	0x39b7b47f	0.0003503896
204	0xba855dc5	-0.001017504
205	0xb9597db5	-0.00020741562
206	0xba53c7be	-0.0008078775
207	0xba89fe4d	-0.0010528058
208	0xb98e509c	-0.0002714441
209	0xbb7ed946	-0.003888683
210	0x3a095ddb	0.0005240121
211	0xb9e5c94f	-0.0004382827
212	0x3a9f788b	0.0012166662
213	0xba797284	-0.00095156603
214	0x3a2fa43e	0.0006700194
215	0x3a885226	0.0010400459
216	0xb900a725	-0.00012269297
217	0xba93a5ae	-0.0011264586
218	0xba86c7b2	-0.0010282903
219	0x3a9eff82	0.0012130591
220	0xbad311cd	-0.0016103328
221	0xba85dfd1	-0.0010213797
222	0xb9cc176b	-0.0003892736
223	0xb971c442	-0.00023056663
224	0xb99f0fec	-0.00030338706
225	0xb9aaaa24	-0.0003255169
226	0x39b95f9b	0.0003535718
227	0x3a52612d	0.00080253446
228	0xbb832f81	-0.0040034656
229	0x3a848cdf	0.0010112784
230	0x3a9e0bff	0.0012058018
231	0x37be3007	2.267213e-05
232	0xbaae6887	-0.0013306298
233	0xbaac754b	-0.0013157515
234	0xba83ea33	-0.0010064304
235	0xb9eebaac	-0.0004553398
236	0xb89ec0a7	-7.5699114e-05
237	0xba2d8750	-0.00066195894
238	0xbb255d49	-0.0025232604
239	0xbaec6ff1	-0.0018038732
240	0xb9a4f0c7	-0.0003145991
241	0xbbb73306	-0.0055907993
242	0xba016d72	-0.0004937268
243	0xba6e5b17	-0.0009092553
244	0x3993f701	0.00028222057
245	0x39f31fb0	0.0004637218
246	0x3a685752	0.00088631094
247	0x3959284b	0.00020709743
248	0x39f7effc	0.00047290314
249	0x3a37b1fe	0.0007007419
250	0xba0735ac	-0.0005157839
251	0xbb84d009	-0.00405312
252	0xb97b2d50	-0.00023954106
253	0x3a23c9d0	0.0006248029
254	0x3a80a221	0.0009813943
255	0xba88de30	-0.0010442194

network.6.bias f4 [256]
0	0xbbe58793	-0.007004687
1	0xbe007ed0	-0.12548375
2	0xbc2fe447	-0.010735578
3	0xbc0bee24	-0.008540664
4	0xbc612d1e	-0.013743667
5	0xbbe514ce	-0.0069910055
6	0xbceb33b2	-0.028711174
7	0xbce2fc5e	-0.027708229
8	0xbc490065	-0.0122681605
9	0xbc673595	-0.014111896
10	0xbc12172d	-0.008916658
11	0xbdf6032c	-0.12012324
12	0xbbd8fcdd	-0.0066219405
13	0xbd90afec	-0.070648044
14	0xbe032b0f	-0.12809394
15	0xbb875bed	-0.0041308315
16	0x3caa0590	0.020754606
17	0xbcb12edd	-0.021628791
18	0xbe22972c	-0.1587798
19	0xbd5fc8fb	-0.05463503
20	0xbe149e3d	-0.14513488
21	0xbe5c8e27	-0.21538602
22	0xbc4d29fd	-0.012522218
23	0xbe7e38f1	-0.24826409
24	0xbcd12d1e	-0.025534209
25	0xbc069a67	-0.008215523
26	0xbc3e7b73	-0.011626112
27	0xbc0c25d3	-0.00855394
28	0xbc4c0f28	-0.012454785
29	0xbdbe5cad	-0.0929502
30	0xbdbdc706	-0.09266476
31	0xbb3b42b8	-0.0028573703
32	0xbc39b5c6	-0.011334842
33	0xbc242aa9	-0.010019937
34	0x3d05f7b1	0.03270692
35	0xbc6a497d	-0.0142997475
36	0xbbc7445f	-0.0060811485
37	0xbe8e5a47	-0.2780325
38	0xbd74dbe6	-0.059780024
39	0xbe35c870	-0.17752242
40	0xbaefe3a5	-0.0018302096
41	0xbdd8d6cc	-0.10587844
42	0xbb41e4db	-0.0029585871
43	0xbea24c9d	-0.31699076
44	0x3e00598d	0.12534161
45	0xbe375488	-0.1790334
46	0xbe5d03dd	-0.21583505
47	0xbc243b74	-0.01002394
48	0xbac0000a	-0.0014648449
49	0xbd196fd9	-0.03746018
50	0xbd0eaaa0	-0.03483069
51	0xbc43b078	-0.011943929
52	0xbc5c25b7	-0.013436726
53	0xbbecdc29	-0.0072283936
54	0xbe720258	-0.23633707
55	0xbc15a9c8	-0.009134717
56	0xbc310612	-0.01080467
57	0xbe4a8e6f	-0.19780897
58	0xbc8676bd	-0.01641404
59	0xbe8002b1	-0.25002053
60	0xbd24326e	-0.040087156
61	0x3e27349c	0.16328663
62	0xbc96a0e3	-0.018387264
63	0xbc25ad17	-0.010112069
64	0xbe193180	-0.14960289
65	0xbe91e4ae	-0.2849478
66	0xbd3ececf	-0.046583947
67	0xbc2e9f11	-0.010658042
68	0xbdf35af8	-0.11882585
69	0xbdbce326	-0.092230126
70	0xbe3735e2	-0.17891648
71	0xbce5ed20	-0.028067172
72	0xbc4f8cd8	-0.012667857
73	0xbdba762b	-0.0910457
74	0xbbed862a	-0.0072486596
75	0xbd9dbc35	-0.07701913
76	0xbbc34e7c	-0.005960284
77	0xbcfe07fe	-0.03100967
78	0xbbf7be19	-0.007560503
79	0xbd3d5889	-0.04622701
80	0xbe8fa4e3	-0.28055486
81	0xbe2d73b2	-0.16938666
82	0xbc34b70d	-0.011029971
83	0xbb90040a	-0.0043950127
84	0xbe1ecb34	-0.15507203
85	0xbcac2b5a	-0.021016765
86	0xbc0d0d45	-0.008609121
87	0xbea6e153	-0.32593784
88	0xbe2a7963	-0.16647868
89	0xbdac8c33	-0.084251784
90	0xbd209bec	-0.0392112
91	0xbc304bc1	-0.010760249
92	0xbaf3bd13	-0.0018595777
93	0xbbf4463a	-0.0074546607
94	0xbc582271	-0.013191805
95	0xbe2ca175	-0.16858466
96	0xbe2845cf	-0.1643288
97	0x3be83c81	0.0070872908
98	0xbec75a09	-0.3893588
99	0xbd6be361	-0.057589892
100	0xbade73d1	-0.0016971772
101	0xbc452d63	-0.012034747
102	0xbb0fda17	-0.002195006
103	0xbddad482	-0.10685064
104	0x3c4dd778	0.012563579
105	0xbbcf0271	-0.0063174297
106	0xbce37153	-0.027763998
107	0xbbffeb54	-0.0078100357
108	0xbb9fca49	-0.004876409
109	0xbe301528	-0.1719557
110	0xbd04c1b8	-0.032411307
111	0x3e354a10	0.17704034
112	0xbba8abf2	-0.0051474506
113	0xbdc0670d	-0.093946554
114	0xbca4bd89	-0.020109909
115	0xbc56561a	-0.013082052
116	0xbe2af379	-0.1669444
117	0xbd0bd84e	-0.03414183
118	0xbd85095e	-0.06495927
119	0xbc6f8ded	-0.01462124
120	0xbc4a0809	-0.012331017
121	0xbd4c2d76	-0.049848042
122	0xbc820c8e	-0.015875127
123	0xbddab3f6	-0.10678856
124	0xbccef499	-0.025263118
125	0xbc40fbf4	-0.01177882
126	0xbe4584c7	-0.19288932
127	0xbc183dae	-0.009292049
128	0xbc012fb8	-0.007884912
129	0xbd4b0f1f	-0.049574967
130	0xbcf1a42e	-0.029497232
131	0xbbb34a2c	-0.0054714885
132	0xbc15cf81	-0.009143711
133	0xbe07e249	-0.13269915
134	0xbe5f25dc	-0.21791786
135	0xbc8d3740	-0.01723826
136	0x3d97aeae	0.074063644
137	0xbae19bd8	-0.0017212583
138	0xbd0fc2b2	-0.035097785
139	0xbd77c1a9	-0.060487423
140	0xbe9f71af	-0.3114142
141	0xbcf9b4a5	-0.030481646
142	0xbb2c7100	-0.002631247
143	0xbd8b3957	-0.06798046
144	0xbdfabe5b	-0.12243339
145	0xbd8a8c0a	-0.067649916
146	0xbd45d8c4	-0.048302427
147	0xbe4d7b4e	-0.20066568
148	0xbaf35098	-0.0018563448
149	0xbbd18cb8	-0.006394949
150	0x3cf9d3a8	0.030496433
151	0xbd0833be	-0.03325247
152	0xbe0a0936	-0.13480076
153	0xbc1b2574	-0.009469379
154	0xbd18426a	-0.037172712
155	0xbc4ea2e1	-0.012612076
156	0xbd1628da	-0.036660053
157	0xbd3bd7f4	-0.045860246
158	0xbe372907	-0.17886744
159	0xbda79754	-0.081831604
160	0xbcae9a33	-0.021313762
161	0xbd38f3af	-0.04515427
162	0xbc1e6e4c	-0.0096698515
163	0xbe8c2465	-0.27371517
164	0xbd9b64c5	-0.0758758
165	0xbbce2e84	-0.006292166
166	0xbc87cfc4	-0.016578563
167	0xbad4a232	-0.0016222654
168	0xbd6397b5	-0.0555646
169	0x3d5efb14	0.054438666
170	0x3dabeff2	0.08395375
171	0xbd71e2f0	-0.059054315
172	0xbb84b789	-0.0040501994
173	0xbce097b7	-0.027416093
174	0xbafc5e91	-0.0019254257
175	0x3d0851f9	0.0332813
176	0xbd9da7fd	-0.07698057
177	0xbbf5637f	-0.0074886675
178	0xbd77477f	-0.06037092
179	0xbe99f8c6	-0.30072612
180	0xbaf93ed5	-0.0019015918
181	0xbca0152f	-0.019541351
182	0xbd1f4c3b	-0.03889106
183	0xbe264361	-0.1623664
184	0x3dadf9d7	0.08494919
185	0xbc0fd9e3	-0.008779976
186	0xbd0eb553	-0.034840893
187	0xbbd1366d	-0.006384662
188	0x3e7d7572	0.24751833
189	0xbc619d11	-0.013770358
190	0xbafeef6f	-0.0019450019
191	0xbcf6e611	-0.030139001
192	0xbacc12c5	-0.0015569559
193	0xbbcc0376	-0.0062259985
194	0xbe840ef2	-0.25792652
195	0xbd03c4ad	-0.032169987
196	0xbd95e667	-0.073193364
197	0xbe140a4d	-0.14457054
198	0xbc61bd2d	-0.013778013
199	0xbe6727e0	-0.22573805
200	0xbc12cd8a	-0.008960137
201	0xbd7be4e4	-0.061497584
202	0xbc806ab6	-0.015675884
203	0xbce40790	-0.027835637
204	0xbb573d4d	-0.0032842935
205	0xbc748a2d	-0.014925522
206	0x3de31800	0.11088562
207	0xbc706233	-0.01467185
208	0xbc36176a	-0.011113981
209	0xbd54ec77	-0.051983323
210	0x3e1b6fac	0.15179318
211	0xbe22fa91	-0.15915896
212	0xbbf17cc6	-0.0073696105
213	0xbc12398b	-0.008924852
214	0xbd9fbba3	-0.07799461
215	0xbe54949a	-0.20759812
216	0xbc75921a	-0.014988447
217	0x3db3feff	0.08788871
218	0xbcec0295	-0.028809825
219	0xbba21012	-0.0049457634
220	0xbd2415f4	-0.04006
221	0xbc7372d5	-0.014858921
222	0xbdffaf21	-0.12484575
223	0xbe4c1a0e	-0.19931814
224	0xbe07ea12	-0.13272884
225	0xbc8751e4	-0.01651854
226	0xbe9d6ac1	-0.3074551
227	0xbc072959	-0.008249604
228	0xbe2d03f6	-0.16896042
229	0xbc1dce0a	-0.009631643
230	0x3da6f75d	0.081526496
231	0xbdf1628d	-0.11786375
232	0xbc145fdd	-0.009056059
233	0x3e368e3d	0.17827697
234	0xbe028037	-0.12744223
235	0xbc605a9b	-0.013693477
236	0xbd890c42	-0.06691791
237	0x3df55dca	0.119807795
238	0xbdaa6106	-0.08319287
239	0xbb9711df	-0.0046102847
240	0xbc2099cb	-0.009802292
241	0xbc8c2bce	-0.017110731
242	0xbbde36cc	-0.0067814346
243	0xbc210588	-0.009827979
244	0x3d6c3ea6	0.057676934
245	0xbc36278c	-0.011117827
246	0xbc129f0d	-0.0089490535
247	0xbd0e3b59	-0.034724567
248	0xbe7b4263	-0.24537043
249	0xbc37aa21	-0.0112099955
250	0xbe6cfc62	-0.23143151
251	0xbc40d1d1	-0.011768774
252	0xbc2e3fcc	-0.010635328
253	0xbc455213	-0.012043494
254	0xbc3fcf18	-0.01170709
255	0xbdc62beb	-0.096763454

mu.weight f4 [2, 256]
0	0x3b728d09	0.0037010333
1	0x3df1a6b3	0.117993735
2	0x3ca71c22	0.020399157
3	0x3c6e9a20	0.014563113
4	0x3bc4fe71	0.006011777
5	0x3ba434fa	0.005011198
6	0x3cb7728f	0.022393493
7	0xbae54dea	-0.0017494534
8	0xbbd2623e	-0.006420403
9	0xba21f606	-0.0006178323
10	0xbc099047	-0.008396215
11	0xbc75ee90	-0.015010491
12	0x3ba8b1d1	0.0051481505
13	0x3dbbe6b2	0.09174861
14	0x3daa86d9	0.083265014
15	0x3b076b4a	0.0020663314
16	0x3e11f5d3	0.14253931
17	0xbc944221	-0.018097939
18	0xbdf3cef1	-0.11904705
19	0xbd70fa2f	-0.058832344
20	0xbd2d3b69	-0.042292986
21	0x3cc83d2c	0.024443232
22	0x3c0f9059	0.0087624425
23	0xbcc40699	-0.023928927
24	0x3d93b40b	0.07212075
25	0x3ba3cdac	0.004998883
26	0xbb14a240	-0.0022679716
27	0x3becdf8a	0.0072287964
28	0x3c1e72dc	0.009670939
29	0x3c0f1c51	0.0087347785
30	0x3de292fd	0.11063192
31	0xba4f7306	-0.0007913563
32	0xbb595617	-0.0033162886
33	0x3bb728f3	0.0055895983
34	0xbda7e46a	-0.081978634
35	0x3bbbb2b9	0.0057280925
36	0xba7cdc93	-0.0009645905
37	0xbce8a4dd	-0.028398925
38	0x3cc0cbe6	0.023534726
39	0x3d6c90eb	0.057755392
40	0xba39a9c1	-0.0007082485
41	0xbc36f0ec	-0.011165839
42	0x3b4f1389	0.0031597337
43	0x3ce7dacb	0.02830257
44	0xbc158100	-0.009124994
45	0xbdf4ee3a	-0.119595006
46	0xbcc8e694	-0.02452401
47	0x3b63998e	0.0034728977
48	0xba218911	-0.0006162087
49	0xbb8c86f5	-0.004288549
50	0x3ce4cba1	0.02792913
51	0x3a44f1b7	0.0007512825
52	0xbbafdaea	-0.0053666728
53	0xbb14da44	-0.0022713104
54	0x3ddc4ccd	0.10756836
55	0xbacea569	-0.0015765849
56	0x3b418b9f	0.0029532684
57	0x3caf937f	0.021432636
58	0xba5031f6	-0.0007942015
59	0xbcdf3100	-0.027245045
60	0x3daf0fb8	0.0854792
61	0xbe6e759a	-0.23287049
62	0x3d4d13c6	0.050067686
63	0xbc1ec13a	-0.0096896235
64	0xbc8a1b81	-0.016858818
65	0x3d0f4ea6	0.034987114
66	0x3a37693a	0.0006996576
67	0xb9c7cd24	-0.0003810908
68	0xbc396e81	-0.01131785
69	0x3aa68d0b	0.0012706829
70	0x3d81015a	0.06299086
71	0x3bc5fa1f	0.0060417796
72	0x3993dfbb	0.00028204717
73	0xbe76f48a	-0.24116722
74	0x3729518d	1.00921725e-05
75	0x3c69f71e	0.014280109
76	0xbaefbd02	-0.0018290582
77	0xbc95af57	-0.018272085
78	0x3b99b2d2	0.0046905065
79	0x3df01cc3	0.11724236
80	0xbb6eb64f	-0.0036424582
81	0xbc2d302b	-0.010570566
82	0x3c1142ec	0.008866053
83	0xbbbd55b9	-0.005778041
84	0x3bb02d18	0.0053764693
85	0xbca38084	-0.019958742
86	0xbb8955e8	-0.004191149
87	0x3d515da7	0.051114704
88	0xbcdf97f4	-0.027294137
89	0xbb306982	-0.0026918356
90	0x3d04e9e3	0.032449614
91	0xbb8601b9	-0.004089561
92	0xbac37016	-0.0014910724
93	0x3baf0f9d	0.0053424374
94	0xbbab3972	-0.005225354
95	0x3d117ad5	0.035517532
96	0x3d6bdd80	0.057584286
97	0xbec26948	-0.37970948
98	0x3d16bd9e	0.036801927
99	0xbdf80c87	-0.121117644
100	0xba45cf23	-0.00075458194
101	0xbbb1b06a	-0.0054226415
102	0xba35f159	-0.00069405657
103	0xbbcc4eec	-0.006234994
104	0xbd64bf23	-0.055846345
105	0x3b87678e	0.0041322177
106	0x3de9fcbc	0.114251584
107	0x3c1daf13	0.0096242605
108	0x3a554e71	0.0008136994
109	0xbdc3d380	-0.09561825
110	0xbc594483	-0.013260963
111	0xbd2d3199	-0.042283628
112	0xbd4e5215	-0.05037125
113	0x3d48dc9e	0.049038522
114	0xbc1840b9	-0.009292775
115	0xbbdc3c60	-0.0067210644
116	0x3c53b135	0.012920667
117	0x3d01e513	0.031712603
118	0xb9026d64	-0.00012438517
119	0xbc241873	-0.010015595
120	0xbbda2108	-0.0066567697
121	0x3adad0d3	0.0016694315
122	0x3c3bd087	0.011463291
123	0x3e638166	0.2221733
124	0xba195a90	-0.00058499817
125	0x3c31b493	0.010846275
126	0x3d9558cb	0.072923265
127	0x3bd7c6e6	0.00658499
128	0x3be11af1	0.0068696667
129	0x3cfc02d6	0.030763071
130	0xbc99e2e6	-0.018784951
131	0x3b1abf6c	0.0023612631
132	0x3ba4fe72	0.005035215
133	0xbce38d21	-0.027777256
134	0x3ded0afe	0.11574362
135	0x3b697ed8	0.0035628583
136	0xbb93960b	-0.0045039705
137	0x3a79d85d	0.0009530837
138	0xbc1f6f88	-0.009731181
139	0x3ac6c3c6	0.0015164546
140	0xbd1c0e74	-0.03809972
141	0x3d94d092	0.07266344
142	0x3ab5fcf5	0.0013884591
143	0xbc7e1231	-0.015507267
144	0xbdc04079	-0.09387297
145	0x3d926099	0.07147331
146	0xbcd09ffc	-0.025466911
147	0xbd9f181c	-0.077682704
148	0xba811396	-0.0009847756
149	0x3bc832ce	0.006109572
150	0xbe459851	-0.19296385
151	0xbc286662	-0.010278316
152	0x3d3c9fa6	0.04605069
153	0x3b409aee	0.002938922
154	0xbd0fb4c8	-0.035084516
155	0xbb90461b	-0.0044028885
156	0xbc2108c9	-0.009828755
157	0xbe84960e	-0.25895733
158	0xbad67f7f	-0.0016364901
159	0x3d4e3e17	0.050352182
160	0xbd4db99a	-0.05022583
161	0x3d0a2d2a	0.033734478
162	0xbc068f68	-0.008212902
163	0x3d2ba62e	0.04190653
164	0x3e293c9f	0.16527031
165	0x3a4082e0	0.00073437206
166	0xba5943a0	-0.000828797
167	0xbaafd77f	-0.0013415663
168	0x3d4a18f6	0.04934021
169	0x3dee6ac9	0.116414614
170	0xbc2e163d	-0.010625419
171	0x3d042ac7	0.03226736
172	0x3bb250db	0.0054417676
173	0xbc1f2f6f	-0.009715899
174	0xbab33e40	-0.0013675168
175	0x3dfad6b4	0.122479826
176	0x3b98a226	0.0046580015
177	0x3b89eba8	0.0042090006
178	0xbcbde83a	-0.023182023
179	0x3e1a684c	0.15078849
180	0x3b7efc9d	0.0038907893
181	0x39a30d98	0.0003109991
182	0x3bba21a0	0.005680278
183	0x3ca49886	0.02009226
184	0xbe26c222	-0.16284993
185	0x38e6d7b0	0.000110074296
186	0xbbc37070	-0.0059643313
187	0xba30bf34	-0.00067423587
188	0xbd7b06eb	-0.061285894
189	0x3b8269d8	0.0039799027
190	0x3b754319	0.0037424027
191	0x3d19f7ac	0.037589714
192	0x381bc5e3	3.7139176e-05
193	0x3bac3c25	0.005256193
194	0x3df1fa98	0.11815375
195	0x3c3ec24a	0.011643002
196	0x3cb65d5e	0.022261318
197	0xbc892c58	-0.016744778
198	0xbbc910e3	-0.0061360463
199	0x3bc6d26d	0.006067565
200	0x3c0dfd9a	0.00866642
201	0xbd32d42b	-0.04365937
202	0xbc14330c	-0.009045374
203	0xbc0b4737	-0.008500866
204	0xbb5667ba	-0.0032715634
205	0xbb98620b	-0.0046503595
206	0xbe52adfb	-0.20574181
207	0xbb9a2970	-0.0047046468
208	0xbc00f8ba	-0.007871801
209	0xbcb41e2a	-0.02198704
210	0xbc6ebdf0	-0.014571652
211	0x3db6cb13	0.08925452
212	0xbbc054ce	-0.0058694845
213	0x3bf33e53	0.007423201
214	0xbe1cad12	-0.15300396
215	0xbdd1d1e6	-0.10245113
216	0x3be1dfda	0.0068931403
217	0xbea53e0f	-0.3227391
218	0xbc083ab9	-0.008314782
219	0x3c0958ba	0.0083829705
220	0x3c863b6b	0.016385755
221	0xbba124d3	-0.00491772
222	0xbc8777f6	-0.016536694
223	0x3cbcc22e	0.02304181
224	0x3d2e26d8	0.042517513
225	0xbbaa33f5	-0.005194182
226	0xbd4ac8fa	-0.049508072
227	0x3c29d211	0.010365025
228	0x3d32673e	0.04355549
229	0xbbdfc7a9	-0.0068292213
230	0xbd35e6a4	-0.04440941
231	0x3deafdfe	0.114742264
232	0xbc347037	-0.011013082
233	0xbd1ad86f	-0.037804063
234	0xbc0918d8	-0.00836774
235	0xbb10ee60	-0.0022114739
236	0x3d5b62f6	0.053561173
237	0xbd52f27f	-0.051500794
238	0x3c565572	0.013081895
239	0xbacb8dd5	-0.001552994
240	0xbbf32a84	-0.0074208397
241	0xbb24ab18	-0.0025126394
242	0x3e0caa00	0.13736725
243	0xbbcec8ea	-0.006310572
244	0xbd08db24	-0.033412114
245	0x3c13c190	0.009018317
246	0x3be0696b	0.0068485043
247	0xbdbd852a	-0.09253915
248	0x391f4135	0.00015187713
249	0x3c12f701	0.008970023
250	0x3cf6da1a	0.030133296
251	0xbb1131bf	-0.0022154895
252	0x3bbea12e	0.005817554
253	0xbbcf26d2	-0.0063217664
254	0x3bb8bd9b	0.005637837
255	0x3ddd8e29	0.108181305

mu.bias f4 [2]
0	0x3df54c02	0.11977388
1	0x3e10a3e4	0.1412502
