animation_PPO/models/second_critic.pt (torch, 546593 bytes, 7 tensors)

network.0.weight f4 [256, 14]
0	0xbeb7c14e	-0.35889667
1	0x3dd83f15	0.10558907
2	0xbc981ea2	-0.018569294
3	0xbd1b0a6f	-0.037851747
4	0x3d61dfc9	0.05514506
5	0xbd1c476b	-0.038154047
6	0xbe2b4dcf	-0.167289
7	0xbe1a9e5f	-0.15099476
8	0xbdf4ce85	-0.11953453
9	0xbdac397b	-0.08409401
10	0xbe0cbdb0	-0.13744235
11	0xbdba0edf	-0.09084868
12	0x3deb5fff	0.11492919
13	0xbdbc0081	-0.091797836
14	0xba0bade1	-0.0005328339
15	0x3c960efc	0.018317692
16	0xbd1ac8d1	-0.03778917
17	0x3dd060bc	0.101747006
18	0xbd039fa0	-0.032134652
19	0xbdaa7786	-0.083235785
20	0xbdc0b3e2	-0.0940931
21	0xbac2a96f	-0.001485152
22	0xbd6811bd	-0.05665754
23	0x3c4cff20	0.012511998
24	0xbb4a180a	-0.0030837082
25	0xbdbddc79	-0.092705674
26	0xbda67126	-0.0812705
27	0xbd1ebacb	-0.03875236
28	0xbe18017a	-0.14844313
29	0xbbd7efc7	-0.006589863
30	0x3d9f72a7	0.0778554
31	0xbd92dcc7	-0.07171016
32	0xbe41778a	-0.18893257
33	0xbd4d2bfc	-0.050090775
34	0xbcce91eb	-0.025216063
35	0xbd9fc5d1	-0.07801402
36	0x3d70b7dc	0.058769092
37	0xbd41115d	-0.0471357
38	0xbcd2fc4e	-0.025755074
39	0xbd848b91	-0.06471933
40	0xbcfb3044	-0.030662663
41	0xbc2c0945	-0.010500257
42	0x3cd3878e	0.025821473
43	0x3c6b594e	0.014364554
44	0xbd83b815	-0.06431595
45	0xbd5d5988	-0.05404046
46	0xbc64fd32	-0.013976382
47	0x3ca73b5f	0.020414053
48	0xbccfb3f4	-0.025354363
49	0x3aefccbe	0.0018295271
50	0x3c8b8dfa	0.017035473
51	0xbd0c4f78	-0.034255475
52	0xbd10f6a3	-0.03539146
53	0xbcd2180d	-0.025646234
54	0xbdcc4e64	-0.09975889
55	0xbdb80897	-0.089860134
56	0xbeb6a196	-0.35670155
57	0x3f69fd94	0.91402555
58	0xbd45e4cf	-0.048313912
59	0xbe519c1d	-0.20469709
60	0x3ea2b960	0.31782055
61	0xbe47f1aa	-0.19525781
62	0xbf6ffb35	-0.93742687
63	0xbed67316	-0.4188468
64	0x3f2af46c	0.6677921
65	0x3e79c716	0.24392352
66	0xbe3d8d20	-0.18510866
67	0xbe0839f0	-0.13303351
68	0xbefd521a	-0.494767
69	0xbd6e2d54	-0.058148697
70	0x3e1c0d93	0.15239553
71	0xbbf92626	-0.0076034246
72	0x3db59176	0.08865635
73	0xbe551d86	-0.20812044
74	0xbdcff0bf	-0.101533405
75	0xbbbeeca5	-0.00582655
76	0xbcaead93	-0.021323001
77	0xbdb6ac1e	-0.089195475
78	0xbc5eb65a	-0.013593281
79	0xbd09e39a	-0.033664323
80	0xbdd705d3	-0.10499158
81	0xbe02848b	-0.12745874
82	0xbd118afe	-0.035532944
83	0x3db8a184	0.09015182
84	0x3ea5ea0c	0.32405126
85	0xbe95c2fe	-0.2925033
86	0x3c86aa81	0.016438724
87	0xbcc05d20	-0.023481905
88	0xbd737162	-0.059434302
89	0x3b13ae4c	0.002253431
90	0xbe174996	-0.14774165
91	0xbd7628b2	-0.060097404
92	0xbe2ca001	-0.16857912
93	0x3cbe6beb	0.023244819
94	0x3d511990	0.05104977
95	0xbd5c0e42	-0.053724535
96	0xbe0decb0	-0.1385982
97	0xbd8278bd	-0.06370685
98	0x3f859ea8	1.0439043
99	0x3ecdf970	0.40229368
100	0x3dd68dcb	0.104762636
101	0x3c99d850	0.018779904
102	0x3d0ad58e	0.033895068
103	0x3dddef1f	0.10836624
104	0xbe142697	-0.14467846
105	0xbdae2708	-0.08503538
106	0xbe4cb476	-0.19990715
107	0xbdc9064d	-0.09815655
108	0xbeb1695e	-0.346507
109	0xbec13c81	-0.37741473
110	0xbe56b7bb	-0.20968525
111	0xbe84c1c7	-0.2592909
112	0x3e98fe67	0.29881594
113	0xbf793641	-0.9734841
114	0xbe53f8b1	-0.20700337
115	0x3d3d4e56	0.046217285
116	0xbd5429da	-0.051797725
117	0xbd2b2b69	-0.041789446
118	0xbd103422	-0.035205968
119	0xbe81beb6	-0.25340813
120	0xbdeff4f2	-0.117166415
121	0xbe3f1fa1	-0.18664409
122	0xbc8a832c	-0.01690825
123	0xbde00721	-0.1093886
124	0xbe81ec76	-0.25375718
125	0xbe81501b	-0.25256428
126	0xbd8782b2	-0.06616725
127	0x3d0721a5	0.03299107
128	0xbd9cb582	-0.07651807
129	0xbde3d519	-0.111246295
130	0x3cb93aa3	0.022610968
131	0x3d385bf9	0.045009587
132	0x3cc61cfd	0.024183745
133	0xbcb237b4	-0.021755077
134	0xbd73f808	-0.059562713
135	0xbd1929c1	-0.037393335
136	0xbe134dff	-0.14385222
137	0xbe3b8f51	-0.1831639
138	0xbdb3f739	-0.08787388
139	0xbd64155a	-0.055684425
140	0xbca4372c	-0.02004584
141	0x3d51fd6f	0.051267084
142	0xbd4683f3	-0.04846568
143	0x3b8bac8e	0.0042625135
144	0x3d3aa002	0.04556275
145	0xbd2aba5c	-0.041681632
146	0xbd27be7a	-0.040953137
147	0xbdb8cef0	-0.09023845
148	0xbe023eb3	-0.1271923
149	0x3c19af9b	0.0093802465
150	0xbd64c49a	-0.055851556
151	0xbdf29ebb	-0.11846682
152	0xbd337327	-0.04381099
153	0x3d14cfef	0.036331113
154	0xbf9bdfa8	-1.217763
155	0xbe308db1	-0.17241551
156	0xbe905d17	-0.28196022
157	0xbe42698d	-0.18985577
158	0x3e24bfba	0.16088763
159	0xbe408871	-0.18802048
160	0xbe189d4c	-0.14903754
161	0xbf35a761	-0.70958525
162	0xbebe6f49	-0.3719428
163	0xbf1c03f9	-0.6094356
164	0xbe3a0ca9	-0.18168892
165	0x3df7fc76	0.121087
166	0xbc776935	-0.015100767
167	0xbe9cbe77	-0.30614063
168	0x3f4a9407	0.7913212
169	0x3efd7844	0.49505818
170	0xbe13ea26	-0.1444479
171	0xbf899f7b	-1.0751795
172	0xbe8d7bae	-0.27633423
173	0x3e25fb48	0.16209137
174	0x3e5064d0	0.20350957
175	0x3c8b4665	0.01700134
176	0xbe8dd3f1	-0.2770076
177	0xbde933bc	-0.11386821
178	0xbd7ec9d2	-0.06220419
179	0xbe35f656	-0.17769751
180	0xbe4e6577	-0.20155893
181	0x3d50ef86	0.051009677
182	0x3e19db75	0.15025122
183	0xbd2752fc	-0.040850624
184	0xbda70821	-0.08155847
185	0xbdce5d93	-0.100764416
186	0x3b1fe262	0.002439641
187	0x3ad226dc	0.001603331
188	0xbe006eba	-0.12542239
189	0x3db31e89	0.087460585
190	0xbb3d5ce3	-0.0028894476
191	0xbcf2d3be	-0.029641982
192	0x3cd290d8	0.025703833
193	0xbe3f28f0	-0.1866796
194	0xbe1a06e6	-0.15041694
195	0x3d960e3e	0.07326935
196	0xc01af74f	-2.4213445
197	0xbf52095f	-0.8204555
198	0xbd971ec2	-0.073789135
199	0xbeba8de6	-0.36436385
200	0xbe0b6704	-0.13613516
201	0xbe4e9f78	-0.2017802
202	0xbd43e348	-0.047824174
203	0xbdd603dc	-0.10449955
204	0xbe1b068a	-0.15139213
205	0xbe9a8d11	-0.3018575
206	0xbe07d3fd	-0.13264461
207	0xbeb9f0ca	-0.3631652
208	0xbe3f9e9e	-0.18712851
209	0xbe746f2d	-0.23870535
210	0x3f2d67be	0.67736423
211	0x3e880f3e	0.2657413
212	0xbf0a5ed7	-0.54050964
213	0xbe893ac3	-0.26802644
214	0x3d12379d	0.03569757
215	0xbe073026	-0.13201961
216	0xbd9559ca	-0.072925165
217	0x3d3a21a6	0.045442246
218	0x3d1b5b20	0.0379287
219	0xbcb3a93d	-0.021931285
220	0xbdefab80	-0.11702633
221	0xbd61f02f	-0.055160698
222	0xbec1442d	-0.37747326
223	0xbdfdcef3	-0.12392988
224	0x3f37884d	0.71692353
225	0x3e82c403	0.2554017
226	0x3e4340f7	0.19067751
227	0xbfebda10	-1.8425922
228	0x3e6c0700	0.23049545
229	0x3eff7bdf	0.49899194
230	0x3e79293e	0.24332139
231	0x3cd6c66b	0.02621766
232	0xbe110924	-0.14163643
233	0x3e4ed80d	0.20199604
234	0xbbdd15db	-0.00674699
235	0x3b7ddea0	0.0038737431
236	0x3e85f8ce	0.26166385
237	0x3efa7ccc	0.48923337
238	0x3e9b44f5	0.30326048
239	0xbe58b415	-0.21162446
240	0x3dda1d40	0.1065011
241	0xbdc89801	-0.097946174
242	0xbc484a99	-0.012224817
243	0xbd91e947	-0.07124572
244	0x3bb8fa9f	0.0056451107
245	0xbda82d79	-0.08211798
246	0xbde56e01	-0.11202622
247	0xba920683	-0.0011140857
248	0x3b5e55f0	0.0033925734
249	0xbd3fd924	-0.04683794
250	0x3cd50371	0.026002618
251	0xbd6b8539	-0.057500098
252	0x3da300d0	0.07959139
253	0x3d3a2ab5	0.045450885
254	0xbdb7e507	-0.089792304
255	0xbcff8d90	-0.031195432

network.0.bias f4 [256]
0	0xbcb35c3e	-0.02189457
1	0xbc9c0a33	-0.019047832
2	0xbcf0c19e	-0.029389199
3	0x00000000	0.0
4	0x3ea3411c	0.31885612
5	0xbb87c37a	-0.0041431757
6	0xbdb44d02	-0.088037506
7	0xbe757f0a	-0.23974243
8	0xbc311af0	-0.010809645
9	0xbc9ceb16	-0.019155066
10	0xbcc7d44a	-0.02439322
11	0x3c35b576	0.011090627
12	0x3dc24e4c	0.0948759
13	0xbd88ea83	-0.066853546
14	0xbe031602	-0.12801364
15	0xbdca9d20	-0.098932505
16	0x3ebf59ae	0.37373108
17	0xbe3949f0	-0.18094611
18	0x00000000	0.0
19	0x3e9b9911	0.30390218
20	0xbc6b0119	-0.014343523
21	0x3e0ba924	0.13638741
22	0xbef6244f	-0.48074576
23	0x3ef7e3c8	0.4841597
24	0x3aab9197	0.0013089654
25	0xbe3aae20	-0.18230486
26	0xbce8ef1b	-0.028434327
27	0xbd94ee82	-0.07272054
28	0xbd2515c3	-0.040303957
29	0x3eaee1e4	0.34156716
30	0xbcd8ca1f	-0.026463566
31	0xbd4e0af2	-0.050303407
32	0xbc1ae06b	-0.0094529195
33	0xbc1c1626	-0.009526765
34	0xbd14920d	-0.036272097
35	0xbd8de7fc	-0.06929013
36	0xbe48c5f1	-0.19606759
37	0xbd74309f	-0.05961668
38	0xbd3327b9	-0.043739054
39	0x3ec95f1e	0.3933038
40	0xbe3e4979	-0.18582715
41	0xbca90280	-0.020631075
42	0x3eb8b63a	0.36076528
43	0xbd38f0ac	-0.045151398
44	0xbc2ee44b	-0.0106745465
45	0xbd1e8f60	-0.03871095
46	0xbcbf93eb	-0.023385962
47	0x3f0664e5	0.524977
48	0xbdea76f0	-0.11448467
49	0xbc21dab5	-0.009878804
50	0xbd20dcbc	-0.03927301
51	0xbdb7e81c	-0.08979818
52	0xbd0112a2	-0.03151191
53	0xbe01a479	-0.12660398
54	0xbcf58d1d	-0.029974515
55	0x3ed3fa4e	0.41401905
56	0xbe029af9	-0.1275443
57	0xbd5d521a	-0.054033376
58	0x3eb85ba1	0.36007407
59	0xbdb73958	-0.08946484
60	0xbcff5fc6	-0.031173598
61	0x3bf5e6b1	0.007504307
62	0x3f016a40	0.5055275
63	0x3f057555	0.5213216
64	0xbce171e7	-0.027520133
65	0xbd68f6a3	-0.056875836
66	0x3d76409c	0.06012021
67	0xbd8d0b14	-0.068868786
68	0xbdf84f3e	-0.12124489
69	0xbd947282	-0.07248403
70	0xbe0fc220	-0.14038897
71	0xbd193918	-0.037407964
72	0xbc1fc53a	-0.009751612
73	0x3ea7ea36	0.32795876
74	0xbd17123d	-0.036882628
75	0x3ec72d18	0.3890159
76	0x3f4d698a	0.80239165
77	0x3e701996	0.2344726
78	0xbcfa79fc	-0.030575745
79	0xbe8ba60b	-0.27275118
80	0x3e8297f6	0.25506562
81	0xbd01a1b6	-0.03164836
82	0x00000000	0.0
83	0xbcf9fd38	-0.030516252
84	0xbe3ac9d2	-0.18241051
85	0xbd745ab3	-0.05965681
86	0xbd6ba50b	-0.057530444
87	0xbe0c2aa6	-0.13688144
88	0xbe6bb7cb	-0.2301933
89	0xbd1ece20	-0.038770795
90	0xbc1ba1db	-0.009499039
91	0x3c6a6585	0.014306431
92	0xbcc1145a	-0.023569275
93	0xbe790bcc	-0.24320906
94	0x3e2fac09	0.1715547
95	0xbe28e7ab	-0.16494624
96	0xbd35d3b6	-0.044391356
97	0xbde27d4f	-0.11059057
98	0x3f37eccd	0.71845704
99	0xbdd19acc	-0.10234603
100	0xbc1bc424	-0.009507213
101	0x3e911c91	0.28342107
102	0xbdc471c6	-0.09592013
103	0xbd08e2ba	-0.03341935
104	0xbd8fe9f9	-0.070270486
105	0xbd745182	-0.059648044
106	0xbdf525f6	-0.11970131
107	0xbd7d1870	-0.061790884
108	0x00000000	0.0
109	0x3e63fffa	0.22265616
110	0x3f1c9eec	0.61179996
111	0x3f3652fd	0.7122038
112	0xbc1fdc5e	-0.0097571295
113	0x3ef84b5c	0.48494995
114	0xbde6c202	-0.11267473
115	0xbdeedd58	-0.11663312
116	0xbddf2689	-0.10896022
117	0xbd531926	-0.051537655
118	0xbcbda159	-0.023148226
119	0xbe058b74	-0.13041478
120	0xbcb9e3c4	-0.022691615
121	0xbac2b155	-0.0014853874
122	0xbb26668a	-0.0025390708
123	0xbdd745bb	-0.10511347
124	0xbb8926f4	-0.004185552
125	0xbe6b03d4	-0.22950679
126	0x3ecf54e6	0.4049446
127	0x3f00ee7f	0.50363916
128	0xbdcc36ed	-0.09971414
129	0x3e9505e5	0.2910606
130	0xbbf18878	-0.0073710047
131	0xbe4ec67f	-0.20192908
132	0xbeb0ff4f	-0.34569785
133	0xbc49facf	-0.012327864
134	0x3efce33e	0.49392122
135	0xbde2faaf	-0.1108297
136	0xbd858d92	-0.06521143
137	0xbd17147a	-0.036884762
138	0xbd1924a3	-0.037388455
139	0xbdde4bff	-0.10854339
140	0xbba76c93	-0.0051093786
141	0xbd287ab0	-0.04113263
142	0xbcce59a1	-0.025189223
143	0x3d65e3de	0.056125514
144	0xbd32e9e2	-0.04368008
145	0x3ee1085d	0.43951693
146	0xbe21eb05	-0.15812309
147	0x3f01a917	0.50648636
148	0xbbdd532f	-0.006754301
149	0xbe5a7b71	-0.21336152
150	0xbddada0a	-0.10686119
151	0x3da909d5	0.082538284
152	0xbd5058f7	-0.050866093
153	0xbc4bdd8f	-0.01244296
154	0x3e66cb86	0.22538576
155	0xbee670ee	-0.45008034
156	0x3cc066fa	0.023486603
157	0xbca1ebe2	-0.019765798
158	0xbe01a7a1	-0.12661602
159	0x3eda5804	0.42645276
160	0xbd40e82c	-0.047096416
161	0x3bf1a8a5	0.0073748403
162	0xbc19cc2c	-0.009387057
163	0xbcb00447	-0.021486415
164	0xbdb7f86d	-0.0898293
165	0x3dd8d49e	0.105874285
166	0xbc8c5b83	-0.01713348
167	0x3edf4c94	0.43613112
168	0x3e388c21	0.18022205
169	0xbded9b25	-0.11601857
170	0xbd105466	-0.03523674
171	0xbbd70a50	-0.0065625086
172	0xbd45777e	-0.04820966
173	0xbc3701c0	-0.011169851
174	0x3e8d6107	0.27613088
175	0xbc057a27	-0.008146799
176	0x3eb31627	0.34977838
177	0x00000000	0.0
178	0xbd0c2ccf	-0.03422242
179	0x3eb6bf26	0.3569271
180	0x3b148dab	0.0022667449
181	0x00000000	0.0
182	0xbdde7941	-0.10862971
183	0x3f07de08	0.5307317
184	0xbd8babdb	-0.06819888
185	0x3d42b9b9	0.0475404
186	0xbd29f84e	-0.041496567
187	0xbc1c1203	-0.009525779
188	0xbe934a63	-0.2876769
189	0xbc955953	-0.01823107
190	0xbcf0623c	-0.029343717
191	0x3eddf058	0.4334743
192	0xbeb39150	-0.35071802
193	0xbcc911b6	-0.024544578
194	0xbe1a1926	-0.15048656
195	0x3f06a82a	0.5260035
196	0xbd9775f8	-0.07395548
197	0xbdacf44c	-0.084450334
198	0x3e4f751a	0.20259514
199	0xbdb96fbb	-0.09054514
200	0x00000000	0.0
201	0xbe430359	-0.19044246
202	0xbe84190c	-0.2580036
203	0x3cd0caf4	0.0254874
204	0xbeab942b	-0.3351148
205	0x3e63fadd	0.22263665
206	0xbcd66789	-0.026172416
207	0x3e841954	0.25800574
208	0xbbd5abf1	-0.006520741
209	0xbd12d0a3	-0.035843503
210	0xbe52bd76	-0.20580086
211	0x3e656b25	0.22404154
212	0x3f1f4239	0.6221042
213	0x3dcd4697	0.100232296
214	0xbe1a0e6b	-0.15044563
215	0xbc46a59b	-0.012124444
216	0xbc1d7757	-0.009610972
217	0xbd4ff840	-0.05077386
218	0xbd4326cc	-0.04764442
219	0xbdc09f1e	-0.09405349
220	0xbed1a392	-0.40945107
221	0xbd022efa	-0.03178308
222	0xbc3ccb69	-0.011523106
223	0xbc9f66f1	-0.019458266
224	0xbdd066df	-0.10175871
225	0x3e7800fe	0.24219128
226	0xbe49384f	-0.19650386
227	0xbc24bd09	-0.010054835
228	0xbbe327f6	-0.006932254
229	0xbdb05277	-0.08609479
230	0xbe2b48ba	-0.16726962
231	0x00000000	0.0
232	0xbcdf2e73	-0.027243828
233	0xbcde6411	-0.027147325
234	0xbdfa3f66	-0.122191235
235	0xbdd5f344	-0.1044679
236	0xbd40fc48	-0.047115594
237	0x3ee4e4b8	0.4470575
238	0xbe801074	-0.25012553
239	0xbe1ab18a	-0.15106788
240	0xbe8b4341	-0.27199748
241	0xbd5d2551	-0.053990666
242	0x3ebc33dc	0.36758316
243	0x3f076f4f	0.5290422
244	0xbd9a67c1	-0.07539321
245	0x3ef0049e	0.46878523
246	0x3cb34879	0.021885144
247	0x3e63fce7	0.22264443
248	0xbceb391b	-0.028713753
249	0xbe161f0a	-0.14660278
250	0xbcbd71cf	-0.023125557
251	0xbd134df7	-0.035963025
252	0xbccaab79	-0.024739968
253	0x3e47fa42	0.1952906
254	0x3eedc7d7	0.46441528
255	0xbd31356d	-0.04326384

network.3.weight f4 [256, 256]
0	0xbdbc4193	-0.09192195
1	0x3df15b9c	0.11785051
2	0x3d50afbc	0.050948843
3	0xbbd98533	-0.006638193
4	0xbd0c11ac	-0.03419654
5	0xbdba4ed9	-0.0909707
6	0xbd63e8f2	-0.055642076
7	0x3e532386	0.2061902
8	0xbdc4f51c	-0.096170634
9	0x3d5fa0a6	0.054596566
10	0x3daaf00a	0.08346565
11	0xbe3eec6f	-0.1864488
12	0x3e634f4f	0.22198223
13	0xbc93f146	-0.018059384
14	0x3f04eb14	0.519212
15	0x3c281681	0.010259272
16	0xbf4eb404	-0.8074343
17	0xbe52195a	-0.20517483
18	0x3c8d4418	0.017244384
19	0x3d9f041e	0.07764457
20	0x3d8be80d	0.068313695
21	0xbef48ba6	-0.47762793
22	0x3d231778	0.039817303
23	0xbd9be411	-0.076118596
24	0x3db33f78	0.0875234
25	0xbe32fb5e	-0.17478701
26	0x3da00e9e	0.07815288
27	0x3dc904fb	0.09815403
28	0x3e11c130	0.14233851
29	0xbfb9372e	-1.4469965
30	0x3d9a5a36	0.075367376
31	0x3d465f3b	0.048430663
32	0x3df97e40	0.121822834
33	0x3c790a77	0.015200249
34	0x3e609979	0.21933545
35	0x3e53dd02	0.20689777
36	0xbdf71134	-0.12063828
37	0x3e017c05	0.12644966
38	0xbe80e6be	-0.25176042
39	0xbef16114	-0.47144377
40	0xbe36d889	-0.17856039
41	0xbb2c80c8	-0.0026321877
42	0x3e82c951	0.25544217
43	0x3d9d6b37	0.07686465
44	0xbd6a6b01	-0.057230953
45	0x3d8524b2	0.0650114
46	0xbd0951e1	-0.03352535
47	0xbd5a55a2	-0.053304322
48	0xbd1a33f9	-0.03764722
49	0x3cffbdd9	0.031218456
50	0xbc9d5496	-0.019205373
51	0x3dcf6f0b	0.10128602
52	0xbd9b2147	-0.075747065
53	0xbd072894	-0.032997683
54	0x3e19c43f	0.15016268
55	0xbe8d31df	-0.2757711
56	0xbe0d1161	-0.13776161
57	0xba08360d	-0.00051960425
58	0xbf569700	-0.8382416
59	0xbd843ff6	-0.06457512
60	0xbd8764b1	-0.06611002
61	0xbd22c695	-0.039740164
62	0xbf453631	-0.77035815
63	0x3f7217d6	0.9456762
64	0x3df07a89	0.11742122
65	0x3d857c3c	0.065178365
66	0x3ef1a2fa	0.47194654
67	0x3ba986c1	0.0051735346
68	0xbceece46	-0.029151093
69	0x3e280ec4	0.16411883
70	0x3c9c8ec6	0.019111048
71	0xbbeafbba	-0.0071711214
72	0xbdc470de	-0.0959184
73	0x3f0c2346	0.54741323
74	0xbcad3444	-0.021143086
75	0x3e874ba5	0.264249
76	0xbdcf78e1	-0.10130478
77	0x3de054bd	0.109536625
78	0xbc38d221	-0.011280567
79	0xbe412bb2	-0.18864325
80	0x3e04b1d1	0.12958457
81	0x3d9bfb0c	0.07616243
82	0x3d25be78	0.04046485
83	0x3dd96974	0.10615817
84	0xbe88f5bf	-0.2674999
85	0x3cc59230	0.02411756
86	0x3e400239	0.18750848
87	0x3f59486d	0.8487614
88	0x3e414ea3	0.18877654
89	0x3dd5863b	0.10425993
90	0x3d87b156	0.06625621
91	0xbd53226e	-0.051546507
92	0xbe2ef737	-0.17086492
93	0x3e1aaf67	0.15105973
94	0xbf143247	-0.5788922
95	0x3e2f38ff	0.17111586
96	0xbdc6d480	-0.097085
97	0xbe9e28c3	-0.30890474
98	0xbed682a3	-0.41896543
99	0xbc278eb5	-0.010226895
100	0xbcadbcef	-0.021208255
101	0xbeab1888	-0.33417153
102	0xbd81249b	-0.0630581
103	0xbcb4bc81	-0.022062542
104	0x3c0d9e74	0.008643735
105	0x3d346bc2	0.04404808
106	0xbe18dfcc	-0.14929122
107	0x3d910ab7	0.07082122
108	0xbdcb3f6c	-0.09924206
109	0xbec80aa1	-0.3907061
110	0xbe8d7475	-0.27627912
111	0xbf7ab6a0	-0.97934914
112	0xbc55371c	-0.013013627
113	0x3e37c2c9	0.17945398
114	0x3d2d4cc1	0.042309526
115	0xbedfc096	-0.4370162
116	0x3e22a361	0.15882637
117	0x3e022449	0.12709154
118	0x3db00ff1	0.085967906
119	0x3e2dd85d	0.16977067
120	0x3e6118e6	0.21982154
121	0x3db0da61	0.086354025
122	0x3dbb7f5e	0.09155153
123	0xbc5dcffe	-0.013538359
124	0x3e2829a9	0.16422142
125	0xbe11573d	-0.14193435
126	0xbe19b563	-0.150106
127	0x3ea97c0a	0.33102447
128	0x3e3e99a3	0.18613295
129	0x3f991ae2	1.1961329
130	0xbd72f366	-0.059314154
131	0xbdfbf578	-0.12302679
132	0xbf24089a	-0.64075625
133	0xbe33a892	-0.17544773
134	0x3e9a2b7a	0.30111295
135	0xbe525543	-0.20540337
136	0x3ac5eb75	0.0015100079
137	0xbc9d23d8	-0.01918213
138	0x3930beb2	0.00016855708
139	0x3dd22d97	0.10262602
140	0x3c0718d4	0.008245666
141	0x3c946cea	0.01811834
142	0x3e71cfc5	0.23614414
143	0xbf0393f9	-0.51397663
144	0xbd88b659	-0.06675405
145	0xbbb3590e	-0.0054732626
146	0xbd54a2e1	-0.051913146
147	0x3d6889c7	0.05677202
148	0xbcf4b836	-0.029872995
149	0xbd64e5dc	-0.055883273
150	0xbdeb90df	-0.11502241
151	0xbe9313ce	-0.28726047
152	0xbe5c431c	-0.21509975
153	0xbda76e7f	-0.08175372
154	0xbe6e9606	-0.23299417
155	0xbe145424	-0.14485222
156	0x3e93c4be	0.2886104
157	0x3d824797	0.06361311
158	0xbcf82cfa	-0.030294884
159	0xbd927e7b	-0.071530305
160	0x3dc3a488	0.09552866
161	0x3dfc7766	0.12327461
162	0xbc1fc0dc	-0.009750571
163	0x3c8b8137	0.017029388
164	0x3edfd3b7	0.43716213
165	0xbf67dea4	-0.905741
166	0x3d6a915c	0.05726753
167	0x3e41b13b	0.18915264
168	0x3e9ee859	0.31036642
169	0xbe27d776	-0.16390786
170	0xbcdf2d67	-0.02724333
171	0x3d3443cd	0.044009972
172	0xbd840eb4	-0.06448117
173	0x3d5ee3b2	0.054416366
174	0xbf32f0c5	-0.69898635
175	0x3dad6f40	0.08468485
176	0x3d89349d	0.06699488
177	0xbda88c2c	-0.08229861
178	0x3b2459fe	0.0025078054
179	0x3e1cc066	0.15307769
180	0x3e21f60b	0.15816514
181	0x3d743042	0.059616335
182	0xbeb7682e	-0.3582167
183	0xbe6a6b5c	-0.22892517
184	0xbd65f679	-0.056143258
185	0xbed7f5ce	-0.42179722
186	0xbf3d9ccd	-0.74067384
187	0xbd3cd94e	-0.046105675
188	0xbee051fa	-0.43812543
189	0xbdcb4dea	-0.0992697
190	0xbd55ebae	-0.052226715
191	0x3d7376db	0.05943952
192	0x3e932ca9	0.2874501
193	0x3e1b00f1	0.15137078
194	0xbe131554	-0.14363605
195	0x3f438b90	0.7638483
196	0x3d19729f	0.037462827
197	0xbef61fc5	-0.48071113
198	0xbf11408a	-0.56739104
199	0xbdafca53	-0.08583512
200	0xbd78d949	-0.060754094
201	0xbc083a59	-0.008314692
202	0x3dfc9970	0.123339534
203	0x3de53439	0.11191601
204	0xba9b7c4b	-0.0011862604
205	0xbf93e1f8	-1.1553335
206	0xbd393501	-0.045216564
207	0xbf246649	-0.64218575
208	0x3d00691c	0.03135024
209	0x3dd3298d	0.103106596
210	0xbe3d0e14	-0.18462402
211	0xbef73b97	-0.4828765
212	0xbe88bf82	-0.2670861
213	0xbc34ac5b	-0.011027421
214	0xbe9f8384	-0.31155026
215	0x3bb83f3a	0.0056227716
216	0xbd322242	-0.043489702
217	0xbb2f60a8	-0.0026760492
218	0xbbf65c31	-0.0075183143
219	0x3d3fee4e	0.046858124
220	0xbf4a00c4	-0.7890742
221	0x3ef499c7	0.47773573
222	0x3dccbf0b	0.09997376
223	0xbdef1f8e	-0.116759405
224	0xbd422532	-0.047398753
225	0x3f1359d0	0.5755892
226	0xbe821f85	-0.25414672
227	0x3d7fce70	0.062452734
228	0x3d572edf	0.052534934
229	0xbe303c64	-0.17210537
230	0xbd055b61	-0.03255785
231	0x3d79b8ca	0.060967244
232	0x3a10bba0	0.00055211224
233	0xbc3f53e9	-0.011677721
234	0x3efb88d2	0.49127823
235	0xbdcb4c6c	-0.09926686
236	0xbda768a4	-0.081742555
237	0x3b587cc2	0.0033033346
238	0xbdd68d39	-0.10476155
239	0xbe6421f0	-0.22278571
240	0xbe96e012	-0.29467827
241	0xbe013009	-0.1261598
242	0xbef61ee1	-0.48070434
243	0x3f9654e2	1.1744654
244	0xbd512dab	-0.051068943
245	0xbec037e6	-0.37542647
246	0x3e08d6d6	0.13363203
247	0x3ecb2050	0.3967309
248	0x3e0e5eba	0.13903323
249	0xbdff4274	-0.12463847
250	0x3e73a74a	0.23794284
251	0x3e112990	0.14176011
252	0x3f066af1	0.5250693
253	0xbd9b2597	-0.07575529
254	0x3f19c6d0	0.6006899
255	0xbdb4f9f8	-0.0883674

network.3.bias f4 [256]
0	0xbec6574c	-0.38738477
1	0xbece91d7	-0.40345642
2	0x3e506cd2	0.20354012
3	0xbdb98dd5	-0.090602554
4	0x3e1994e8	0.1499821
5	0x3e33a410	0.17543054
6	0xbf75552e	-0.958331
7	0x3de0e49b	0.10981103
8	0xbdacd492	-0.08438982
9	0xbf9e2b4e	-1.2356966
10	0x3e8ef355	0.27920023
11	0x3c68eed9	0.014217102
12	0x3d4a7373	0.049426507
13	0xbd5434db	-0.05180822
14	0xbe88b177	-0.26697895
15	0xbf3f3691	-0.74692637
16	0xbe6d4694	-0.23171455
17	0xbee581bb	-0.4482554
18	0xbf8578d1	-1.0427495
19	0x3e4efa37	0.20212637
20	0xbe05e5b0	-0.130759
21	0xbe806724	-0.2507869
22	0xbf1d59a7	-0.61464924
23	0x3e6c1c6d	0.23057719
24	0x3d885cd1	0.06658328
25	0xbf2afe34	-0.66794133
26	0xbf873b8c	-1.0565047
27	0xbeeeddd6	-0.46653622
28	0xbd552cd8	-0.05204472
29	0xbeb32816	-0.3499152
30	0xbf21f6a0	-0.63266945
31	0xbed2eaa4	-0.41194642
32	0xbec0f338	-0.3768556
33	0xbf14e345	-0.58159286
34	0xbe84f007	-0.25964376
35	0xbdcb900c	-0.09939584
36	0xbf0029c1	-0.5006371
37	0x3e1edd9e	0.15514228
38	0x3c775b48	0.015097447
39	0xbeb53c18	-0.3539741
40	0x3ebd27eb	0.36944517
41	0x3d930796	0.07179181
42	0xbf415f33	-0.7553589
43	0x3e2dc5c7	0.16969977
44	0x3de905b2	0.113780394
45	0xbe3ec355	-0.18629201
46	0xbf59425f	-0.848669
47	0x3d7f867a	0.062384106
48	0xbf58894e	-0.8458451
49	0x3d8ab944	0.06773618
50	0xbeb34e98	-0.350209
51	0x3e0560a4	0.13025147
52	0x3bf31cbd	0.0074191974
53	0xbebd917a	-0.37025052
54	0xbe3de0cc	-0.18542784
55	0xbcce703a	-0.025199998
56	0xbee6efe5	-0.451049
57	0x3b02d29d	0.001996196
58	0xbf928b24	-1.1448712
59	0x3bee9720	0.007281199
60	0xbda8c126	-0.08239965
61	0xbf5b45a1	-0.8565312
62	0x3eacbba1	0.337369
63	0x3e01fb70	0.12693572
64	0x3e20f74a	0.15719333
65	0xbd1241c9	-0.03570727
66	0x3e66daa8	0.22544348
67	0x3e340718	0.17580831
68	0x3e04c247	0.12964736
69	0xbf412b2b	-0.75456494
70	0xbeb1a693	-0.346974
71	0xbf1e6ef1	-0.61888033
72	0xbb7be3b9	-0.0038435294
73	0xbf352ab5	-0.7076829
74	0x3e56e714	0.20986587
75	0xbfb62511	-1.4230062
76	0x3e7370d8	0.23773515
77	0x3d9a0530	0.07520521
78	0x3de9c400	0.11414337
79	0xba25b0bf	-0.00063205877
80	0x3d75739a	0.0599247
81	0xbe504e57	-0.20342384
82	0x3e2b4e4e	0.1672909
83	0xbe07a3e6	-0.13246116
84	0xbdf0aebd	-0.11752079
85	0x3e42ce96	0.19024119
86	0x3e457db3	0.19286232
87	0xbdf56932	-0.11982955
88	0xbd336897	-0.043800917
89	0xbeb23631	-0.3480697
90	0xbede4342	-0.4341069
91	0x3e5972a5	0.2123514
92	0xbeb7d916	-0.3590781
93	0x3eb62f15	0.35582796
94	0xbe38bd06	-0.18040857
95	0x3dd4d785	0.103926696
96	0xbea306fa	-0.3184126
97	0xbed03529	-0.40665558
98	0xbe9ac16d	-0.30225697
99	0x3c9d7b49	0.019223826
100	0xbe65d7fc	-0.22445673
101	0xbe9028ba	-0.28156072
102	0xbec7c15b	-0.39014706
103	0xbc2b7365	-0.010464524
104	0x3e5b003d	0.2138681
105	0xbe9363f8	-0.28787208
106	0xbeac520c	-0.33656347
107	0xbf2a327c	-0.66483283
108	0xbf3c5e9b	-0.73581856
109	0xbf104279	-0.5635143
110	0xbe99cd76	-0.30039567
111	0xbf9afcfb	-1.2108454
112	0x3e32ea95	0.17472298
113	0xbe996337	-0.29958507
114	0xbe5334a5	-0.20625551
115	0x3e7533bf	0.23945521
116	0xbe971577	-0.29508564
117	0xbf6791da	-0.90456927
118	0x3e26a868	0.1627518
119	0xbe794d8a	-0.24345985
120	0xbe9423ab	-0.28933463
121	0x3bc9581d	0.006144537
122	0x3e707444	0.23481852
123	0xbef0c8bd	-0.4702815
124	0x3ea53d5a	0.3227337
125	0xbeded647	-0.43522856
126	0xbf9e109e	-1.2348821
127	0x3e17bd83	0.14818387
128	0xbdce37d7	-0.10069244
129	0xbea9ef42	-0.33190352
130	0xbf7e74d9	-0.99397045
131	0x3d81c099	0.06335563
132	0xbc2156b3	-0.009847331
133	0xbfaed16c	-1.365766
134	0xbeb59f1c	-0.35472953
135	0xbf590d98	-0.8478637
136	0x3d465a5c	0.048426017
137	0xbf4763bf	-0.77886575
138	0x3da6e497	0.08149069
139	0x3e94c16d	0.29053822
140	0xbd4f4032	-0.05059833
141	0xbcbc1f77	-0.022964222
142	0x3d7fcb8c	0.062449977
143	0xbf4063b0	-0.7515211
144	0x3bc6ca35	0.0060665854
145	0x3ddf7418	0.10910815
146	0x3e36dcda	0.17857686
147	0xbf17a92a	-0.592425
148	0x3e9a696e	0.3015856
149	0x3e61d702	0.22054675
150	0xbecd8e12	-0.40147454
151	0xbf754b9c	-0.95818496
152	0xbd00cb3c	-0.03144382
153	0xbe65e272	-0.22449663
154	0xbe0a1cdb	-0.1348757
155	0xbf618b39	-0.8810306
156	0xbf8cd35d	-1.1002003
157	0xbe4baa33	-0.19889145
158	0xbdfbed53	-0.123011254
159	0x3d98668e	0.07441436
160	0xbba445c0	-0.0050131977
161	0x3d4d39ae	0.050103836
162	0xbea4ba05	-0.32173172
163	0xbe6ce69b	-0.23134844
164	0xbe79c5b5	-0.24391825
165	0x3bd3d29b	0.006464315
166	0xbe7b0f9b	-0.24517672
167	0xbf04d39b	-0.51885384
168	0xbe96fb7f	-0.2948875
169	0xbeb9bf53	-0.3627878
170	0x3e6dbe98	0.23217237
171	0xbebe7654	-0.37199652
172	0xbf699f3c	-0.912586
173	0xbd8a45ad	-0.06751571
174	0xbefbc25e	-0.49171728
175	0xbf0ece51	-0.55783564
176	0xbce94b78	-0.02847837
177	0xbdf1b9dd	-0.11803029
178	0x3dd509ca	0.10402258
179	0xbf0cc8f0	-0.54994106
180	0x3d3929bd	0.04520582
181	0xbf99a612	-1.2003806
182	0x3e0cc7af	0.13748048
183	0xbe8291db	-0.25501904
184	0xbf503977	-0.81337684
185	0x3e746189	0.23865332
186	0xbf04c4df	-0.518629
187	0xbefe6f6a	-0.49694377
188	0xbd86a1be	-0.065738186
189	0xbd8a458d	-0.06751547
190	0xbf1878bf	-0.59559244
191	0xbebf046d	-0.37308064
192	0xbe428e7d	-0.18999667
193	0x3d583a2e	0.05278986
194	0x3d58cdf2	0.05293078
195	0xbe388f35	-0.18023379
196	0x3de43170	0.11142242
197	0xbe59349a	-0.21211472
198	0xbd1e6a4a	-0.038675584
199	0xbe911641	-0.2833729
200	0xbf28adae	-0.65890014
201	0xbf9b5e35	-1.2138125
202	0x3e11576d	0.14193507
203	0xbe9a660a	-0.30155975
204	0xbf184315	-0.5947736
205	0xbeb21328	-0.3478024
206	0x3e46e3f5	0.19422896
207	0x3e90f381	0.2831078
208	0x3d31b5e9	0.043386374
209	0xbe555ad5	-0.20835431
210	0x3e4a78da	0.19772664
211	0x3e2b768f	0.16744445
212	0xbecb6ba3	-0.39730558
213	0xbf71b024	-0.94409394
214	0xbf769790	-0.96325016
215	0xbdc1b468	-0.09458238
216	0x3c8b836e	0.017030444
217	0xbda66934	-0.08125535
218	0xbecc4521	-0.3989649
219	0xbe1f2c17	-0.15544163
220	0x3de7cd96	0.11318509
221	0xbf1b9e9d	-0.607889
222	0x3e294b75	0.16532691
223	0xbe6db63e	-0.23214051
224	0x3d148726	0.0362617
225	0xbdb72f00	-0.089445114
226	0xbe3d84af	-0.18507646
227	0x3e65d78e	0.22445509
228	0x3e6eaf39	0.2330903
229	0x3e3c56e0	0.18392515
230	0xbe861e57	-0.26195022
231	0x3d921c24	0.07134274
232	0xbf1661c0	-0.58742905
233	0xbf921f6a	-1.1415837
234	0xbf5ff3d3	-0.8748142
235	0xbe891173	-0.26771125
236	0x3e30f62c	0.17281407
237	0xbed8e1d6	-0.423598
238	0xbe4f0bad	-0.20219298
239	0x3deb1bbb	0.114798985
240	0xbd0240ac	-0.031799957
241	0x3e555061	0.20831443
242	0xbeed5844	-0.46356404
243	0xbf00734f	-0.50175947
244	0x3e675e5b	0.22594588
245	0x3e76ed26	0.24113902
246	0x3cc8d866	0.02451725
247	0xbd38408c	-0.04498343
248	0x3c2c977c	0.010534164
249	0xbe0fda05	-0.14048012
250	0xbeeac3a4	-0.45852387
251	0x3dcaf6ba	0.099103406
252	0xbf4de835	-0.80432445
253	0x3d6d3f2a	0.057921566
254	0xbe9a0053	-0.30078372
255	0xbf40020c	-0.75003123

network.6.weight f4 [256, 256]
0	0xbeb5ec02	-0.35531622
1	0xbe8eb14d	-0.27869645
2	0xbe1e3c41	-0.15452673
3	0x3e1a5285	0.15070541
4	0xbea66638	-0.32499862
5	0xbe080ad9	-0.13285388
6	0xbd8b032f	-0.067877166
7	0xbef04638	-0.46928573
8	0xbf469138	-0.77565336
9	0xbd50912c	-0.050919697
10	0x3e98c4de	0.29837698
11	0x3d6c55e1	0.057699088
12	0xbebaabc6	-0.36459178
13	0xbe0a10db	-0.13482992
14	0xbc780a77	-0.015139214
15	0x3e70383e	0.23458955
16	0xbf11a5cb	-0.56893605
17	0xbcc157d8	-0.023601457
18	0x3e372441	0.17884924
19	0xbe938869	-0.2881501
20	0xbe498992	-0.19681385
21	0xbe1a145d	-0.1504683
22	0xbc56955d	-0.013097134
23	0xbe1ef7ba	-0.15524188
24	0xbf0c4d8f	-0.54805845
25	0xbba35f66	-0.0049857376
26	0xbea9f83e	-0.33197206
27	0x3df3a1da	0.11896105
28	0xbec531ba	-0.385145
29	0xbec8b6d6	-0.39201993
30	0xbe4ce21e	-0.20008132
31	0xbeadbe16	-0.33934087
32	0x3dba77f0	0.091049075
33	0x3dbe35d0	0.09287608
34	0xbe595671	-0.21224381
35	0xbf30417f	-0.6884994
36	0xbdb15d09	-0.08660323
37	0xbe3580c4	-0.17724901
38	0xbf180620	-0.59384346
39	0xbe8f795d	-0.2802228
40	0x3e7581e8	0.23975337
41	0xbe8ff67a	-0.28117734
42	0xbe2420b3	-0.16028099
43	0xbed5fa0a	-0.41792327
44	0xbf1d2761	-0.6138821
45	0x3d3d85db	0.046270233
46	0xbd397d3e	-0.045285456
47	0xbe2e7862	-0.1703811
48	0xbe17c2c7	-0.14820395
49	0x3d353698	0.044241518
50	0x3d9f4c7c	0.0777826
51	0x3e4cb3f2	0.19990519
52	0x3e6f2a00	0.23355865
53	0xbebeb547	-0.3724768
54	0xbc8d3887	-0.017238868
55	0xbed3b335	-0.41347662
56	0xbd7131f3	-0.058885526
57	0x3e8e7b5f	0.278285
58	0xbea59ad1	-0.32344678
59	0x3db9f4b9	0.0907988
60	0xbe9aea5a	-0.3025692
61	0xbe5df6b0	-0.21676135
62	0xbeb5e403	-0.35525522
63	0xbee5fa43	-0.44917497
64	0xbe03490e	-0.12820837
65	0xbe86a950	-0.2630105
66	0xbe1e923e	-0.15485474
67	0xbeb1b39b	-0.3470734
68	0xbe94b882	-0.29047018
69	0xbe701326	-0.23444805
70	0xbdf248be	-0.11830281
71	0x3c9cb7f2	0.01913068
72	0x3e69d012	0.22833279
73	0xbde7b76f	-0.11314284
74	0xbea30fe0	-0.3184805
75	0xbe49f128	-0.197209
76	0xbe26ea9e	-0.16300437
77	0xbe1e72de	-0.15473506
78	0xbeed7443	-0.46377763
79	0xbd909abf	-0.070607655
80	0xbf2f3edc	-0.6845529
81	0xbe420e9d	-0.18950887
82	0xbf01e857	-0.5074515
83	0x3e1d4a09	0.15360273
84	0xbea291dc	-0.31751907
85	0xbf2041a0	-0.62600136
86	0xbf1da7b4	-0.6158402
87	0xbed4fd39	-0.41599444
88	0xbe35af87	-0.1774274
89	0xbea4e689	-0.32207134
90	0xbed8d36d	-0.42348805
91	0xbe0eef40	-0.13958454
92	0xbf2120c5	-0.6294063
93	0xbf1f73ca	-0.62286055
94	0xbf0ee70e	-0.5582131
95	0x3dc7a2b2	0.097478285
96	0x3cbea7ca	0.023273367
97	0xbe5a795e	-0.2133536
98	0xbe55c5f6	-0.20876297
99	0xbeb59443	-0.35464677
100	0x3db4bcfc	0.088251084
101	0x3cec049d	0.028810794
102	0xbe8767b0	-0.26446295
103	0xbe37b9e1	-0.17942001
104	0xbe5e2bae	-0.2169635
105	0xbd43c9ad	-0.047799755
106	0xbdf9dbd0	-0.12200129
107	0xbd7a4623	-0.061102044
108	0xbd2b1499	-0.04176769
109	0xbed78aca	-0.42098075
110	0xbe91cc6f	-0.28476283
111	0x3da32c4e	0.07967435
112	0x3d8d47bb	0.06898447
113	0xbeb0402e	-0.34423965
114	0xbef6ccb6	-0.48203057
115	0xbe2a95d3	-0.16658716
116	0xbea5aa88	-0.32356668
117	0xbe9341da	-0.28761178
118	0xbcc832ce	-0.024438288
119	0x3e860f8a	0.2618373
120	0xbe26af34	-0.16277772
121	0xbf51f83f	-0.8201942
122	0xbe877469	-0.26456
123	0xbd83cfd5	-0.06436125
124	0xbe2e60d7	-0.17029129
125	0x3cdad142	0.02671111
126	0xbd8f041f	-0.06983208
127	0xbe344a92	-0.17606571
128	0xbed94b11	-0.42440084
129	0xbdb3590c	-0.08757219
130	0x3e141d37	0.1446427
131	0xbdeda5db	-0.116039
132	0xbe0d772a	-0.13814989
133	0x3cc832c4	0.02443827
134	0xbf1c4929	-0.61049134
135	0xbdac8216	-0.084232494
136	0x3d862c30	0.06551397
137	0xbe950ef9	-0.29112986
138	0xbdc9c905	-0.098527946
139	0xbc83d1a2	-0.016091172
140	0xbf0d276b	-0.5513827
141	0xbde90d22	-0.11379458
142	0x3c3ca94b	0.011514972
143	0x3d5cfe89	0.05395368
144	0xbe86c986	-0.26325625
145	0xbeb617c7	-0.35565016
146	0xbe938d36	-0.28818673
147	0xbe3e14d3	-0.18562631
148	0xbeb3cda7	-0.35117838
149	0x3e4f58d2	0.20248726
150	0x3d9156c6	0.07096629
151	0x3dd9a674	0.106274515
152	0xbe1159cc	-0.14194411
153	0x3ddaa4e5	0.106759824
154	0xbe87ba55	-0.26509348
155	0xbefb5e8f	-0.4909558
156	0xbeb3b43f	-0.35098454
157	0xbf0e72de	-0.55644023
158	0xb92a472b	-0.00016238976
159	0xbe085a77	-0.1331576
160	0xbee4055c	-0.4453534
161	0xbdcd577d	-0.10026453
162	0xbe957440	-0.29190254
163	0x3e8beb72	0.27328068
164	0xbe26c6e2	-0.16286805
165	0xbf028648	-0.50986147
166	0xbd97a8fa	-0.074052766
167	0xbe5e3b54	-0.2170232
168	0xbed04bf5	-0.4068295
169	0xbeb827ec	-0.35967958
170	0x3c6abbaa	0.014326969
171	0xbd23edd1	-0.04002172
172	0xbca0347f	-0.019556282
173	0xbe8a8d6c	-0.2706102
174	0xbd31bf51	-0.043395344
175	0xbe04027d	-0.12891574
176	0xbe7aa81a	-0.24478188
177	0x3d967da7	0.07348185
178	0xbe462921	-0.19351627
179	0xbe64f8b7	-0.22360502
180	0xbef6d6d7	-0.48210785
181	0xbe296270	-0.16541457
182	0xbdd172e7	-0.10226994
183	0xbe84a6a5	-0.2590839
184	0x3d784ac4	0.060618177
185	0xbe68ccde	-0.227344
186	0x3eac87c4	0.3369733
187	0x3e2d7c3f	0.16941927
188	0xbf0453ab	-0.5169017
189	0xbe612564	-0.2198692
190	0x3c123e83	0.008926037
191	0xbe210bf9	-0.15727223
192	0xbe96c64c	-0.29448164
193	0xbebd31f0	-0.36952162
194	0xbe0ed881	-0.13949777
195	0xbe8c91a3	-0.27454862
196	0xbe937e45	-0.28807274
197	0xbeaa15f0	-0.33219862
198	0xbf182676	-0.59433687
199	0x3ec07029	0.3758557
200	0x3d3a300d	0.04545598
201	0xbe15b3bc	-0.14619344
202	0xbf13930d	-0.57646257
203	0xbbb7f766	-0.005614209
204	0xbe2b882d	-0.16751166
205	0x3e02954c	0.12752265
206	0xbec177a9	-0.37786606
207	0xbe3ac228	-0.18238127
208	0xbcbcc2b6	-0.023042064
209	0xbd3e5b76	-0.046473943
210	0x3d7573b8	0.05992481
211	0xbecc56ee	-0.39910072
212	0xbdb80527	-0.08985358
213	0xbdfb16fc	-0.12260243
214	0xbdcf7ac5	-0.10130838
215	0xbe9ef19e	-0.31043714
216	0xbec377ef	-0.3817744
217	0xbe96b0fb	-0.294319
218	0xbeb66d4c	-0.35630262
219	0xbe0b3354	-0.13593799
220	0xbeec94c6	-0.46207255
221	0x3e7391b4	0.2378605
222	0x3e3e6818	0.18594396
223	0x3e2f1853	0.17099123
224	0xbef8bdec	-0.485824
225	0xbeadc414	-0.33938658
226	0xbd4e9a25	-0.050439972
227	0xbdc78326	-0.097418115
228	0xbebc43e0	-0.36770535
229	0xbdd20c07	-0.102562
230	0x3e38d4e0	0.18049955
231	0x3d83fcf9	0.06444735
232	0xbd871edf	-0.06597685
233	0x3e65e1ee	0.22449467
234	0x3c7fcdd1	0.015613035
235	0xbe5183f5	-0.20460494
236	0xbdc08177	-0.093996935
237	0xbdf6ac7f	-0.1204462
238	0x3ed49346	0.4151861
239	0xbe93b3a3	-0.2884799
240	0xbe6c4bb0	-0.23075747
241	0xbde42490	-0.11139786
242	0x3e6c0301	0.23048021
243	0xbe22cd23	-0.15898566
244	0xbedbc30c	-0.42922246
245	0xbeb89caa	-0.36057025
246	0xbef29769	-0.47381142
247	0xbecdab4d	-0.40169755
248	0xbea0f5c0	-0.31437492
249	0xbea5cdb1	-0.32383493
250	0xbe373baa	-0.17893854
251	0x3d87e459	0.06635351
252	0xbebf18b0	-0.37323523
253	0xbf17efd6	-0.59350336
254	0x3e81c6a7	0.25346872
255	0xbc7c58fe	-0.015402077

network.6.bias f4 [256]
0	0x3dff09e1	0.12453056
1	0x3f1d3589	0.61409813
2	0x3df57641	0.11985446
3	0xbe63b160	-0.22235632
4	0x3e9acd97	0.30234978
5	0xbe9c13c1	-0.3048382
6	0x3ea57ef7	0.3232343
7	0x3ed81e3a	0.4221056
8	0x3da67794	0.081282765
9	0x3f1c8b13	0.6114971
10	0xbebb219d	-0.36549082
11	0x3eb2f629	0.3495343
12	0xbef1d241	-0.47230724
13	0x3ea1a55c	0.31571472
14	0xbec6ad06	-0.3880388
15	0x3e0a1caa	0.13487497
16	0xbf169c41	-0.58832175
17	0xbd2e56c7	-0.042563226
18	0xbdea146f	-0.11429679
19	0x3e13431c	0.14381069
20	0xbddd35a5	-0.108012475
21	0xbe0c2d49	-0.1368915
22	0x3df1aab6	0.11800139
23	0xbe85fd48	-0.261698
24	0xbee817f1	-0.45330766
25	0x3e4318b5	0.19052394
26	0x3e2c2f93	0.16815023
27	0xbe8b7f89	-0.2724574
28	0x3f2432db	0.641401
29	0x3ec349b8	0.3814218
30	0xbedfc5af	-0.43705508
31	0xbd9c202a	-0.07623322
32	0x3ed611f0	0.4181056
33	0xbe185143	-0.14874749
34	0x3e612dac	0.21990079
35	0xbc509b10	-0.012732282
36	0x3eaf1a25	0.34199634
37	0xbdb07e10	-0.086177945
38	0x3de33c44	0.11095479
39	0x3d056fdf	0.03257739
40	0xbeb24845	-0.34820762
41	0x3e82851b	0.25492176
42	0xbf325a52	-0.6966907
43	0x3f379c1b	0.71722573
44	0x3c3ba4ae	0.011452837
45	0xbc08da77	-0.008352867
46	0x3f0f6aa0	0.5602207
47	0x3de7e1ec	0.11322388
48	0xbe94d98d	-0.29072228
49	0x3e5d3a27	0.21604215
50	0x3f1b6235	0.6069673
51	0x3e3d7f15	0.18505509
52	0xbd404fc3	-0.046951067
53	0x3e92c046	0.28662318
54	0x3e288bbf	0.16459559
55	0xbeb41125	-0.3516933
56	0x3ddb725f	0.10715174
57	0x3ed41b1c	0.41426933
58	0xbe65b5c8	-0.22432625
59	0xbe004a73	-0.125284
60	0x3df3048f	0.11866104
61	0x3d820ad1	0.06349719
62	0xbb97c601	-0.004631758
63	0x3f09491d	0.53627187
64	0x3f034b26	0.5128654
65	0xbe9fbef2	-0.31200367
66	0x3d93d709	0.07218749
67	0x3e38330b	0.17988221
68	0x3dbe5ee9	0.092954464
69	0xbe9d053f	-0.30668065
70	0x3f2f2e2c	0.6842983
71	0x3d98b086	0.07455544
72	0xbd3dfe03	-0.046384823
73	0x3f23a874	0.63928914
74	0xbdc33eb1	-0.09533442
75	0xbe3a856b	-0.18214957
76	0xbd0b97df	-0.034080382
77	0x3d1a4904	0.03766729
78	0x3ebe9d85	0.37229553
79	0xbc5b46d6	-0.013383588
80	0xbf206306	-0.626511
81	0x3e157028	0.14593565
82	0x3db939eb	0.0904425
83	0x3dedcb39	0.11611027
84	0xbcadc2e2	-0.021211091
85	0x3f0068de	0.50160015
86	0xbe15b086	-0.1461812
87	0xbd18740c	-0.037220046
88	0x3e3c1291	0.18366458
89	0x3eda0b30	0.4258666
90	0x3e0823d1	0.13294913
91	0xbea28952	-0.31745392
92	0x3e6fb776	0.23409829
93	0x3eda380b	0.42620882
94	0xbd8f3ae6	-0.06993656
95	0xbe873dfd	-0.2641448
96	0x3edc5c1f	0.43039033
97	0x3eb869f7	0.36018345
98	0xbe1906e5	-0.14944036
99	0x3e2eca37	0.17069326
100	0xbd71b9fc	-0.05901526
101	0xbdeb5f4f	-0.11492788
102	0xbe071ad3	-0.13193826
103	0x3d1c9cc7	0.038235452
104	0x3d0399c0	0.03212905
105	0xbe1c18d1	-0.15243842
106	0x3ddb2d99	0.107020564
107	0xbe0faefb	-0.14031594
108	0xbe1c8040	-0.15283298
109	0x3f4657ad	0.7747753
110	0xbeeae2ea	-0.45876247
111	0xbf25bbb0	-0.64739513
112	0x3d76d1f9	0.06025884
113	0xbde7d57d	-0.113200165
114	0x3e250f72	0.16119173
115	0x3ec0a7f6	0.37628144
116	0x3f55241d	0.8325823
117	0xbf0f2b2e	-0.5592526
118	0xbe01e403	-0.12684636
119	0x3e8735ca	0.26408225
120	0x3ec9ce75	0.39415327
121	0x3e64e079	0.22351255
122	0x3eb80245	0.35939232
123	0x3e4ca816	0.19985995
124	0xbd8a431e	-0.06751083
125	0x3f0ea726	0.557238
126	0xbdf46712	-0.119337216
127	0xbee4d712	-0.44695336
128	0xbdaba4bc	-0.0838103
129	0x3d44cef0	0.048048913
130	0xbe6c4073	-0.2307146
131	0xbef6760f	-0.48136947
132	0x3d10c02e	0.035339527
133	0x3dd87866	0.10569839
134	0x3e0c08f0	0.13675284
135	0xbe68cd7e	-0.22734639
136	0x3e9a0fe3	0.30090246
137	0x3eff2c02	0.49838263
138	0x3e2e762f	0.17037271
139	0xbe7afd4c	-0.24510688
140	0xbf08527e	-0.53250873
141	0x3f02d4c4	0.51105905
142	0xbd4a9c4c	-0.049465463
143	0xbea99ed8	-0.33129
144	0xbfac8007	-1.3476571
145	0x3ed0d46d	0.40787068
146	0x3e797c75	0.24363883
147	0x3e287d92	0.16454151
148	0x3de54546	0.111948535
149	0xbe186830	-0.14883494
150	0x3d45fbe6	0.048335932
151	0xbe2fe0c5	-0.17175587
152	0x3e4c87f7	0.19973741
153	0xbda108e8	-0.07863027
154	0xbec92f14	-0.3929373
155	0xbe53e9fc	-0.20694727
156	0x3ecd8da0	0.40147114
157	0x3e510359	0.20411433
158	0x3e8a1bbe	0.2697429
159	0xbe15a0a3	-0.1461206
160	0xbea5650a	-0.3230365
161	0xbdf68988	-0.12037951
162	0x3ea2173f	0.3165836
163	0xbf84008e	-1.0312669
164	0xbe4a8492	-0.19777134
165	0xbf1cda71	-0.61270815
166	0xbdfade30	-0.1224941
167	0x3e4df673	0.20113544
168	0xbf3fc84e	-0.74915016
169	0xbe580173	-0.21094303
170	0x3de35084	0.110993415
171	0xbf24dae7	-0.6439652
172	0xbdf47a08	-0.11937338
173	0xbe2d0a4b	-0.16898458
174	0x3d2895a5	0.041158337
175	0x3ecf15dc	0.40446365
176	0x3f015729	0.5052362
177	0xbf1aa165	-0.6040252
178	0x3efe06c4	0.49614537
179	0xbe414424	-0.1887365
180	0xbe7f2f33	-0.24920349
181	0x3f020281	0.5078507
182	0xbf0dd5d8	-0.55404425
183	0x3b232d44	0.0024898807
184	0xbf081bcc	-0.53167415
185	0x3e582657	0.21108375
186	0xbec91cdd	-0.39279833
187	0xbddfd288	-0.109288275
188	0x3ea69968	0.32538915
189	0xbee9e5a0	-0.45683002
190	0xbcb5f0da	-0.022209574
191	0x3c7c26e6	0.0153901335
192	0x3e55a88a	0.20865074
193	0xbcc3bbcc	-0.02389326
194	0xbf027bca	-0.5097014
195	0xbd3091dd	-0.043107856
196	0xbeabd8e9	-0.33563927
197	0x3eb7004d	0.35742417
198	0x3d4eae7a	0.050459363
199	0xbea83ab4	-0.32857287
200	0xbd32e515	-0.0436755
201	0x3d1ac041	0.037781004
202	0x3f490503	0.7852327
203	0xbeb2c0dc	-0.34912765
204	0xbe92ed1d	-0.28696528
205	0x3ed512dd	0.41615954
206	0x3f0575bb	0.5213277
207	0xbe760626	-0.24025783
208	0xbec6b339	-0.3880861
209	0x3e93fa17	0.2890174
210	0x3d9d4452	0.07679047
211	0x3ed4dd70	0.41575193
212	0xbed0e048	-0.40796113
213	0x3ed8cb3a	0.4234255
214	0xbd517e29	-0.051145706
215	0xbd733d18	-0.059384435
216	0xbf057514	-0.5213177
217	0xbe62e835	-0.22158892
218	0xbf2ff472	-0.6873237
219	0x3e78b434	0.24287492
220	0xbdc29b6b	-0.095023
221	0x3e50f3cf	0.20405506
222	0xbeb2af9a	-0.34899598
223	0xbeb441b1	-0.3520637
224	0xbe722916	-0.23648486
225	0x3d252b68	0.0403246
226	0xbe3712e7	-0.17878304
227	0xbe96b507	-0.29434988
228	0xbee5cd71	-0.44883302
229	0x3ef52854	0.4788233
230	0xbf16b146	-0.5886425
231	0x3e2b3cb5	0.16722377
232	0x3daf6d4e	0.0856577
233	0xbdb9760e	-0.0905572
234	0xbf34ccfa	-0.7062527
235	0x3eec7d6f	0.46189448
236	0x3c83e219	0.016099023
237	0x3e86b742	0.2631169
238	0x3d6c9024	0.05775465
239	0x3d68965a	0.05678401
240	0x3d73a18d	0.05948024
241	0xbd4e05f5	-0.05029865
242	0xbe0329fd	-0.12808986
243	0x3e5d856e	0.2163293
244	0xbdc06c9e	-0.09395717
245	0xbd94a801	-0.07258607
246	0xbee4b77f	-0.44671246
247	0xbef84afd	-0.48494712
248	0xbf416d10	-0.7555704
249	0x3e193ac5	0.14963825
250	0xbd84d56d	-0.0648602
251	0xbea6b8fa	-0.32563
252	0xbd4c896f	-0.049935754
253	0xbe1fbac9	-0.15598597
254	0x3e9557be	0.29168504
255	0xbe58d63a	-0.21175471

network.9.weight f4 [1, 256]
0	0x3a21f1bd	0.00061776844
1	0x3d16b005	0.03678896
2	0x3d58a7d1	0.052894417
3	0x3d4575d6	0.04820808
4	0xbe9a881f	-0.30181977
5	0xbd7e164b	-0.06203298
6	0xbb04f1d0	-0.0020285733
7	0x3de67009	0.11251838
8	0xbd21daa7	-0.039515164
9	0xbc5e4577	-0.013566366
10	0xbb2c7cd9	-0.0026319532
11	0xbd9908df	-0.07472395
12	0xbd4059bf	-0.04696059
13	0xbd9ceb38	-0.07662052
14	0x38ca89be	9.657767e-05
15	0xbd6851aa	-0.056718506
16	0xbc7f4d0a	-0.015582332
17	0x3c00a5fc	0.007852074
18	0xbdbb2a81	-0.09138966
19	0x3b7c61d6	0.0038510463
20	0xbcd971d2	-0.026543532
21	0x3981290f	0.00024635388
22	0x3bba2d8c	0.005681699
23	0xbd785b6e	-0.06063407
24	0x3d91e56f	0.07123839
25	0xbd892e5e	-0.06698297
26	0x3e0c3626	0.13692531
27	0xbd9e9cdc	-0.07744762
28	0x3c61587e	0.013754008
29	0xbda6dc58	-0.08147496
30	0x3db6da0d	0.08928309
31	0xbc942cea	-0.018087823
32	0xbd0b13f1	-0.033954564
33	0x3bb7eec8	0.0056131817
34	0xbdf6db08	-0.12053496
35	0x3d4d6bed	0.050151754
36	0xbe238a7b	-0.15970795
37	0xbcf11dfb	-0.029433241
38	0xbe4f2e95	-0.20232613
39	0xbcdb187b	-0.026745072
40	0x3cafdac4	0.02146662
41	0x3bc576ab	0.006026109
42	0x3daf11b1	0.08548296
43	0x3dd31f5e	0.10308717
44	0xbddd28f3	-0.10798826
45	0xbe443c1a	-0.19163552
46	0x3d1dc735	0.038520057
47	0xbdae5c32	-0.085136786
48	0x3bdebd6e	0.006797484
49	0xbccfeb55	-0.02538077
50	0x3db05ba4	0.08611229
51	0x3c4860a1	0.012230069
52	0xbe227f54	-0.15868884
53	0x3d9cbab8	0.07652801
54	0xbd8124e2	-0.06305863
55	0xbc42bfab	-0.0118865175
56	0x3cc9145c	0.02454584
57	0xbde75b01	-0.112966545
58	0xbd04e236	-0.032442294
59	0x3a6acc6b	0.0008956852
60	0xbe2fbde3	-0.1716228
61	0xbe17bfbc	-0.14819235
62	0xbd93dfb0	-0.072203994
63	0x3d1042ed	0.035220075
64	0x3d74bfcb	0.05975322
65	0xbc1afff0	-0.009460434
66	0xbdb2165f	-0.08695673
67	0xbda13253	-0.07870927
68	0x3c1c867e	0.00955355
69	0xbd2a4c4d	-0.041576672
70	0x3da30592	0.07960047
71	0xbe2c7827	-0.1684271
72	0xbe0c3337	-0.13691412
73	0xbda957c5	-0.08268694
74	0xbc5b82dc	-0.0133978985
75	0x3bd8e8fc	0.006619571
76	0xbe5e8edd	-0.21734186
77	0xbe860aca	-0.26180106
78	0x3d2bf049	0.0419772
79	0xbe12ea03	-0.14347081
80	0xbd9fc06d	-0.07800374
81	0xbce45f67	-0.027877523
82	0x3c017bc2	0.007903041
83	0xbc695bd3	-0.014243084
84	0x3c499681	0.012303949
85	0x3dbe6315	0.09296242
86	0xba9298ef	-0.0011184494
87	0xbd231f57	-0.03982481
88	0x3b7d019b	0.0038605693
89	0xbd47c2e1	-0.048769835
90	0xbd8ebd09	-0.06969649
91	0x3daa7b06	0.08324246
92	0xbdb3e3cb	-0.087836824
93	0xbc7cd0ab	-0.01543061
94	0x3c24f09d	0.010067132
95	0xba7cfa75	-0.0009650358
96	0x3cd52e25	0.02602298
97	0xbe63c212	-0.22242
98	0x3d98b2c3	0.07455971
99	0xbe3232fb	-0.1740226
100	0xbc8e9000	-0.017402649
101	0xbd8b97b4	-0.068160444
102	0xbd38fa6d	-0.0451607
103	0x3d2dffa7	0.042480137
104	0x3b56df7a	0.003278701
105	0xbd3d35a4	-0.046193734
106	0x3d5fee82	0.05467082
107	0xbd005902	-0.031334884
108	0xbdb2c252	-0.0872847
109	0x3dd89464	0.10575178
110	0xbc85de66	-0.0163414
111	0xbc855d9b	-0.016279986
112	0xbd5d9b42	-0.054103144
113	0x3d9f04fe	0.07764624
114	0x3dc41fcb	0.095763765
115	0xbd58227b	-0.05276726
116	0x3bbc752e	0.0057512736
117	0xbbabe8fc	-0.0052462798
118	0xbe0d63a7	-0.13807546
119	0x3b740ec7	0.0037240253
120	0xbd138dc4	-0.03602387
121	0xbd4dc39b	-0.050235372
122	0x3e216aa2	0.15763333
123	0xbc8917dd	-0.016735012
124	0x3ce47a35	0.027890304
125	0xbd8ddb23	-0.06926563
126	0xbcbea4b8	-0.023271903
127	0xbd11dd7a	-0.035611607
128	0xbdebc103	-0.115114234
129	0x3dcdc7a0	0.10047841
130	0x3bf0c9cf	0.007348276
131	0xb951cce0	-0.00020008115
132	0xbdb3d885	-0.08781532
133	0x3c74a6cb	0.014932345
134	0xbc18c9dd	-0.009325472
135	0xbccc7f16	-0.024962943
136	0xbe1f5026	-0.15557918
137	0xbcbef467	-0.0233099
138	0xbcaade76	-0.02085803
139	0xbba983ef	-0.0051731984
140	0x3c72327e	0.014782546
141	0x3b84bebb	0.004051057
142	0x3b183751	0.002322633
143	0x3d05e9cb	0.032693665
144	0x3cba346b	0.022730073
145	0xbdace3f5	-0.08441917
146	0x3cadb0cb	0.021202466
147	0xbe1cc491	-0.15309359
148	0xbbc2bd2f	-0.0059429626
149	0xbdc5db80	-0.09661007
150	0x3d0e99bd	0.034814585
151	0xbb0dd489	-0.0021641573
152	0xbd3374d8	-0.043812603
153	0xbe668363	-0.22511058
154	0x3c13a686	0.00901187
155	0x3c12bf38	0.008956723
156	0x3e051da1	0.12999584
157	0xbd4af84c	-0.0495532
158	0x3e4fb4fa	0.20283881
159	0xbbdcdcb7	-0.0067401784
160	0xbab556a2	-0.0013835023
161	0x3d56844f	0.052372273
162	0x3cbb5bf6	0.022870999
163	0xbde3e6fa	-0.1112804
164	0xbaf0600e	-0.0018339173
165	0x3c0c097a	0.008547181
166	0xbd7e6c19	-0.06211481
167	0xbcf44271	-0.029816838
168	0x3cb09017	0.021553082
169	0x3b7eb3b7	0.0038864443
170	0x3c621ae8	0.01380036
171	0x3bd70014	0.0065612886
172	0xbbb35df2	-0.0054738456
173	0xbbfc6430	-0.007702373
174	0xbda9d008	-0.08291632
175	0xbd546e10	-0.051862776
176	0x3d602cb2	0.054730125
177	0xb9d8a10e	-0.00041318726
178	0xbd36fdda	-0.044675685
179	0xbaaf2505	-0.0013362473
180	0xbcb2b37e	-0.021814104
181	0x3cc8a0e2	0.024490777
182	0xbadb7c7c	-0.0016745473
183	0xbce1a97d	-0.027546639
184	0xbbca2d73	-0.0061699688
185	0xbc79872d	-0.015229982
186	0xbac8bb8f	-0.0015314686
187	0xbde8c175	-0.11365024
188	0xbc5498a5	-0.012975846
189	0xbdc4933e	-0.09598397
190	0xbcd6c0f7	-0.02621506
191	0xbe96489c	-0.29352272
192	0xbc126d3c	-0.008937176
193	0xba839ec8	-0.0010041827
194	0x3cd21740	0.025645852
195	0xbb5027d5	-0.0031762023
196	0x3a24cf86	0.0006287027
197	0x3c45d6fe	0.012075184
198	0x3c940f3c	0.01807367
199	0xbd743d89	-0.059628997
200	0x3d2cd4ef	0.042195257
201	0xbc816a87	-0.015797867
202	0x3dcb6ad0	0.09932482
203	0x3bdfb55e	0.0068270406
204	0xbe15b028	-0.1461798
205	0x3c6d6d31	0.014491365
206	0x3daaf684	0.083478004
207	0xbdb16df0	-0.08663547
208	0x3d0183b2	0.031619735
209	0x3ce3c2b1	0.027802797
210	0xbda3ff44	-0.080076724
211	0x3e50a607	0.20375834
212	0xbd824fd1	-0.0636288
213	0xbda087bc	-0.07838389
214	0xbd12a4ba	-0.035801627
215	0x3d02b3f5	0.0319099
216	0xbb9f1a55	-0.004855434
217	0x3c2deafa	0.010615105
218	0x3b87d194	0.0041448567
219	0xbde2482b	-0.11048921
220	0x3d34d0ac	0.044144318
221	0xbd23446e	-0.03986018
222	0xbcdf17e3	-0.02723307
223	0x3abe79ec	0.0014532185
224	0x3c83ec58	0.016103908
225	0xbb91983f	-0.004443198
226	0xbcdf961c	-0.027293257
227	0xbcc83073	-0.024437165
228	0xbdc56867	-0.09639054
229	0x3dbc77aa	0.092025116
230	0xbbddabb5	-0.006764854
231	0x3d49b8f5	0.049248654
232	0xbdba2cb2	-0.09090556
233	0xbd4ece8e	-0.050489955
234	0x3aa5dac3	0.0012653697
235	0x3c704d99	0.014666938
236	0xbdc4e083	-0.09613135
237	0xbd3085da	-0.0430964
238	0xbd6f4bce	-0.058421902
239	0xbe429db3	-0.1900547
240	0xbd30b13e	-0.04313778
241	0x3d859a63	0.065235876
242	0x3c63d868	0.013906576
243	0xbcff2fa6	-0.03115065
244	0xbe165471	-0.1468065
245	0x3aa2b373	0.0012413099
246	0x3cfe9d25	0.031080792
247	0xbbd74399	-0.0065693376
248	0x3bf75c7e	0.0075488677
249	0xbbad838b	-0.005295222
250	0xbca5b6f8	-0.020228848
251	0xbca29a01	-0.019848825
252	0x3c04c389	0.00810326
253	0x3c4b79de	0.012419192
254	0x3c64ef9e	0.013973145
255	0xbd2fff44	-0.04296805
