animation_PPO/models/target_seeker_first_actor.pt (torch, 300198 bytes, 8 tensors)

log_std f4 [1, 2]
-0.008035933 0.5470152
00000000: 25a9 03bc 3009 0c3f

shared.0.weight f4 [256, 28]
0.18671988 -0.029490268 0.049817465 -0.19797854 0.12222112 0.021541607 -0.14913046 -0.038467273
0.010733362 -0.15623364 0.18765461 0.05565849 0.14986224 0.17328236 0.16999741 -0.0017368837
-0.02100063 0.0042912923 0.031204985 -0.15527338 0.15913443 -0.03279152 0.08680225 0.20433179
-0.0051341094 -0.20275305 -0.24529742 0.08997146 -0.14322233 -0.08513609 0.12992331 0.2347387
-0.08195189 0.060695592 0.06731427 -0.026013287 0.13880464 0.16682528 -0.017943276 0.08874459
-0.25995344 -0.2430936 -0.16397478 -0.039656896 -0.23666678 -0.11984007 0.06826257 -0.052163526
0.19361626 0.06408641 -0.13910992 0.17079756 0.17186548 -0.10446895 0.2742149 0.6062315
-0.05633249 0.0036712727 0.0017558016 0.13825089 -0.23916137 0.07585967 -0.030944388 -0.1428507
-0.27699888 -0.23954168 -0.1816046 -0.06062857 -0.30880108 -0.0938815 -0.2094332 -0.13676736
-0.20936495 -0.014264935 -0.12784213 0.017244102 -0.00837325 0.13990462 0.1053055 -0.12345899
0.014477026 0.0511578 -0.11276377 -0.18643257 0.04417298 -0.061971705 -0.20631854 0.012445094
0.07667923 0.09985447 0.023210006 0.085686214 -0.009371274 -0.22329986 -0.094742976 -0.16949543
-0.18582138 -0.11680121 -0.016132116 -0.19275254 -0.25461596 -0.08572189 -0.017084822 -0.0007373907
-0.15009397 -0.019197205 -0.15466915 -0.09673734 -0.00035020913 0.13220988 0.12807575 0.18555942
-0.04296989 0.25813186 -0.012424921 0.09156707 0.047487646 -0.26852423 -0.21628362 -0.21616554
-0.24075642 -0.25264126 -0.19617116 -0.26483917 0.053714547 -0.27976826 -0.15230449 -0.27721837
-0.054549947 0.14100485 0.18376003 0.14128722 0.114610806 -0.16686592 -0.20313749 -0.13588104
-0.10177064 0.099331565 -0.111910984 -0.10438881 0.17309254 0.008852099 -0.061305758 -0.14069316
-0.060291618 0.02390443 -0.18470721 -0.015915396 -0.1378623 -0.026124066 0.030869367 0.025462879
-0.17272851 -0.11807673 0.0858591 -0.10342285 -0.11914227 0.17309606 0.08553633 -0.11073315
0.00095748116 0.04348838 0.06062549 -0.10809611 0.00028252913 0.073709086 -0.13134122 -0.13680847
-0.14516336 0.02589734 0.15954658 -0.13180564 -0.027817506 -0.042023536 0.07031623 -0.077419
0.022729978 -0.04896297 -0.041217063 -0.09841194 0.028393492 -0.019893827 -0.17150699 -0.003910937
-0.022302365 -0.12625653 -0.15907994 -0.031089514 -0.119080275 0.040267352 0.1392534 -0.11850467
0.021035725 -0.013286349 0.11307692 0.017610593 0.08250315 -0.028434616 0.033217434 -0.10217248
0.06897902 -0.19816431 -0.20893398 0.0077922833 -0.26332563 -0.108090535 -0.21678948 -0.111744024
0.10287887 -0.21685405 -0.1807566 -0.028945453 0.12325615 -0.19272989 -0.17425318 0.06682482
-0.13982801 -0.13167883 0.16155547 0.08117585 0.052085992 -0.14192517 -0.603977 0.310239
0.16636443 -0.32714182 0.058263075 0.036728498 0.24964057 -0.041883826 -0.100460194 -0.09355893
0.1252115 0.14118905 0.20334867 -0.09315176 0.07021856 -0.12709452 0.06000455 0.09059007
-0.24405575 -0.30015436 0.118963115 -0.5601558 -0.69720215 -0.22295085 -0.02225396 0.04320175
0.11589384 0.15260929 0.012810031 -0.1536341 -0.0030886894 0.060118 0.052649662 -0.16057894
00000000: 7f33 3f3e 9395 f1bc 660d 4c3d e3ba 4abe
00000010: 114f fa3d 0678 b03c a8b5 18be dc8f 1dbd
00000020: fcda 2f3c b6fb 1fbe 8828 403e 28fa 633d
00000030: 7d75 193e ee70 313e cd13 2e3e 25a8 e3ba
00000040: 8309 acbc f89d 8c3b 99a1 ff3c fcff 1ebe
00000050: 23f4 223e 6750 06bd 61c5 b13d 5a3c 513e
00000060: 083c a8bb 7f9e 4fbe 3f2f 7bbe f542 b83d
00000070: e0a8 12be d55b aebd 9e0a 053e 575f 703e
00000080: 64d6 a7bd f19b 783d 10dc 893d d119 d5bc
00000090: ce22 0e3e 3fd4 2a3e c7fd 92bc b9bf b53d
000000a0: 9e18 85be 87ed 78be 01e9 27be 456f 22bd
000000b0: c758 72be b66e f5bd 3fcd 8b3d 6ca9 55bd
000000c0: 5743 463e bc3f 833d d572 0ebe 8ee5 2e3e
000000d0: 81fd 2f3e d1f3 d5bd e565 8c3e fd31 1b3f
000000e0: e6bc 66bd bc99 703b ed22 e63a a491 0d3e
000000f0: b8e6 74be 515c 9b3d 167f fdbc 7447 12be
00000100: ccd2 8dbe 6a4a 75be 8ef6 39be aa55 78bd
00000110: 2d1b 9ebe f244 c0bd a875 56be be0c 0cbe
00000120: c463 56be 79b7 69bc 0ce9 02be 8143 8d3c
00000130: f52f 09bc 2843 0f3e 69aa d73d 11d8 fcbd
00000140: 0c31 6d3c d78a 513d b1f0 e6bd 2ee8 3ebe
00000150: baee 343d 0bd6 7dbd 2b45 53be 82e6 4b3c
00000160: 000a 9d3d 8080 cc3d e922 be3c 417c af3d
00000170: f989 19bc b8a8 64be 9b08 c2bd 3690 2dbe
00000180: f647 3ebe 7935 efbd 8027 84bc ec60 45be
00000190: 065d 82be f58e afbd 78f5 8bbc 744d 41ba
000001a0: 3cb2 19be 7543 9dbc 9761 1ebe 3a1e c6bd
000001b0: 469c b7b9 0762 073e 4a26 033e 4a03 3e3e
000001c0: 3201 30bd dc29 843e e591 4bbc 8487 bb3d
000001d0: 6882 423d 027c 89be 7479 5dbe 805a 5dbe
000001e0: da88 76be 325a 81be 18e1 48be 0099 87be
000001f0: c903 5c3d c93d 8fbe b5f5 1bbe 91ef 8dbe
00000200: c46f 5fbd 9363 103e 972b 3c3e 99ad 103e
00000210: 12b9 ea3d e6de 2abe 4603 50be 6624 0bbe
00000220: 206d d0bd 596e cb3d 9631 e5bd cdc9 d5bd
00000230: 2c3f 313e 6508 113c bf1b 7bbd de11 10be
00000240: 58f4 76bd 39d3 c33c e323 3dbe 0161 82bc
00000250: c62b 0dbe 2302 d6bc c1e1 fc3c 8797 d03c
00000260: bedf 30be 36d2 f1bd e5d6 af3d 5ccf d3bd
00000270: dd00 f4bd 1840 313e ac2d af3d 10c8 e2bd
00000280: 79ff 7a3a df20 323d 6f52 783d 7e61 ddbd
00000290: 6b20 9439 caf4 963d 507e 06be 8517 0cbe
000002a0: b4a5 14be a926 d43c 2e60 233e 0ff8 06be
000002b0: 8ae1 e3bc df20 2cbd f501 903d da8d 9ebd
000002c0: 3834 ba3c 658d 48bd 39d3 28bd 338c c9bd
000002d0: 7899 e83c 61f8 a2bc 879f 2fbe 5127 80bb
000002e0: 73b3 b6bc 6449 01be dae5 22be 70af febc
000002f0: 5ce0 f3bd 61ef 243d 7198 0e3e 94b2 f2bd
00000300: 1d53 ac3c fdae 59bc df94 e73d 1744 903c
00000310: 69f7 a83d b6ef e8bc 010f 083d ce3f d1bd
00000320: df44 8d3d 96eb 4abe caf2 55be 6956 ff3b
00000330: 9ed2 86be 925e ddbd 10fe 5dbe 0dda e4bd
00000340: 28b2 d23d fd0e 5ebe 4218 39be 041f edbc
00000350: b86d fc3d fc5a 45be 6d6f 32be 74db 883d
00000360: 132f 0fbe d1d6 06be cc6e 253e 863f a63d
00000370: 1f58 553d d554 11be 3d9e 1abf a5d7 9e3e
00000380: 705b 2a3e 227f a7be 43a5 6e3d 9f70 163d
00000390: c7a1 7f3e 608e 2bbd 13be cdbd d39b bfbd
000003a0: 7237 003e dd93 103e a23a 503e 5ac6 bebd
000003b0: c0ce 8f3d 1125 02be 55c7 753d 4987 b93d
000003c0: c0e9 79be d5ad 99be efa2 f33d 5f66 0fbf
000003d0: d77b 32bf 3a4d 64be f04d b6bc 51f4 303d
000003e0: c059 ed3d 9c45 1c3e 2ae1 513c 4252 1dbe
000003f0: 9c6b 4abb 4b3e 763d 2ca7 573d ce6e 24be

shared.0.bias f4 [256]
-0.22471583 0.072269335 0.012066139 0.017345546 -0.11191479 -0.14294904 -0.06580462 -0.056657158
0.117173515 0.19154978 0.03698428 -0.25670224 -0.012968576 -0.4219071 -0.15060078 0.018696727
0.22535478 -0.18219295 -0.30975267 0.034233086 0.29171085 -0.1402274 0.06873477 -0.059627395
-0.22065918 0.050177626 0.17629458 -0.30845946 0.042727835 -0.20545535 -0.14469717 0.018569438
0.1689742 -0.11555655 0.0725572 -0.025564069 -0.32759514 -0.06406323 -0.123314954 -0.082129255
-0.31200355 -0.18187408 0.30603272 0.083293065 -0.085896775 -0.21918444 -0.14302295 -0.067224376
-0.08229488 -0.2900663 0.062743746 -0.09863957 -0.07740818 -0.27559397 0.19455323 0.11775352
-0.0816075 -0.12660393 -0.16856606 -0.00934179 0.092743896 -0.30780432 -0.19390796 0.10789726
-0.17807078 -0.28137064 0.12320659 -0.2402086 -0.010767928 -0.20402943 0.014389169 -0.07110357
0.33679217 0.16112562 -0.2958785 -0.16083302 -0.13952583 0.08122526 -0.25968274 -0.1317051
-0.21903482 -0.012535529 -0.041749094 0.1263681 0.018414287 -0.12930907 0.07331653 -0.25006333
-0.04097925 -0.31356364 -0.13696654 -0.006379152 -0.14756794 0.009029197 -0.22538291 0.11604681
-0.03973258 0.113484256 0.023590501 0.025927294 0.085856095 0.010311226 -0.09077029 -0.1481584
0.2488484 -0.08699814 -0.18131071 0.341973 -0.07894027 0.43898305 0.14292897 0.034472786
-0.04246264 -0.09384421 -0.1673243 0.024932323 -0.23630866 0.07608434 -0.02829138 -0.013794776
-0.17193596 -0.094096944 0.105515085 0.22618292 0.12789494 -0.15914205 -0.099162646 -0.14777365
-0.0019859127 -0.195588 0.041651066 0.092723034 -0.24738818 -0.08916109 -0.3658544 -0.21196447
0.09730422 -0.10876756 -0.11220535 0.045637716 -0.36096287 -0.15208153 -0.16743462 -0.014226177
0.08159949 -0.040715504 -0.08105125 -0.0010635 0.11080473 0.12715565 0.30168647 0.25253686
-0.06428914 0.38185814 0.034041833 0.066558145 -0.15205048 -0.13021274 -0.18311983 -0.14746566
-0.14893375 -0.085155785 0.15512064 0.119604655 -0.1755514 0.36029166 0.028210659 0.14575322
0.093410335 -0.095606074 0.13525905 -0.025974447 -0.13351312 0.17266525 -0.13582258 0.04128135
0.09884892 -0.08813522 -0.22814181 -0.07120385 0.09474177 -0.2997536 -0.09065312 -0.0280476
-0.12643214 -0.014074998 0.19789608 -0.31673342 -0.1481665 0.09592757 -0.38695008 -0.2401428
0.2639661 0.076227225 0.20349818 -0.36984482 -0.04620228 -0.11727757 -0.14012943 0.24180532
0.042115796 -0.17730479 -0.049024727 0.06397987 -0.15728424 -0.13069858 -0.09528377 0.05852296
0.31960937 -0.04167688 0.16215426 -0.1270216 -0.057479125 0.043217883 -0.06964816 0.12784852
-0.17693217 -0.054710526 -0.07747728 0.13534363 0.044949558 0.048303578 -0.063326076 -0.14468616
-0.024677256 0.15554824 -0.117887646 0.10121844 -0.0420109 -0.12238996 -0.26896814 -0.04038561
-0.043204065 0.10093619 -0.30008468 0.16926609 0.19954814 -0.24358846 0.45006374 0.17503676
-0.021274937 -0.18373749 0.15438837 0.19957364 0.0033949015 0.2361632 0.197891 -0.3115491
-0.287071 -0.09435129 -0.07245538 0.20548747 -0.06582039 0.010842279 -0.0874058 -0.0448437
00000000: e81b 66be f201 943d 0eb1 453c 3f18 8e3c
00000010: 9533 e5bd 3c61 12be 93c4 86bd 5611 68bd
00000020: abf8 ef3d a025 443e d47c 173d 7a6e 83be
00000030: 267a 54bc 3504 d8be 1737 1abe e129 993c
00000040: 67c3 663e ca90 3abe e797 9ebe fe37 0c3d
00000050: 205b 953e c697 0fbe d1c4 8c3d db3b 74bd
00000060: 7bf4 61be 0e87 4d3d 9186 343e 66ee 9dbe
00000070: 6203 2f3d e362 52be 7f2b 14be ef1e 983c
00000080: 9307 2d3e eaa8 ecbd df98 943d bd6b d1bc
00000090: 8dba a7be 9533 83bd 8d8c fcbd 6233 a8bd
000000a0: eebe 9fbe 333d 3abe 52b0 9c3e 8e95 aa3d
000000b0: a6ea afbd e371 60be 9c74 12be efac 89bd
000000c0: 388a a8bd 9283 94be cb7f 803d 8b03 cabd
000000d0: 2e88 9ebd a71a 8dbe f638 473e c228 f13d
000000e0: d521 a7bd 76a4 01be 959c 2cbe 4f0e 19bc
000000f0: 83f0 bd3d 8798 9dbe cf8f 46be 3df9 dc3d
00000100: 3058 36be d00f 90be bd53 fc3d 3ef9 75be
00000110: f76b 30bc 17ed 50be 8dc0 6b3c c09e 91bd
00000120: 0670 ac3e 1dfe 243e 637d 97be 69b1 24be
00000130: dcdf 0ebe 6e59 a63d 23f5 84be b4dd 06be
00000140: aa4a 60be d261 4dbc 1901 2bbd a466 013e
00000150: 8fd9 963c 9969 04be fa26 963d 4d08 80be
00000160: dcd9 27bd 6a8b a0be f540 0cbe 3508 d1bb
00000170: 0d1c 17be 32ef 133c c7ca 66be f3a9 ed3d
00000180: a1be 22bd 6f6a e83d de40 c13c 7a65 d43c
00000190: 52d5 af3d 6bf0 283c c6e5 b9bd d6b6 17be
000001a0: 1dd2 7e3e 152c b2bd 84a9 39be 1617 af3e
000001b0: 70ab a1bd 63c2 e03e f95b 123e 5633 0d3d
000001c0: 4eed 2dbd 6531 c0bd 1057 2bbe df3e cc3c
000001d0: e6fa 71be 1bd2 9b3d 53c3 e7bc 7c03 62bc
000001e0: fb0f 30be e6b5 c0bd 4b18 d83d 7f9c 673e
000001f0: e4f6 023e 22f6 22be c915 cbbd fa51 17be
00000200: 1626 02bb 3848 48be 4f9a 2a3d 93e5 bd3d
00000210: 5453 7dbe 179a b6bd 4551 bbbe 370d 59be
00000220: 6f47 c73d 87c1 debd ebcb e5bd 9dee 3a3d
00000230: 20d0 b8be 43bb 1bbe fb73 2bbe e914 69bc
00000240: a21d a73d 4dc5 26bd 33fe a5bd 2365 8bba
00000250: 97ed e23d 1735 023e a676 9a3e 834c 813e
00000260: 06aa 83bd e982 c33e 736f 0b3d a34f 883d
00000270: 1fb3 1bbe 7d56 05be c483 3bbe 3d01 17be
00000280: 1782 18be 2866 aebd f2d7 1e3e 49f3 f43d
00000290: bfc3 33be 2678 b83e 0a1a e73c 5540 153e
000002a0: eb4d bf3d 1ecd c3bd 5981 0a3e 5dc8 d4bc
000002b0: aab7 08be 29cf 303e 1315 0bbe a216 293d
000002c0: 4d71 ca3d 3d80 b4bd 029e 69be 53d3 91bd
000002d0: f907 c23d 4e79 99be 58a8 b9bd 15c4 e5bc
000002e0: 6d77 01be d29a 66bc 45a5 4a3e e22a a2be
000002f0: f5b8 17be ac75 c43d 521e c6be ffe7 75be
00000300: 9126 873e 051d 9c3d d461 503e 4d5c bdbe
00000310: 9a3e 3dbd 392f f0bd 177e 0fbe d09b 773e
00000320: 9d81 2c3d 638f 35be 27ce 48bd e107 833d
00000330: 1f0f 21be d9d5 05be 2324 c3bd c5b5 6f3d
00000340: d7a3 a33e 60b5 2abd c40b 263e f311 02be
00000350: 3b6f 6bbd 3c05 313d b2a3 8ebd b9ea 023e
00000360: b52d 35be 2518 60bd 68ac 9ebd 8597 0a3e
00000370: 071d 383d f9d9 453d 1ab1 81bd 9c28 14be
00000380: f527 cabc 0a48 1f3e 146f f1bd 9d4b cf3d
00000390: 9f13 2cbd 96a7 fabd 31b6 89be 626b 25bd
000003a0: bff6 30bd a2b7 ce3d b3a4 99be 1754 2d3e
000003b0: 5956 4c3e 416f 79be c16e e63e d63c 333e
000003c0: c748 aebc ae25 3cbe fc17 1e3e 085d 4c3e
000003d0: ff7c 5e3b c4d4 713e f0a3 4a3e 5d83 9fbe
000003e0: f8fa 92be 403b c1bd 7c63 94bd 4f6b 523e
000003f0: d7cc 86bd d0a3 313c d001 b3bd 07ae 37bd

shared.2.weight f4 [256, 256]
-0.12473485 0.0977325 -0.051999036 -0.0044428427 -0.0036693648 0.04101395 0.054508105 -0.032970097
0.1057474 -0.04856519 0.09957353 -0.03425812 -0.07896877 -0.052053053 -0.05650641 0.003334876
0.06523095 0.03369507 0.0050848383 -0.017778434 0.03911336 -0.019050047 -0.024626212 0.00909687
-0.025689298 0.0045022145 -0.0045182984 0.011934247 -0.014008584 -0.06044858 0.005445948 -0.14195186
-0.013885866 0.056011505 0.0019092507 -0.05155742 -0.08578691 0.018324915 -0.044500075 0.029291507
0.027509034 -0.0068461024 0.069671705 0.12750493 -0.0374942 -0.024849264 0.004067791 0.040053
0.051602125 0.033442944 -0.04156432 -0.03031873 0.1261772 -0.09626791 0.012494531 -0.03891584
0.020726118 -0.034870412 0.004514937 0.044279113 0.020693006 0.0029781521 0.07565131 -0.08583882
0.03625813 -0.08149268 0.10835223 0.041598145 -0.03856803 -0.04372492 0.02247932 0.03640002
0.016141418 0.0054958086 -0.080794424 0.050474584 0.09476249 0.057974167 -0.077335946 0.023491435
-0.042222466 -0.05590961 0.05035461 0.02320593 0.02394943 0.029644072 -0.009416887 -0.10149482
0.08421022 -0.048522793 0.032703646 -0.051170554 0.015908118 -0.0015258698 0.09727971 -0.06020337
-0.005123824 -0.0062425407 -0.045673314 -0.024856864 0.009705462 -0.031301938 -0.031889312 0.01856789
0.014468504 -0.06912466 -0.00807399 0.01741622 -0.02270845 -0.047896493 -0.06614034 -0.039085235
-0.12546194 0.056214705 -0.0074590268 -0.03298037 -0.03267679 0.10889664 0.008366828 0.047229785
0.037280694 0.026317975 0.037196137 0.0880936 0.014428654 -0.0667319 0.00018014648 0.015147033
-0.032316156 -0.071215026 -0.11241327 -0.055100635 -0.053275947 -0.01021431 0.04034255 -0.02674071
-0.035001166 0.08337123 -0.009656768 0.042799275 -0.0889859 0.021148477 0.059080057 0.02344439
0.028199332 0.3620818 -0.010453283 -0.05808848 0.33120638 -0.052760594 -0.01070986 0.024663957
-0.021138363 -0.07785644 -0.057154704 -0.02841236 -0.063114405 0.05733312 -0.0018008575 0.0045500025
-0.0065724473 -0.031864323 0.052432474 0.003119975 0.044953078 -0.20090081 0.1699912 -0.019578708
-0.008468727 0.0379022 0.012741483 -0.0064573186 0.036365233 0.03961008 -0.03484395 -0.060263585
0.014798475 0.02007654 0.017141705 -0.03608276 0.060529765 0.036556657 0.046624146 -0.015827632
0.04628429 0.00394358 0.40735027 -0.0859265 -0.021782527 -0.0011847664 -0.10373111 -0.033856068
-0.059637707 -0.034445453 0.049808796 -0.016890842 0.05537035 0.07824429 -0.044107594 0.009992305
0.04960042 -0.017508367 0.17233066 0.036399234 -0.007949847 0.031421006 -0.00022089272 -0.018841086
0.09256918 -0.0119542675 0.031214517 0.040618442 0.012103302 0.06917515 -0.14668144 0.027697293
0.04924814 0.009146913 -0.0095532 -0.045278184 -0.049498018 0.010896379 0.045429617 -0.04697981
0.017057506 9.557203e-05 0.0554824 0.035346217 0.062195923 0.05666838 -0.021667548 -0.053473394
-0.029006565 -0.031884924 0.018141123 -0.042403404 -0.006436968 0.048233382 0.06298265 -0.0041118483
0.006940457 0.014435896 0.00089102593 -0.012131308 -0.025531622 -0.02079651 0.049989484 -0.011469035
-0.071688496 -0.024158098 -0.043050695 0.09920394 0.058290586 -0.03968817 0.010802811 0.061567757
00000000: fc74 ffbd fa27 c83d f1fc 54bd 4495 91bb
00000010: ba79 70bb 3efe 273d e443 5f3d a70b 07bd
00000020: 1892 d83d 4bec 46bd 35ed cb3d 3e52 0cbd
00000030: 61ba a1bd 9535 55bd 4473 67bd ef8d 5a3b
00000040: ce97 853d d703 0a3d b79e a63b 14a4 91bc
00000050: 5535 203d d80e 9cbc e9bc c9bc 0a0b 153c
00000060: 5d72 d2bc 5087 933b 3c0e 94bb dc87 433c
00000070: 4384 65bc ee98 77bd ec73 b23b d45b 11be
00000080: 8b81 63bc 526c 653d d33f fa3a e02d 53bd
00000090: 0cb1 afbd 221e 963c b645 36bd bef4 ef3c
000000a0: a05a e13c 4555 e0bb 0ab0 8e3d a790 023e
000000b0: 8593 19bd af90 cbbc 1b4b 853b 9d0e 243d
000000c0: c05c 533d 78fb 083d 593f 2abd fc5e f8bc
000000d0: 9934 013e 1c28 c5bd ddb5 4c3c 3766 1fbd
000000e0: d2c9 a93c 47d4 0ebd 09f2 933b 045e 353d
000000f0: 6184 a93c 1a2d 433b 13ef 9a3d 43cc afbd
00000100: 6883 143d a2e5 a6bd c6e7 dd3d d162 2a3d
00000110: 83f9 1dbd e718 33bd 8d26 b83c 3018 153d
00000120: 023b 843c 2f16 b43b 8c77 a5bd 70be 4e3d
00000130: d612 c23d 5276 6d3d 4f62 9ebd 1c71 c03c
00000140: 77f1 2cbd 7a01 65bd a340 4e3d 5d1a be3c
00000150: 9831 c43c 20d8 f23c 4949 1abc 84dc cfbd
00000160: 6876 ac3d d6bf 46bd 42f4 053d 3798 51bd
00000170: be51 823c b2ff c7ba 963a c73d cf97 76bd
00000180: c0e5 a7bb 3a8e ccbb f113 3bbd 9fa0 cbbc
00000190: a803 1f3c 7636 00bd 5e9e 02bd b01b 983c
000001a0: 4e0d 6d3c 3b91 8dbd c548 04bc 76ac 8e3c
000001b0: 1207 babc 1d2f 44bd 9674 87bd d717 20bd
000001c0: 1879 00be 6441 663d da6a f4bb 6d16 07bd
000001d0: 19d8 05bd 3405 df3d 0515 093c 0574 413d
000001e0: a4b3 183d cb98 d73c fa5a 183d 6b6a b43d
000001f0: 2966 6c3c bcaa 88bd b4e5 3c39 432b 783c
00000200: f25d 04bd 2fd9 91bd ee38 e6bd 34b1 61bd
00000210: e137 5abd ec59 27bc 3b3e 253d 550f dbbc
00000220: 625d 0fbd 89be aa3d 6c37 1ebc 4b4e 2f3d
00000230: 3d3e b6bd 923f ad3c eefd 713d 730e c03c
00000240: 4902 e73c c962 b93e 3f44 2bbc 30ee 6dbd
00000250: e293 a93e 7e1b 58bd 6978 2fbc 110c ca3c
00000260: 5c2a adbc 3273 9fbd 0d1b 6abd 0ac1 e8bc
00000270: 2042 81bd 22d6 6a3d c00a ecba 3018 953b
00000280: af5d d7bb 2a84 02bd 6fc3 563d 7f78 4c3b
00000290: b820 383d f1b8 4dbe 2c12 2e3e 8763 a0bc
000002a0: 6ac0 0abc 563f 1b3d a7c1 503c ea97 d3bb
000002b0: b6f3 143d 2e3e 223d 88b8 0ebd f3d6 76bd
000002c0: 4e75 723c 8e77 a43c c36c 8c3c 84cb 13bd
000002d0: 0fee 773d 6fbc 153d f6f8 3e3d f3a8 81bc
000002e0: 9894 3d3d 2639 813b 3790 d03e 3cfa afbd
000002f0: 4571 b2bc 2a4a 9bba fa70 d4bd a9ac 0abd
00000300: ab46 74bd ad16 0dbd 4f04 4c3d aa5e 8abc
00000310: 05cc 623d 8b3e a03d 2aaa 34bd c4b6 233c
00000320: cf29 4b3d b56d 8fbc 7377 303e 5d17 153d
00000330: 1340 02bc 50b3 003d 709f 67b9 9f58 9abc
00000340: e994 bd3d d5db 43bc 96b5 ff3c 865f 263d
00000350: ee4c 463c b3ab 8d3d a933 16be 6fe5 e23c
00000360: 6bb8 493d efdc 153c 0685 1cbc 9e75 39bd
00000370: 6fbe 4abd ba86 323c 6814 3a3d e76d 40bd
00000380: 2fbc 8b3c d86d c838 8341 633d 32c7 103d
00000390: 27c1 7e3d 1a1d 683d 2480 b1bc eb06 5bbd
000003a0: 2d9f edbc c499 02bd b19c 943c 31af 2dbd
000003b0: 34ed d2bb 5e90 453d 0cfd 803d afbc 86bb
000003c0: c66c e33b 8984 6c3c bd93 693a 65c2 46bc
000003d0: b127 d1bc 715d aabc c6c1 4c3d 9fe8 3bbc
000003e0: 6bd1 92bd 34e7 c5bc ed55 30bd 6f2b cb3d
000003f0: 1cc2 6e3d 1090 22bd 46fe 303c 792e 7c3d

shared.2.bias f4 [256]
0.0012250948 0.011190369 -0.012607075 -0.031754214 -0.17524068 -0.05852023 -0.038498964 -0.06932686
-0.03271533 -0.0519922 0.20990306 0.21109194 0.12527587 0.2007922 0.16034736 0.020485314
-0.011524463 -0.003981682 0.12694785 0.18371566 0.033185445 -0.004644727 -0.026879542 0.18084729
0.011345037 -0.12959336 0.12732436 -0.009009107 0.015903858 0.16050787 -0.07906024 -0.010174256
0.040554926 0.027256722 -0.049841683 0.18725652 0.1338927 0.0074173016 0.22785851 0.22105834
0.22026028 -0.07363882 -0.040367287 -0.1272242 -0.052010212 0.21675318 0.13623466 -0.024207374
0.046545304 -0.041121442 -0.016352551 -0.15411696 -0.076617956 -0.030941788 -0.0427218 -0.08719558
-0.03856292 -0.024654875 -0.016003333 0.1612975 0.18676355 0.20794666 0.117406555 0.13630149
-0.06616491 0.11839401 -0.09633343 -0.032502837 0.18822502 0.15442744 0.14773338 0.031023344
-0.09860406 0.18447146 -0.112177484 0.02232979 -0.10470719 -0.07820761 0.25211266 -0.022392655
0.16515894 -0.024717519 0.1789669 -0.013189712 0.20577106 0.16619001 -0.060884215 0.04724687
-0.084971726 0.009856962 0.17250018 -0.032417484 0.0133752255 0.20161612 -0.08054839 -0.06948433
-0.015673203 0.20678997 -0.07835334 0.18594266 0.25881752 0.22675136 -0.010608698 -0.098249294
-0.064267606 -0.024607504 -0.0814453 0.12585445 -0.11984981 -0.06191649 -0.17145702 0.017497595
-0.099130675 -0.039028693 -0.024702873 -0.04301087 0.14052707 0.00048114534 -0.048019312 0.20192403
0.16429226 0.15712845 0.111137025 -0.063667536 -0.007123911 0.16116269 0.17407873 -0.075850174
0.24091941 0.17992131 0.1460097 0.21508546 0.020878093 0.18088003 0.21819058 0.19359782
0.14760834 0.013465227 0.2633557 0.025669264 0.17253928 0.19028024 -0.085088454 -0.06014246
0.2594423 0.2515341 0.17927812 -0.020859258 -0.076067284 0.2264582 -0.018806618 0.13529336
-0.012460745 -0.06246646 0.022665987 0.02610328 0.024956781 -0.051858004 0.16348538 -0.08293497
-0.06285221 0.19502163 0.16222048 -0.066791736 0.14727238 0.23509672 0.17212267 -0.018684315
0.187297 -0.031369388 0.25948203 0.013326009 0.16978672 -0.030529592 -0.10851384 0.21593031
-0.018113714 0.1765899 -0.07297855 -0.063071206 0.015892334 0.0140894465 0.0047182753 0.23426452
0.021251166 0.030480575 -0.07180457 0.17920351 0.2318666 0.009413743 -0.049390312 -0.057713564
0.22875708 0.11794393 0.029652253 -0.032353237 0.22001015 -0.0041399305 -0.15308875 0.19468273
-0.06780255 -0.0638434 0.18771575 0.22749175 0.1791905 0.011902361 0.14711992 0.16587366
0.2053757 0.0354995 0.164541 0.1875581 0.020923004 -0.018538604 -0.049151704 -0.00605564
-0.040406056 -0.069228224 0.20600678 0.022643862 -0.06126685 0.18576562 0.24546517 0.15709263
-0.012821575 0.16362816 0.21801645 0.19267018 0.18085246 0.07943718 0.16818966 -0.06102655
0.046383314 0.24148199 0.20547882 0.10833448 0.16648386 0.23750445 0.1685113 0.1174502
0.23245601 0.24011137 0.03212031 0.04336741 -0.06112459 -0.06412104 0.20919886 0.019007629
0.13731864 0.16923231 -0.07743835 0.041015085 0.019004289 -0.04750763 -0.02949144 -0.032941774
00000000: 5c93 a03a cf57 373c e88d 4ebc b510 02bd
00000010: 4b72 33be e9b2 6fbd 17b1 1dbd 3efb 8dbd
00000020: 8300 06bd c6f5 54bd d4f0 563e 7c28 583e
00000030: 5148 003e 789c 4d3e 1932 243e d1d0 a73c
00000040: 1ad1 3cbc c578 82bb 9efe 013e f51f 3c3e
00000050: 76ed 073d cb32 98bb 7c32 dcbc 0830 393e
00000060: 89e0 393c 1fb4 04be 5161 023e ef9a 13bc
00000070: cf48 823c 2d5c 243e 56ea a1bd ecb1 26bc
00000080: ec1c 263d 7d49 df3c cb26 4cbd 2cc0 3f3e
00000090: 2b1b 093e d60c f33b be53 693e 1e5d 623e
000000a0: e98b 613e f3cf 96bd 2b58 25bd 1047 02be
000000b0: a908 55bd 8cf4 5d3e 1981 0b3e 8b4e c6bc
000000c0: 4aa6 3e3d f56e 28bd c9f5 85bc d6d0 1dbe
000000d0: e0e9 9cbd a279 fdbc 0efd 2ebd 9993 b2bd
000000e0: 27f4 1dbd 05f9 c9bc 6c19 83bc 2c2b 253e
000000f0: f23e 3f3e f8ef 543e d972 f03d 9e92 0b3e
00000100: 7881 87bd 8f78 f23d 764a c5bd b221 05bd
00000110: 0fbe 403e 3a22 1e3e 6b47 173e ab24 fe3c
00000120: edf0 c9bd 16e6 3c3e 4fbd e5bd f7ec b63c
00000130: b970 d6bd 502b a0bd e914 813e cd70 b7bc
00000140: 6d1f 293e 657c cabc 1943 373e a919 58bc
00000150: a6b5 523e b72d 2a3e ba61 79bd ef85 413d
00000160: a805 aebd 187f 213c e3a3 303e 32c8 04bd
00000170: c323 5b3c 7574 4e3e 8ef6 a4bd cd4d 8ebd
00000180: 1765 80bc c0c0 533e b777 a0bd c167 3e3e
00000190: bb83 843e 8231 683e 1bd0 2dbc ed36 c9bd
000001a0: bc9e 83bd ad95 c9bc cbcc a6bd fddf 003e
000001b0: d173 f5bd 259c 7dbd 6e92 2fbe 1e57 8f3c
000001c0: 0605 cbbd 8ddc 1fbd ae5d cabc 2b2c 30bd
000001d0: 54e6 0f3e 3c42 fc39 e6af 44bd 2cc5 4e3e
000001e0: 3b3c 283e 48e6 203e cf9b e33d 2064 82bd
000001f0: b26f e9bb d507 253e b241 323e 5657 9bbd
00000200: 94b3 763e 4b3d 383e 9183 153e 5d3f 5c3e
00000210: 8908 ab3c 9d38 393e 5a6d 5f3e 823e 463e
00000220: a426 173e 419d 5c3c 8fd6 863e 5948 d23c
00000230: 23ae 303e d3d8 423e db42 aebd f157 76bd
00000240: 9fd5 843e 14c9 803e af94 373e 09e1 aabc
00000250: 2ac9 9bbd a9e4 673e 5610 9abc 588a 0a3e
00000260: 2728 4cbc d5dc 7fbd 05ae b93c 8cd6 d53c
00000270: 2a72 cc3c 0f69 54bd b668 273e cfd9 a9bd
00000280: a9b8 80bd c0b3 473e 201d 263e 1bca 88bd
00000290: 92ce 163e 32bd 703e ed40 303e d90f 99bc
000002a0: c9ca 3f3e 307d 00bd d4da 843e 5555 5a3c
000002b0: 92dc 2d3e 3219 fabc 813c debd d61c 5d3e
000002c0: 3663 94bc fcd3 343e c775 95bd 7a2b 81bd
000002d0: a430 823c 6cd7 663c c39b 9a3b 0ae3 6f3e
000002e0: ed16 ae3c 66b2 f93c 460e 93bd 2081 373e
000002f0: 706e 6d3e 1a3c 1a3c 7f4d 4abd 0f65 6cbd
00000300: 4c3f 6a3e 968c f13d 48e9 f23c d484 04bd
00000310: 574a 613e 41a8 87bb 4cc3 1cbe e95a 473e
00000320: 10dc 8abd 54c0 82bd 8f38 403e 99f3 683e
00000330: b77d 373e 1f02 433c 9ba6 163e c9da 293e
00000340: 024e 523e ec67 113d 707d 283e 3b0f 403e
00000350: b866 ab3c 45de 97bc 4c53 49bd 646e c6bb
00000360: d280 25bd 87c7 8dbd 71f3 523e 9f7f b93c
00000370: f3f2 7abd 5839 3e3e 395b 7b3e e4dc 203e
00000380: 9511 52bc 248e 273e b43f 5f3e 554b 453e
00000390: 6331 393e f6af a23d e939 2c3e faf6 79bd
000003a0: 6efc 3d3d 0e47 773e 0a69 523e 78de dd3d
000003b0: bf7a 2a3e 5e34 733e 3a8e 2c3e bb89 f03d
000003c0: f308 6e3e c1df 753e 9690 033d 06a2 313d
000003d0: c75d 7abd e451 83bd 3a38 563e e3b5 9b3c
000003e0: 429d 0c3e 3c4b 2d3e ff97 9ebd 6fff 273d
000003f0: e2ae 9b3c 5c97 42bd 0898 f1bc f4ed 06bd

actor.weight f4 [2, 256]
-0.081955016 -0.12395579 0.023891322 -0.33202693 -0.2771784 -0.057122048 -0.092713974 0.0125305755
-0.012489673 -0.04159135 -0.08613041 0.0932258 0.03710396 0.12065641 -0.068821214 0.04462546
-0.0043838862 0.018972222 -0.061673786 0.023646861 0.024494456 -0.01963132 -0.054126196 0.041158378
-0.021978969 -0.047643766 -0.12747298 -0.021445017 0.03660708 -0.073367506 -0.06067211 -0.010996488
-0.081416704 0.0037512688 -0.3137288 -0.022667974 0.0024643363 0.018861458 -0.11459234 -0.06590553
0.026146818 -0.16573283 -0.12315341 0.06858204 0.005424577 -0.08249504 -0.0044286414 -0.0235997
0.021696037 0.033222593 0.00745397 0.03707845 -0.019705076 0.08248649 -0.03203917 -0.5903765
-0.10237913 -0.14531127 0.057118982 -0.011898478 -0.12435154 -0.1711724 -0.025906825 -0.039084
-0.012868575 -0.08481148 -0.26294976 -0.018683085 -0.13547438 -0.10231364 0.10120542 -0.024495175
-0.24388465 -0.09759556 0.113891155 0.044240996 0.037226938 -0.046218403 -0.11367258 -0.0064549437
-0.08771657 -0.010713226 0.0059326035 -0.007883986 0.018114071 0.003810613 0.036199123 -0.40255454
-0.28286773 0.05131155 -0.092401735 -0.05378878 -0.052724604 -0.058729786 -0.04374837 0.043259706
-0.1021181 -0.009667562 -0.0420526 -0.0067035984 0.03486068 -0.071510166 -0.039882734 -0.2347359
-0.28693318 -0.04540231 0.0410917 -0.07669178 -0.13574369 0.05403292 -0.12501572 -0.13598585
0.042203527 -0.00026684278 -0.019180868 0.05111702 0.0041626375 -0.04153589 0.026443198 0.018546226
-0.16647272 -0.143872 -0.060368627 -0.019236855 -0.03286556 0.0038784773 -0.16378109 0.0616407
-0.08975567 -0.07450761 -0.008075036 -0.032508355 0.056944355 -0.12537572 0.10616161 0.0076536597
0.09414548 -0.043318465 -0.09305232 -0.011072965 0.13454038 0.037556857 -0.25128818 -0.25533658
0.0038937146 0.052409794 -0.047414213 0.06504653 -0.041274793 0.03908184 0.047657054 0.02513872
0.010628483 -0.0052475133 -0.010665669 -0.03269349 -0.050459307 -0.01252016 0.027114836 -0.021098956
-0.45329508 -0.026640417 0.08917388 -0.058996093 0.010569957 -0.13543452 -0.02117302 0.02202754
-0.08619479 0.029272554 -0.14921829 -0.04558705 -0.13980108 0.039720852 -0.23204787 0.052317612
0.058168486 -0.014101616 -0.05953055 0.029345477 -0.045708966 0.038503636 0.024632191 0.028779078
0.00877478 -0.0198089 -0.023651011 0.0008299412 -0.028775321 -0.0113215055 0.060789358 0.031501528
-0.0002109926 0.0715031 0.010086795 0.007819698 -0.035392225 -0.022040833 -0.08719917 0.049741887
-0.06293814 0.021129519 -0.07689761 -0.014831826 -0.04944158 -0.020744307 -0.041466802 0.04431204
-0.09859708 -0.017698342 -0.10410879 0.1304264 0.03159088 0.04038916 0.11517947 0.009207392
-0.025628712 0.009941716 -0.059609 -0.015571024 0.028719248 0.024741348 -0.01984158 0.016128784
0.05469921 -0.023532232 0.025372582 -0.023221612 -0.14231919 -0.002618333 0.0011613677 -0.3260426
0.05986709 -0.1595561 0.022915874 -0.043720484 -0.034750994 0.005933164 -0.017692637 -0.013029155
0.0033682084 -0.057084944 -0.040316273 0.047162138 0.009218127 0.026376903 0.09141018 -0.0883525
-0.028709568 -0.15640871 0.05922167 0.0155209135 0.039100524 -0.03539295 0.033745807 0.0064475015
00000000: 08d8 a7bd 89dc fdbd bcb7 c33c 6fff a9be
00000010: 54ea 8dbe cff8 69bd d3e0 bdbd 0b4d 4d3c
00000020: 7ca1 4cbc b15b 2abd 2465 b0bd 2bed be3d
00000030: 52fa 173d b51a f73d 23f2 8cbd 30c9 363d
00000040: b4a6 8fbb a26b 9b3c a79d 7cbd 10b7 c13c
00000050: 99a8 c83c ddd1 a0bc 6eb3 5dbd b095 283d
00000060: 3d0d b4bc 1c26 43bd 4788 02be 76ad afbc
00000070: 4ef1 153d b441 96bd 5283 78bd 9d2a 34bc
00000080: cdbd a6bd d9d7 753b 10a1 a0be 30b2 b9bc
00000090: b480 213b 5883 9a3c 64af eabd 7af9 86bd
000000a0: da31 d63c deb5 29be db37 fcbd be74 8c3d
000000b0: a6c0 b13b 29f3 a8bd 231e 91bb 2854 c1bc
000000c0: e3bb b13c 6a14 083d 6f40 f43b 93df 173d
000000d0: 8a6c a1bc adee a83d 813b 03bd ea22 17bf
000000e0: 26ac d1bd 7acc 14be 98f5 693d d5f1 42bc
000000f0: 05ac febd d147 2fbe 8d3a d4bc 8b16 20bd
00000100: b7d6 52bc a4b1 adbd 5aa1 86be 450d 99bc
00000110: ccb9 0abe d089 d1bd ca44 cf3d 1baa c8bc
00000120: e6bc 79be 2ee0 c7bd c43f e93d 0c36 353d
00000130: 467b 183d 824f 3dbd 2bcd e8bd fe83 d3bb
00000140: bfa4 b3bd 8786 2fbc 4966 c23b d62b 01bc
00000150: f663 943c 7abb 793b 8845 143d a11b cebe
00000160: 0ad4 90be 0f2c 523d 1f3d bdbd a051 5cbd
00000170: c1f5 57bd a58e 70bd 7e31 33bd 1731 313d
00000180: 4b23 d1bd b264 1ebc 593f 2cbd dca9 dbbb
00000190: 13ca 0e3d ec73 92bd 145c 23bd 9c5e 70be
000001a0: e8e8 92be c6f7 39bd c54f 283d 9410 9dbd
000001b0: 6500 0bbe a051 5d3d 1f04 00be e03f 0bbe
000001c0: 9bdd 2c3d 08e7 8bb9 3221 9dbc 1560 513d
000001d0: bc66 883b 8a21 2abd 689f d83c 41ee 973c
000001e0: d377 2abe 2e53 13be 1845 77bd 9c96 9dbc
000001f0: 0a9e 06bd 0d2e 7e3b 3bb6 27be f57a 7c3d
00000200: d2d1 b7bd 7297 98bd 284d 04bc 7b27 05bd
00000210: 7c3e 693d 7e62 00be 426b d93d 8dcb fa3b
00000220: 58cf c03d b46e 31bd 3792 bebd 626b 35bc
00000230: f4c4 093e 38d5 193d d8a8 80be 7abb 82be
00000240: b12d 7f3b a7ab 563d 6835 42bd 1d37 853d
00000250: c20f 29bd 4814 203d 0b34 433d b8ef cd3c
00000260: 1723 2e3c 55f3 abbb 0fbf 2ebc 9ce9 05bd
00000270: 6bae 4ebd 5b21 4dbc ef1f de3c b8d7 acbc
00000280: 4b16 e8be 013d dabc cca0 b63d e3a5 71bd
00000290: 9d2d 2d3c 59af 0abe 0b73 adbc 1973 b43c
000002a0: e586 b0bd ffcc ef3c aecc 18be 7db9 3abd
000002b0: 0428 0fbe 55b2 223d f59d 6dbe fe4a 563d
000002c0: 1442 6e3d 770a 67bc 4ed6 73bd ed65 f03c
000002d0: 5339 3bbd fdb5 1d3d 73c9 c93c 1ac2 eb3c
000002e0: 18c4 0f3c 4646 a2bc c4bf c1bc 6990 593a
000002f0: 39ba ebbc d67d 39bc 43fe 783d bf07 013d
00000300: e53d 5db9 3870 923d 1643 253c 311e 003c
00000310: 70f7 10bd fa8e b4bc 7a95 b2bd 26be 4b3d
00000320: b6e5 80bd d017 ad3c 7f7c 9dbd 3001 73bc
00000330: 4183 4abd f7ef a9bc 18d9 29bd 8b80 353d
00000340: 44ed c9bd 1dfc 90bc fd36 d5bd 808e 053e
00000350: 7065 013d 1b6f 253d 37e3 eb3d 9ada 163c
00000360: 4ef3 d1bc 94e2 223c 9128 74bd 9c1d 7fbc
00000370: a144 eb3c 5eae ca3c cf8a a2bc 8320 843c
00000380: 470c 603d abc6 c0bc 29da cf3c 403b bebc
00000390: 1fbc 11be 5798 2bbb 0939 983a 0eef a6be
000003a0: 3237 753d ad62 23be 12ba bb3c 4014 33bd
000003b0: 0f57 0ebd fd6a c23b 26f0 90bc 3d78 55bc
000003c0: 29bd 5c3b e7d1 69bd ad22 25bd 162d 413d
000003d0: a007 173c 6014 d83c 4335 bb3d 28f2 b4bd
000003e0: 5430 ebbc 9b29 20be 6c92 723d 6e4b 7e3c
000003f0: df27 203d 33f8 10bd 0b39 0a3d 9045 d33b

actor.bias f4 [2]
-0.018355161 -0.11792229
00000000: 905d 96bc 3e81 f1bd

critic.weight f4 [1, 256]
0.042596333 0.050221097 -0.0246192 -0.20407133 0.9986037 0.026494658 0.032690186 -0.027308602
0.05690195 0.041847926 -0.19401291 -0.18193683 -0.15769592 -0.16941996 -0.14443573 -0.031672996
0.0117332 -0.042973183 -0.11751187 -0.13809906 -0.007479027 0.03012039 0.018151574 -0.1533068
-0.023541821 0.091686726 -0.11288711 0.017396105 0.03317768 -0.114903264 0.00791458 0.14325082
0.0998154 0.03718003 -0.5688498 -0.1115593 -0.13691925 0.07031977 -0.10500231 -0.15287238
-0.1830846 0.08738451 -0.03003085 0.014630635 0.23809202 -0.13798548 -0.056558896 0.020863479
-0.017554633 0.048024338 0.025480121 0.055214234 0.16180593 0.1520377 0.07279938 1.5366898
0.056399636 0.15516815 -0.028625054 -0.118188865 -0.1469587 -0.14134827 -0.09985201 -0.15417325
0.18748844 -0.05319632 -0.4538029 0.20724063 -0.087554544 -0.04407102 -0.1082818 0.052934133
0.17110787 -0.12022186 0.2682898 0.031952605 0.06444103 -0.018172335 -0.1518786 0.09255311
-0.17728226 0.040081564 -0.14131202 0.16039905 -0.14256431 -0.15598108 -0.14630628 -0.59050214
-0.40855825 0.041932322 -0.13379654 0.048846416 0.020753887 -0.17884555 -0.027861921 -0.10435142
0.106052466 -0.13086802 0.0020855677 -0.1949178 -0.1953013 -0.14605172 0.17949349 0.19715594
0.17354335 0.039393857 0.119803816 -0.0681988 0.11249301 -0.009615218 -0.4780777 0.088436246
0.09371691 -0.0035382728 0.02888824 0.26117933 -0.09641541 -0.04164915 -3.0439182e-05 -0.12941591
-0.24880862 -0.119098976 -0.11626925 -0.0023347838 -0.022069458 -0.11797845 -0.20904475 -0.04257503
-0.17092654 -0.07847551 -0.121845454 -0.17454748 0.033279903 -0.119758025 -0.19327582 -0.06934228
-0.13719124 -0.049335353 -0.20651877 0.037832808 -0.16818014 -0.1512232 -0.40309882 0.06672786
-0.15396225 -0.11902111 -0.089089364 0.116760835 0.027989166 -0.14880693 0.056009002 -0.13008168
0.08546597 0.0281117 0.044905 0.03707353 0.053446475 0.04185803 -0.14916584 0.092312686
-0.5760183 -0.11607855 -0.115422435 0.21890141 -0.11794134 -0.08667662 -0.13392316 0.13851622
-0.13179731 0.0020451942 -0.24337278 0.00034251477 -0.19200836 0.20668268 0.176838 -0.15568885
0.07809947 -0.14898548 0.03935775 0.027635816 0.0045037605 -0.03273182 -0.014819582 -0.11938461
-0.06724261 0.055941075 -0.0036285878 -0.14809644 -0.2501645 -0.0058003394 0.2372276 0.012827304
-0.12231983 -0.11086128 0.11028465 0.10107657 -0.14743945 -0.004536892 0.070276275 -0.13552897
-0.025334686 0.021668421 -0.16888326 -0.12815772 -0.16998379 0.047051188 -0.23453915 -0.13709082
-0.15654176 0.039272502 -0.15640832 -0.15424913 0.04600582 0.055435035 0.15677378 0.0024027638
0.0010620223 -0.03230014 -0.12870404 0.053320374 0.045184374 -0.11497994 -0.115382895 -0.12136578
0.016554723 -0.12223807 -0.1294611 -0.12513024 -0.038119916 0.027856303 -0.1728998 -0.44434482
-0.052749302 -0.18847963 -0.116970755 -0.07062941 -0.12947261 -0.14036374 -0.16957176 -0.11711263
-0.1483923 -0.2200126 0.03184879 0.014950843 0.07765434 -0.09760006 -0.15844238 0.02911135
-0.11392076 -0.23025978 0.2269817 0.03718091 0.061524373 0.063541 -0.04380736 -0.026553838
00000000: 7e79 2e3d a3b4 4d3d 34ae c9bc 13f8 50be
00000010: 7ea4 7f3f 530b d93c 25e6 053d 4ab6 dfbc
00000020: 0512 693d bb68 2b3d 52ab 46be a64d 3abe
00000030: 0a7b 21be 6d7c 2dbe f6e6 13be 8bbb 01bd
00000040: 9c3c 403c a604 30bd 10aa f0bd d769 0dbe
00000050: a012 f5bb 09bf f63c 9cb2 943c 75fc 1cbe
00000060: c7da c0bc 40c6 bb3d 5b31 e7bd 4782 8e3c
00000070: 52e5 073d 6752 ebbd 28ac 013c 58b0 123e
00000080: 046c cc3d 164a 183d 24a0 11bf 3479 e4bd
00000090: 8f34 0cbe d003 903d 730b d7bd 948a 1cbe
000000a0: 887a 3bbe a6f6 b23d 4203 f6bc 55b5 6f3c
000000b0: 65ce 733e 114c 0dbe 4daa 67bd e3e9 aa3c
000000c0: bcce 8fbc 2bb5 443d b0bb d03c 5228 623d
000000d0: 74b0 253e c5af 1b3e d717 953d 40b2 c43f
000000e0: 4e03 673d 66e4 1e3e 177f eabc 010d f2bd
000000f0: 577c 16be 9abd 10be 367f ccbd 98df 1dbe
00000100: f8fc 3f3e 62e4 59bd db58 e8be e336 543e
00000110: cc4f b3bd d083 34bd d9c2 ddbd 76d1 583d
00000120: e736 2f3e e136 f6bd 485d 893e bce0 023d
00000130: a9f9 833d 26de 94bc 1086 1bbe 7c8c bd3d
00000140: 7b89 35be 912c 243d 19b4 10be a63f 243e
00000150: 61fc 11be 81b9 1fbe 50d1 15be 262b 17bf
00000160: 8c2e d1be 3ac1 2b3d f601 09be 2e13 483d
00000170: 0e04 aa3c 4a23 37be af3e e4bc 33b6 d5bd
00000180: 0932 d93d 4402 06be 05ae 083b 8898 47be
00000190: 10fd 47be 958e 15be 24cd 373e 3fe3 493e
000001a0: 59b5 313e 745b 213d b45b f53d d0ab 8bbd
000001b0: bc62 e63d 2689 1dbc 9ac6 f4be 101e b53d
000001c0: a7ee bf3d 5ee2 67bb 08a7 ec3c 4cb9 853e
000001d0: 7175 c5bd 4d98 2abd a557 ffb7 9b85 04be
000001e0: b0c7 7ebe 2aea f3bd 931e eebd 2c03 19bb
000001f0: 02cb b4bc b09e f1bd d40f 56be 2863 2ebd
00000200: 5e07 2fbe c5b7 a0bd 1c8a f9bd 93bc 32be
00000210: 8250 083d b243 f5bd 19ea 45be 5303 8ebd
00000220: dc7b 0cbe de13 4abd a879 53be 93f6 1a3d
00000230: 6a37 2cbe 41da 1abe f862 cebe 9ea8 883d
00000240: 48a8 1dbe 57c1 f3bd 7c74 b6bd 4e20 ef3d
00000250: 8949 e53c d860 18be b269 653d 2234 05be
00000260: c808 af3d 824a e63c 4eee 373d 6ada 173d
00000270: b1ea 5a3d 5373 2b3d eebe 18be 6f0e bd3d
00000280: ef75 13bf 97ba edbd 9962 ecbd b127 603e
00000290: 3b8b f1bd 8383 b1bd 2723 09be 32d7 0d3e
000002a0: e0f5 06be aa08 063b b736 79be 8e93 b339
000002b0: d79d 44be a0a4 533e 0515 353e e66c 1fbe
000002c0: 9df2 9f3d a68f 18be 9835 213d 8264 e23c
000002d0: 4894 933b cd11 06bd d5cd 72bc eb7f f4bd
000002e0: 7eb6 89bd 7822 653d 9acd 6dbb 98a6 17be
000002f0: 9015 80be c610 bebb cbeb 723e 9d29 523c
00000300: d282 fabd 3d0b e3bd ebdc e13d 3c01 cf3d
00000310: 5efa 16be 35aa 94bb 02ed 8f3d 1bc8 0abe
00000320: b08a cfbc f981 b13c bcef 2cbe c73b 03be
00000330: 3b10 2ebe bfb8 403d 082b 70be 8961 0cbe
00000340: 7c4c 20be 34dc 203d 8129 20be 7cf3 1dbe
00000350: 9970 3c3d d90f 633d 4e89 203e b077 1d3b
00000360: 8e33 8b3a 274d 04bd feca 03be 7766 5a3d
00000370: 4013 393d 9a7a ebbd de4d ecbd 9f8e f8bd
00000380: c59d 873c f457 fabd 7391 04be 2422 00be
00000390: a123 1cbd e732 e43c a50c 31be 2a81 e3be
000003a0: a70f 58bd ce00 41be 5d8e efbd 27a6 90bd
000003b0: 7894 04be 83bb 0fbe 38a4 2dbe bfd8 efbd
000003c0: 27f4 17be fc4a 61be e073 023d 61f4 743c
000003d0: 3d09 9f3d 8ae2 c7bd b83e 22be ed7a ee3c
000003e0: 4a4f e9bd 38c9 6bbe e46d 683e 034b 183d
000003f0: fb00 7c3d c921 823d 596f 33bd 6f87 d9bc
