animation_PPO/models/third_critic.pt (torch, 546579 bytes, 7 tensors)

network.0.weight f4 [256, 14]
000000 a6 67 3e bd 3f cf 2d bd 3d 9a 96 3d 6b f6 b6 bd
       -0.046485566 -0.042433973 0.07353637 -0.08933719
000010 5d 20 08 bd c3 bc 5a 3d 13 7e 80 bc 07 00 5e bc
       -0.03323399 0.053402673 -0.015685117 -0.013549811
000020 33 bb 5c bd 60 ad 40 bc 39 f9 db bd 02 d6 90 3c
       -0.053889465 -0.011760086 -0.10740895 0.017680172
000030 d1 c2 3b bc 3d c5 aa bd fa 20 6a be 3d 09 32 3d
       -0.011460022 -0.083384015 -0.22864142 0.04346584
000040 9d 37 20 be b2 6c 84 3d 51 7c 7b 3d 05 33 df 3b
       -0.15646215 0.064660445 0.061397854 0.006811502
000050 a0 1a 8a 3d fc 08 23 3c c9 d4 d9 bd 63 2e 51 be
       0.067433596 0.0099508725 -0.10636289 -0.20427851
000060 c2 e8 0c be 46 5f a6 bd 99 af 21 be b2 9c 5d bd
       -0.13760665 -0.08123641 -0.15789641 -0.054104514
000070 0e 0f 56 bd ac 87 97 3a b2 ba 1a bd 53 b2 31 3c
       -0.05226045 0.0011560819 -0.037775703 0.010845738
000080 25 1b b9 3d 64 93 00 be 42 4d aa 3d 1c 98 68 3d
       0.090383805 -0.12556225 0.08315517 0.056785688
000090 74 02 13 be 87 7b 75 3c d1 86 0d bd f0 99 e6 bd
       -0.14356405 0.0149830645 -0.0345524 -0.1125983
0000a0 09 e6 8c bd 7a db 78 bd 97 7c d6 bd f0 0a 2f bf
       -0.06879813 -0.060756184 -0.104729824 -0.68376064
0000b0 ac c7 c1 3e 78 39 0c 3f 40 09 e0 3e 3e 12 f6 3e
       0.3784765 0.5477519 0.43757057 0.48060793
0000c0 9c 46 a9 3e dd aa 4e 3e 19 d0 82 3e 75 5d 03 bf
       0.33061683 0.20182367 0.2554939 -0.5131448
0000d0 b0 c3 c0 be f4 78 ac bf d4 8c f2 be 42 80 75 be
       -0.37649298 -1.3474412 -0.47373068 -0.23974708
0000e0 73 7d 33 bd 46 b0 a2 ba 57 fb cc bd 58 e7 d9 3d
       -0.04382081 -0.0012412153 -0.10008877 0.106398284
0000f0 b7 13 57 3e 52 72 0a b9 ba ce 6f bd f4 7c 34 3d
       0.21003614 -0.00013203293 -0.05854676 0.044064477
000100 08 2b e6 bd 4f 63 ed bc 74 1a 1e bd cc d3 02 be
       -0.11238676 -0.028978018 -0.038599446 -0.12776107
000110 46 b9 2e be d4 5c 8f 3c fe ed 78 3e e5 2e 52 be
       -0.17062864 0.017500319 0.24309537 -0.20525701
000120 f4 86 9a 3d cc 44 71 3d c8 8d 09 bf 07 20 65 bf
       0.075452715 0.0589035 -0.53731966 -0.89501995
000130 10 9d fe 3c 01 db a5 3e c8 b6 8e 3e ff 46 03 3e
       0.031080753 0.3239365 0.27873826 0.12820052
000140 db b4 e1 3e d6 79 e6 3e 40 a6 42 be e7 5c 11 bf
       0.44083294 0.45014828 -0.19008732 -0.5678238
000150 b3 da 9f 3d 57 9c b9 3d 3f f4 0f bc 44 1b 91 bd
       0.078053854 0.090630226 -0.00878626 -0.07085279
000160 0d 2a ba bc 02 f8 b8 bd 93 8b 63 3d 24 4a fc 3c
       -0.02272513 -0.09031679 0.05555303 0.030797072
000170 41 eb 8e bd d0 ae c1 bc 5e 80 40 bd a1 dd 8f bd
       -0.06978465 -0.023642927 -0.04699742 -0.07024694
000180 0c 8a 82 bc 5f 81 e6 bc f6 85 3c 3d 0a a8 a2 bb
       -0.015934967 -0.02813786 0.046026193 -0.0049638795
000190 82 8c b0 bd b0 40 01 3e 93 86 ad bc 4c 6d 41 bd
       -0.0862055 0.12622333 -0.021182334 -0.047223374
0001a0 9e 04 a9 bd 6c 2d 18 bd ca 10 b5 bd a8 ca d9 3c
       -0.08252834 -0.037152693 -0.08841093 0.026585892
0001b0 f2 08 31 bd 77 87 b0 bc 59 94 10 3c de c8 68 bd
       -0.04322142 -0.02154897 0.008824431 -0.056832187
0001c0 b8 3b bb bd c1 85 37 bf 01 3b 62 3e 1a 3b 60 bd
       -0.0914225 -0.7168847 0.2209282 -0.054743864
0001d0 e0 8c 8f 3e 9f 3e ad 3e e2 ff 8a 3e af 41 0f 3e
       0.28037167 0.3383684 0.27148348 0.139899
0001e0 a1 06 9c 3d a7 2c 7a 3d db eb 30 bf d1 9f 4b bf
       0.07618452 0.06107774 -0.69109887 -0.79540735
0001f0 0a 55 d0 bd a6 9c ba bc ab a7 ec bd c3 0a c1 3b
       -0.1017247 -0.022779774 -0.115554176 0.0058911755
000200 aa 47 5b bd 68 1c 5d bd 9d fd fe 3d c8 86 03 be
       -0.05353514 -0.05398217 0.12450717 -0.12844384
000210 bd 29 18 be 81 9d 8c bc d5 13 3b 3c e1 c2 05 3d
       -0.14859672 -0.017164947 0.011418303 0.032656554
000220 73 95 d3 bd 81 0a ab 3b a9 dc 29 bd 1d 2d 95 bd
       -0.103312396 0.005219758 -0.041470204 -0.07283995
000230 44 95 0a bc 51 8a d7 bd f1 fa b0 bd b2 84 32 bc
       -0.008458439 -0.10524429 -0.08641613 -0.010895895
000240 c5 4c 9c bc 95 bd a1 bd 67 96 13 3b bd 88 15 3b
       -0.019079575 -0.07897488 0.0022520067 0.0022817098
000250 ad 77 95 bd d9 e1 83 3d 2f 45 61 bd 3d 72 06 3d
       -0.07298217 0.064395614 -0.05499762 0.03282379
000260 88 4b 9c 3b 8f 48 fa bd 5a 84 ec 3e 12 5a 04 3f
       0.004769746 -0.12220871 0.46194726 0.51699936
000270 fc 2c 36 be 15 5a 2b bc ec 73 cf be 30 a9 0a bf
       -0.17790598 -0.010458489 -0.4051813 -0.5416441
000280 45 8f 26 bf ae 83 cc bd 13 d9 38 be f3 c4 34 bd
       -0.6506236 -0.099860534 -0.18051557 -0.044133138
000290 ce ac 80 bc 25 c4 57 bd 05 a4 24 bd eb 42 c9 bd
       -0.0157074 -0.052677292 -0.040195484 -0.09827217
0002a0 08 dc b5 3b c2 fc 24 3d c9 f2 45 3d e9 84 c3 3d
       0.0055499114 0.04028011 0.04832724 0.09546835
0002b0 fb 4b 87 3c de f5 93 3d 6e 90 87 bd bf 3a 6d bd
       0.016515722 0.0722463 -0.06619345 -0.057917353
0002c0 8a ad 5e be 18 06 2c bd f3 37 a3 bd 1e 00 e4 bc
       -0.21745887 -0.041998 -0.07969656 -0.027832087
0002d0 3e d2 82 bd 95 75 29 bd ce 0e 34 3f 57 1b 73 3e
       -0.06387757 -0.0413719 0.7033509 0.23740898
0002e0 6a a7 3f 3d f8 19 fe be 2f 27 97 bf 30 ce 06 bf
       0.046790518 -0.49629188 -1.1808833 -0.5265837
0002f0 c6 a6 71 be 08 6b ad bd 15 5a 2a 3e 3d 4a 8f 3e
       -0.23598775 -0.0846768 0.16635926 0.27986327
000300 12 0b d9 3d e8 5c 5f 3e cf 46 83 3d 4d ca 69 3d
       0.105978146 0.21812785 0.0640999 0.057077695
000310 5b c3 fb 3e 3f 6a e7 be 9d 15 5e bd 6f 88 7c bd
       0.49172482 -0.45198247 -0.05421983 -0.06165355
000320 42 78 d2 bd 53 42 01 be 44 cf 00 be a2 68 eb bd
       -0.102768436 -0.12622957 -0.12579066 -0.114945665
000330 7a 0a e7 3c 84 d0 40 3d de f7 c6 bc ba af 62 3c
       0.028203238 0.047073856 -0.024288114 0.013835842
000340 d5 7e 0b be 85 79 de 3c f8 f1 6a 3d 60 07 a7 bb
       -0.13622601 0.027157554 0.057359666 -0.0050973147
000350 34 17 23 be e5 08 d1 3d e9 ac 83 bd 97 8d 5e 3c
       -0.1592682 0.102067746 -0.06429464 0.013583562
000360 75 86 c5 bc ec 44 29 bd aa 6a a5 bd 47 26 72 bc
       -0.024111966 -0.041325495 -0.08076985 -0.014779634
000370 1a f9 95 bd 02 79 b7 bb d2 75 01 bd 33 08 84 bc
       -0.07322903 -0.005599142 -0.031606503 -0.016117191
000380 b5 bf 22 bf 6b 7c 23 bf af 92 55 be 10 36 93 be
       -0.6357377 -0.6386172 -0.20856737 -0.28752184
000390 99 da be be 7f 17 02 bf 4b b4 54 be 46 83 39 3e
       -0.37276152 -0.508171 -0.20771901 0.18116483
0003a0 ad 9b f1 3d ef 85 d6 3d e1 b9 46 3e e0 90 c2 bc
       0.11797271 0.104747646 0.19406845 -0.023750722
0003b0 83 82 6f bc a6 d1 c8 bd 61 a5 1a 3f b6 ce d1 be
       -0.014618519 -0.09805612 0.604086 -0.4097802
0003c0 db b8 97 be 1b a7 b1 bd 6c 1b e3 bd 1d 06 01 3e
       -0.2963322 -0.08674451 -0.11089215 0.12599988
0003d0 cd 83 f1 3c 87 06 2b be ed f6 8f 3c fe 71 85 bc
       0.029481793 -0.16701709 0.017573798 -0.016289707
0003e0 a1 79 fd 3d 49 57 dc 3d e4 6a 4a 3d 2f d0 2c bf
       0.123767145 0.10758836 0.049418345 -0.6750516
0003f0 07 fd 20 3f 1b b4 0f 3f c3 bd 40 bd be a8 3a bd
       0.6288609 0.56134194 -0.04705597 -0.04557108

network.0.bias f4 [256]
000000 04 cd b5 bc be fe 6e be 2c fa 0e be ea 0a 0d 3f
       -0.022192486 -0.23339364 -0.1396262 0.5509478
000010 b8 1c 90 be 1b 0c e9 3e 00 00 00 00 90 6f 98 37
       -0.2814691 0.45517048 0.0 1.8171762e-05
000020 9e b5 fb 3e 04 8c f2 bc 17 c3 2f bd 00 d6 79 3c
       0.49162 -0.02960778 -0.04291066 0.0152487755
000030 a1 a0 42 be c9 32 ad 3e f2 2b 07 be 83 b6 9b bc
       -0.19006588 0.33827808 -0.13200358 -0.019007927
000040 ff d5 fe 3c 4f 8e 6e 3d 24 c9 4b 3e 3f 05 4e bf
       0.0311079 0.058241185 0.19900948 -0.80476755
000050 c5 dd 04 bd c4 55 ab bc 4d 97 ec bd 80 c9 b0 3e
       -0.03243806 -0.02091492 -0.11552296 0.34528732
000060 52 97 b0 bd fa 49 99 bd ac eb ed bd 8b 70 00 3f
       -0.08622612 -0.07484813 -0.116172165 0.50171727
000070 28 c8 f5 3e 28 ba 1e 3f 00 00 00 00 2a e1 89 bd
       0.4800427 0.620028 0.0 -0.067324
000080 32 6e c6 3e fa a9 4f bd 05 08 34 be 61 d8 82 bb
       0.38755947 -0.05069921 -0.17581184 -0.0039930795
000090 00 00 00 00 1d b7 93 3e 81 0a 15 3f 22 cc cd bd
       0.0 0.28850642 0.5821915 -0.10048701
0000a0 32 b1 8c 3e ec f5 05 bc 26 f5 bc bc bc c7 4c bc
       0.2747894 -0.008176308 -0.023066115 -0.012498792
0000b0 37 d8 ac bc ba 15 d1 bc 78 60 1f be d8 f6 35 be
       -0.021099193 -0.025523055 -0.15564144 -0.17769945
0000c0 95 9f f2 3e e4 f2 2c bc 39 67 bf be 50 48 0b be
       0.47387376 -0.0105559565 -0.3738344 -0.13601804
0000d0 cc d1 e8 bc 69 df 15 3f 9b 4e 76 bd dd 6b b7 3e
       -0.028420351 0.5854402 -0.060133558 0.3582448
0000e0 40 e9 03 3f e0 7e 13 3f 35 ad 27 bd 51 28 cf bc
       0.51527786 0.5761547 -0.040936667 -0.025287779
0000f0 64 a2 d9 3e 11 51 18 bd be bb 08 3f d5 fd e4 3e
       0.42506707 -0.037186686 0.5341147 0.44724908
000100 df 68 ca 3e cc cd b7 bd 3d 83 64 bb 37 a2 8f bc
       0.39533135 -0.089747995 -0.0034868263 -0.017533405
000110 da 91 7b bd 39 c9 eb 3e 1b 48 5f bd ad 00 9a bd
       -0.06141839 0.46051958 -0.054512125 -0.0751966
000120 cc ec cd 3e 5e db ce 3e a9 df 2e be 7c a4 19 3d
       0.40219724 0.4040174 -0.17077507 0.03751038
000130 27 d2 4d 3e e3 0c 95 bd b9 59 69 bd 30 ea 7f bd
       0.20099698 -0.072778486 -0.05697033 -0.062479198
000140 a7 a8 87 bd 77 af 9e 3e 48 6c 0a 3f 07 4e 46 be
       -0.06623965 0.30993244 0.54071474 -0.19365703
000150 6b 13 5e be 4c c6 08 3f de bf 1e 3e 7b 5d 5a 3c
       -0.21687095 0.53427577 0.15502879 0.013327952
000160 c5 a7 9f 3e f6 e3 56 3e 00 00 00 00 f4 82 9e be
       0.31182685 0.20985398 0.0 -0.30959284
000170 53 45 4d bf 26 87 52 3e 23 66 d6 3e ea e0 9a 3d
       -0.80183905 0.20559368 0.418748 0.0756243
000180 af 6e 1a bc 00 00 00 00 fe be 9b 3e 54 8a fd 3e
       -0.009425803 0.0 0.30419153 0.49519598
000190 75 0e d5 3e 50 4f f6 bc 61 1b b2 3e 2a 3c ee 3e
       0.41612592 -0.030067116 0.34786513 0.46530277
0001a0 fa 7d da 3e 6e b7 33 bd 50 47 70 bc f1 04 c8 bd
       0.42674237 -0.043876104 -0.01466544 -0.097665675
0001b0 74 84 bb bd 96 04 25 3f df 20 5d 3e e5 01 cb 3e
       -0.09156123 0.6446012 0.2159457 0.39649883
0001c0 92 b6 c6 bc dd 2b eb 3e 8f ff d2 3e 67 97 c5 bd
       -0.024256978 0.45931903 0.412106 -0.09648018
0001d0 e5 fc 31 be 65 82 2b be 69 80 11 3e e9 7e 01 3f
       -0.17381628 -0.1674896 0.14209141 0.50584275
0001e0 00 00 00 00 38 8a 31 bd 9e a2 8f bd d2 0b da 3e
       0.0 -0.043344706 -0.07013439 0.42587143
0001f0 45 ae 74 bf 30 aa fe bc 39 a3 96 bd 21 c5 c7 3e
       -0.95578414 -0.031087011 -0.07355351 0.39017585
000200 d9 8a 1c 3e 76 0e 42 bf da 84 0a bd 36 75 a4 bb
       0.15287341 -0.75803316 -0.033818103 -0.0050188554
000210 59 35 2e bc b5 5b ae bc 08 30 c8 be a8 9b 5e be
       -0.010632836 -0.021283964 -0.39099145 -0.21739066
000220 e7 52 82 be e8 8a 08 3f 8c ee fb bc ef 42 50 bd
       -0.25453874 0.53336954 -0.030753396 -0.050845083
000230 b2 42 0a 3f 00 d7 0c 3f 63 4c 48 bd 56 f1 d0 3b
       0.5400802 0.55015564 -0.048900973 0.0063764257
000240 31 5f 8a 3e d2 1f cf bd f7 c7 1e bd f9 68 00 3f
       0.2702575 -0.10113491 -0.03876492 0.50160176
000250 a3 ae 52 bd 5c 9d 39 bd c5 a3 14 be 3d 27 26 3d
       -0.051436078 -0.045316085 -0.14515598 0.040564764
000260 47 78 7f bf 51 a3 60 be 5a 7c 9d 3e 64 48 c0 bc
       -0.99792904 -0.219373 0.30758935 -0.023472019
000270 df 3f 64 3c 92 9d b2 bc 53 05 f4 3e d5 69 f4 3e
       0.013931244 -0.021803651 0.47660312 0.47736993
000280 51 ae c9 3e 1a db 3a be 36 76 48 bd 51 67 a8 3e
       0.39390805 -0.18247643 -0.04894086 0.32891324
000290 a4 9d 91 3e 00 00 00 00 a2 6e 95 bd a9 22 bb bc
       0.28440583 0.0 -0.07296492 -0.022843676
0002a0 5b 6c a2 bd e9 d6 b1 3c 00 00 00 00 84 9f bf 3e
       -0.079308234 0.021708922 0.0 0.37426388
0002b0 23 58 2d 3e 03 8e 16 bd e8 dc 67 be 52 4c 75 bd
       0.16928153 -0.036756527 -0.22642863 -0.059887238
0002c0 92 07 98 bc 1b 4d 14 be e8 5b 18 bc b4 a3 5b be
       -0.018558297 -0.14482538 -0.009299256 -0.21449167
0002d0 4d d0 7c 3e c1 17 d4 3e 0c 2e b1 3e 34 3a 06 bd
       0.24688835 0.41424373 0.34605443 -0.03277035
0002e0 cd 03 0f bd 03 2d 3f be 29 1b e7 bd 9d 19 f9 3e
       -0.034915734 -0.18669514 -0.11284477 0.48652354
0002f0 a2 c7 6f bc c1 e8 00 3f cc 6a c6 3e 39 61 a6 3e
       -0.0146349985 0.50355154 0.38753355 0.3249605
000300 a1 2e 1b bc af 4b d1 3e 15 95 73 3e 3a c4 ed bb
       -0.009471566 0.40878054 0.23787339 -0.007256058
000310 d4 b6 89 bd 5d 69 fe 3e 23 0c b2 3e 7e cd a6 bc
       -0.06724325 0.4968976 0.34774885 -0.020361658
000320 94 1b f5 bc 7e 94 86 bd 62 01 e0 be d6 29 05 bd
       -0.029920377 -0.065712914 -0.43751055 -0.0325106
000330 be 65 dd 3e be 81 9a 3e 64 b0 8c bc 08 84 1d bd
       0.43241686 0.3017711 -0.017173953 -0.038455993
000340 3e 25 a2 3e 89 1b 48 bc 6c f5 6c be 24 0f ef 3e
       0.3166904 -0.012213596 -0.23140496 0.4669124
000350 a8 e7 af bd 29 4d 9f be e0 52 60 bd 26 6b 89 3e
       -0.08589107 -0.31113556 -0.054766536 0.2683956
000360 66 b3 b2 bd 8c 78 d9 3e ad 4b 44 3e b1 89 db bc
       -0.08725624 0.42474782 0.19169493 -0.026799055
000370 00 00 00 00 74 2f 0b bd de 72 21 bd 63 ba e2 3e
       0.0 -0.0339808 -0.039416187 0.44282827
000380 49 1c b9 be 74 ad 00 3f bf d5 be bc f9 92 92 3e
       -0.36154392 0.5026467 -0.023295281 0.28627756
000390 c3 91 b7 3e 51 65 2c bc 0f c5 bf 3c a6 b2 fd 3e
       0.35853395 -0.010522203 0.023409395 0.4955036
0003a0 04 32 e7 bc 1b ea 70 3e eb b2 b3 bd 71 aa 70 bd
       -0.028222091 0.23526804 -0.0877436 -0.058756296
0003b0 1c d2 97 3a 0c 03 13 be 25 87 ad bc 9c 73 a2 3e
       0.0011583003 -0.14356631 -0.021182606 0.31728828
0003c0 80 6f 0d 3e eb 83 16 3f 37 c3 28 be 00 00 00 00
       0.13812065 0.5879504 -0.16480719 0.0
0003d0 65 aa ee 3e 00 00 00 00 14 02 ed be f5 43 d9 bd
       0.46614376 0.0 -0.46290648 -0.10608665
0003e0 33 e7 61 bc c6 a4 19 be b3 e2 68 bf aa 09 02 bd
       -0.013788032 -0.15004262 -0.90970916 -0.031747498
0003f0 ba ab ab 3e c2 02 a0 bb 14 ce fb be 45 11 bd 3e
       0.33529454 -0.0048831413 -0.49180663 0.36927238

network.3.weight f4 [256, 256]
000000 fe e3 95 bd 4f b2 02 be f0 5a f6 3c b9 1f 8a bd
       -0.07318877 -0.12763332 0.03007266 -0.06744332
000010 1a b0 9e be fb 6d d4 3e fd ac a6 3d f7 59 36 3b
       -0.3099373 0.41490158 0.08138464 0.002782462
000020 1c ef ef 3d 2f 0f 53 bd af b8 bd bd 2c 6a d6 bd
       0.11715528 -0.051528152 -0.09263741 -0.104694694
000030 ad 5c 0a be a6 a7 24 bd 41 c0 41 bd 5b 26 38 bd
       -0.13511916 -0.040198945 -0.04730249 -0.044958454
000040 8c d8 2c bf c8 41 dc 3e 2e 1c 85 bc 70 ff 89 bf
       -0.67517924 0.43018937 -0.016248789 -1.0781078
000050 64 69 58 bb a8 2d 80 3c 84 d5 b0 bd 58 2e 40 3f
       -0.0033021802 0.01564677 -0.08634475 0.75070715
000060 af ac 9d bb 8d 74 26 be 3a 66 82 bd 60 94 b6 3e
       -0.0048118453 -0.16255398 -0.063671544 0.35660076
000070 0b bc 37 3f f0 78 0d 3f 91 58 be 3d 0a eb 07 bd
       0.71771306 0.5526266 0.092942365 -0.033183135
000080 bc c2 eb 3e 23 8d e6 bd af f3 ce bd 96 d3 8f 3a
       0.46047008 -0.112573884 -0.10105073 0.0010973092
000090 38 42 c0 bc de cf d3 3d 1b a2 9f 3f 30 07 9c bd
       -0.023469076 0.10342382 1.2471346 -0.076185584
0000a0 a5 0c 8f 3d 72 d2 c3 3d 63 ba 0f be 73 68 b2 bd
       0.06984834 0.09561624 -0.14035945 -0.08711328
0000b0 f7 b2 27 bd 6e 32 92 3d 02 99 87 3d 8a 8c 66 be
       -0.04094216 0.07138525 0.06620981 -0.22514549
0000c0 77 f8 0a 3f 59 ca 3b be 43 10 e4 bd 9d 26 e9 bc
       0.5428538 -0.18338908 -0.11135914 -0.028460795
0000d0 c7 27 0c 3e 41 e5 de 3e 2d e0 94 3c 54 05 8b 3f
       0.13687049 0.43534282 0.018173302 1.0861001
0000e0 c8 78 e0 3f e5 ed 16 3f 5b be 6f be 35 3a c1 3d
       1.753686 0.5895675 -0.23412459 0.0943493
0000f0 2d 71 61 3f 1e ed 85 3d 67 db 70 3f 96 71 53 3e
       0.8806332 0.06539367 0.9408478 0.20648798
000100 b5 28 a5 be aa 48 7a 3c cb 45 13 bd 08 3b 9c bd
       -0.3225762 0.0152761135 -0.03595523 -0.07628447
000110 49 fd a4 3d 0c 99 73 be f9 e1 ae be ce 13 ac 3c
       0.08056123 -0.23788851 -0.34156778 0.021005537
000120 6e 84 39 3f ac ee b1 3e 36 c9 b6 bd e2 a7 2a 3f
       0.72467697 0.34752405 -0.08925097 0.6666242
000130 73 d8 81 3e 96 2a d1 3d b6 09 16 3e b3 d8 cf 3c
       0.2536045 0.10213201 0.14652142 0.025371885
000140 05 33 3a be 45 41 36 3e 87 4e 97 3d 84 a5 60 bd
       -0.18183525 0.17798336 0.07388025 -0.054845348
000150 f2 32 aa be 64 95 41 3f 3b 18 d1 3d 1a 7e 7e be
       -0.33241993 0.75618577 0.102097 -0.24852791
000160 a6 fa 5d 3e b9 56 36 3f 4a 37 b2 3c 47 f1 8f bf
       0.21677646 0.7122608 0.02175488 -1.1245507
000170 6a aa 76 bf 51 b9 ca 3d d1 95 68 3f e7 4c d1 3e
       -0.9635378 0.098986275 0.908536 0.40878984
000180 75 b1 66 3d a6 e8 96 bc 93 09 cd bc 3a 31 42 3f
       0.05632158 -0.018421482 -0.02502898 0.75856364
000190 13 7a e5 3e 60 a5 70 bd 0f f1 e2 3e 19 76 40 3f
       0.44819698 -0.058751464 0.44324538 0.751802
0001a0 af bf 52 3e cb 6e 2f bd a0 63 1e bc ae 41 89 bb
       0.20580934 -0.04283027 -0.009667307 -0.004188738
0001b0 ef f4 00 3f 1d 74 20 3f 63 5d ba 3e 43 06 e4 3e
       0.5037374 0.62677175 0.36399373 0.44536027
0001c0 89 37 b2 3d 4f e7 85 3f 3e 64 6a 3f 6f cc 9b bd
       0.08701999 1.0461215 0.9155921 -0.07607352
0001d0 99 a4 f1 be a3 dd f2 be ec 29 49 3e b4 2c d3 3f
       -0.4719589 -0.4743472 0.19644898 1.6498017
0001e0 6a 58 71 bd 55 6e df bc 49 0c 5c 3d 08 00 3d 3f
       -0.05892221 -0.02727429 0.053722654 0.7382817
0001f0 75 63 be bf e1 b7 cc 3c ac 33 dc 3d 1d 77 72 3f
       -1.4874102 0.024990024 0.10752043 0.94713
000200 c4 67 fa 3e 5a ce 43 bf b1 cd ef bb cc e6 da bd
       0.48907292 -0.7648674 -0.0073182215 -0.10688552
000210 b2 90 2d 3e 0b eb 64 3d 62 40 16 be f4 2d 09 bd
       0.16949728 0.055888217 -0.14672998 -0.03349109
000220 82 74 90 be e9 4f c7 3e c1 6b 03 be 3e 86 67 bd
       -0.28213888 0.38928154 -0.12834074 -0.056524508
000230 ac 7b 2a 3f 54 98 fd 3e 94 08 17 bd 8a 42 e2 3c
       0.6659496 0.4953028 -0.036873415 0.027619619
000240 9d ee 44 3f e0 ab fa bd e6 18 2a bd 30 b7 02 3f
       0.76926595 -0.12239814 -0.04152765 0.5106077
000250 01 87 80 3b 71 a7 6d bc 65 89 0a 3d b4 28 15 3d
       0.0039223437 -0.014505253 0.033822436 0.03641577
000260 90 ad d1 bf 7a 18 2e bd 5a 2a 30 3e 4b c9 2c 3d
       -1.6381092 -0.04250381 0.17203656 0.042184155
000270 29 03 0e 3e 8a 5b bb be 92 1c f4 3e 75 cf 29 3f
       0.13868393 -0.36593276 0.47678047 0.6633218
000280 a3 3a 42 3f 09 dc c4 be cd 06 22 3e 08 99 09 be
       0.7587072 -0.38449124 0.15822907 -0.13437283
000290 0d 18 22 3e 20 bc 69 bd ca 0b af 3c ac f0 00 3f
       0.15829487 -0.057064176 0.021367926 0.50367236
0002a0 5c 25 97 3d 10 92 63 3e a9 ab a9 bd 1b 94 a5 3e
       0.073801726 0.22223687 -0.08284695 0.32339558
0002b0 02 cf a2 3c ce 97 fa b9 3c ef 5d 3d bd ac 14 3d
       0.0198741 -0.0004779682 0.05418323 0.03629755
0002c0 eb b7 8f bd 1a d7 c3 bd f5 f1 91 bd 96 90 87 be
       -0.070175014 -0.09562512 -0.07126228 -0.26477498
0002d0 42 4b 97 3b 55 20 3e 3e 19 05 22 3f 1b e9 a2 bc
       0.0046171257 0.18567021 0.6328903 -0.019886544
0002e0 dc 76 8a be 53 83 0d 3c a6 0d c5 bd 91 20 8b be
       -0.27043808 0.008637267 -0.09621744 -0.27173284
0002f0 3f 73 02 bd 00 0b 7c 3f 19 d1 34 3f 48 c8 f2 3e
       -0.03184819 0.98454285 0.7063156 0.47418427
000300 d1 6b 53 3d 48 99 58 3f 87 25 7d bd a1 5c ac bc
       0.051616494 0.8460889 -0.061803367 -0.021040263
000310 67 da b3 3d 4f a9 12 3f 9c ca 46 3f a8 45 a8 bd
       0.08781891 0.57289594 0.7765291 -0.08216411
000320 d8 37 19 bd f3 c7 2f bd 7f 72 c9 be e7 1c 2c 3d
       -0.037406772 -0.042915296 -0.39345166 0.04201975
000330 96 c5 71 3f 57 ae 62 3f 95 58 43 3c f4 31 2d 3a
       0.9444212 0.8854727 0.011922975 0.000660687
000340 2f de 0c 3f a3 19 7c be 23 79 08 be e7 93 52 3f
       0.55026525 -0.24619155 -0.1332746 0.8225693
000350 b4 9f 79 3c c6 fb 48 be d6 05 d5 bd f4 b7 54 3f
       0.01523583 -0.19627294 -0.10401504 0.8309319
000360 bb 2e d5 3e b6 51 4b 3c 93 29 20 3e 2e 73 a1 bd
       0.41637215 0.012409618 0.1564086 -0.07883297
000370 61 ce ca 3d ce cf dd bd 11 75 80 3c 62 87 98 3e
       0.09902645 -0.10830651 0.015680822 0.2979079
000380 91 1d 4d bf 9e cd 14 3f d6 1b 9b bd c1 c2 ef bd
       -0.8012324 0.58126247 -0.07573669 -0.11707068
000390 5b ea ff bd e6 21 ac 3d ce 6d 89 3e a3 40 83 3f
       -0.12495872 0.08404903 0.26841587 1.02541
0003a0 e7 4e ab bd e6 18 2a 3f f0 0f f2 bc 69 20 d6 3d
       -0.08364659 0.6644424 -0.029548615 0.104554005
0003b0 79 bb 18 be e5 1e 05 3e a4 77 13 bd 84 2b 9e 3e
       -0.14915265 0.13000067 -0.03600277 0.30892575
0003c0 80 a3 56 3f f1 fe 57 3f 25 c6 d1 bd 1e ec e2 bd
       0.8384323 0.84373385 -0.10242871 -0.11080192
0003d0 63 4a f3 3e cf 75 44 3d 3d fe 82 be 03 08 8a bc
       0.4751769 0.047963914 -0.25584593 -0.016849523
0003e0 86 52 b0 3d d3 e2 fd bd bd 54 b5 bf ac f8 95 bd
       0.0860949 -0.12396779 -1.4166485 -0.07322821
0003f0 69 28 f8 3e 48 e2 48 bd 1b 5d 30 be 3f e7 58 3f
       0.4846833 -0.049043924 -0.17223017 0.84727854

network.3.bias f4 [256]
000000 ba cc aa bf 0d 7d bc be ff 78 cc be 0c 0f 34 bf
       -1.3343728 -0.36814156 -0.39936063 -0.7033546
000010 fb c8 57 3e ff 45 18 bd 11 0c 69 bf 89 8c 34 3e
       0.21072762 -0.03717613 -0.91034037 0.17631735
000020 3a ac b0 bd d3 2b 89 bd 53 05 18 be bd 31 2f bc
       -0.086265996 -0.06697812 -0.14845781 -0.010693011
000030 48 00 c9 3c d5 47 5e be f8 59 8f bf 45 e4 47 bf
       0.024536267 -0.21707089 -1.1199331 -0.78082687
000040 fe 32 af 3d 24 f8 19 bf e6 4b 92 3c 66 34 87 bf
       0.08554648 -0.6014426 0.017858457 -1.0562866
000050 a3 6b 7e bf cb a5 d1 bd 36 8c 87 be 1d de 1c 3e
       -0.9938299 -0.102367006 -0.2647416 0.15319104
000060 a0 29 d3 bd ef c7 64 be 3c 07 cb bf c4 d6 7f 3e
       -0.10310674 -0.22341894 -1.5861583 0.2498427
000070 b2 a5 95 bf 0d 17 50 3e 70 bf db bd cb 3c 3e 3e
       -1.1691191 0.20321293 -0.10729873 0.18577878
000080 bb d4 35 bc 17 9c 10 3e 9d 00 c1 3d a0 f6 72 bd
       -0.011098082 0.14122044 0.09423945 -0.05931723
000090 ae e5 b5 3c a6 4b 93 bf 0f a0 5a be c4 13 31 3d
       0.022204246 -1.1507461 -0.2135012 0.04323174
0000a0 d7 61 10 bf 73 1d 88 bd 77 64 64 bf e2 b1 22 bf
       -0.5639929 -0.06646242 -0.892158 -0.6355268
0000b0 7d c9 36 bc ef 63 13 3e a4 98 1c 3e 20 2b 0a bf
       -0.011156437 0.1439359 0.15292603 -0.53972054
0000c0 03 9e 5d bf 51 f7 c8 3d bc 4c 62 3e ab 50 8e 3e
       -0.8656923 0.09812797 0.22099584 0.2779592
0000d0 e9 85 cc bf 82 59 5e be ff 21 17 be ed 37 7a bd
       -1.5978366 -0.21713832 -0.14759062 -0.06108849
0000e0 dc 86 26 bf 2d b9 1a bf d6 45 92 bb a5 df 51 bf
       -0.6504953 -0.60438806 -0.0044638915 -0.8198188
0000f0 36 17 a2 bc d5 aa 43 bf 48 f9 cd 3d 93 62 4c be
       -0.019786458 -0.76432544 0.10057312 -0.19959478
000100 bd 57 ca 3d 30 32 28 be 8f 4c 95 3e ac 02 32 be
       0.09880016 -0.16425395 0.29159972 -0.17383832
000110 c2 d4 25 be db 3b 8e be 2e 2a 36 3e 8d ca 0d be
       -0.16194442 -0.2778004 0.17789528 -0.13846798
000120 80 d9 9a ba e2 0f 54 be d4 18 a0 bc 3c e0 bc 3d
       -0.0011814088 -0.20709184 -0.019543089 0.09222457
000130 97 04 3e bf cd 45 84 be 5d 54 d3 be 7a 20 df 3e
       -0.74225754 -0.25834504 -0.41275302 0.43579465
000140 10 6c 81 be 23 b0 d4 bd 26 e6 58 be 87 1b 6b 3e
       -0.25277758 -0.10385158 -0.21181545 0.2295972
000150 cc 86 59 3d 2b 22 e3 bd 7e e6 4b 3e c6 62 bc bd
       0.053107068 -0.110905014 0.19912145 -0.09198527
000160 a8 b5 48 bf 4a 24 24 3e 88 53 97 bf 5d d6 bd bb
       -0.78402185 0.16029468 -1.1822367 -0.0057933764
000170 f0 42 04 3b 2f d7 03 bf 1d a5 39 bc d0 0b e8 3c
       0.00201815 -0.5150022 -0.01133087 0.028325945
000180 9f 15 b2 bd c1 7a c0 bd b9 00 59 be c6 d5 5b bf
       -0.0869553 -0.093984134 -0.21191682 -0.8587307
000190 b8 25 fa bd 65 ad f7 3d c8 69 68 bf 87 1a 41 3d
       -0.122142255 0.12093619 -0.9078641 0.04714444
0001a0 34 1a fa be 3f e5 89 bd f4 7c 87 bf f4 28 6f be
       -0.48848116 -0.06733178 -1.0585008 -0.23355466
0001b0 fe 44 b5 3d dd 24 83 3e bc a5 16 3c bd bc ef bb
       0.0885105 0.25614062 0.009194788 -0.0073162005
0001c0 5a 32 81 3e 3a 76 66 3c 43 cf 80 bf fb d2 d5 bd
       0.25233728 0.014066273 -1.0063251 -0.10440632
0001d0 38 ba 6c bf 70 21 0e bf a4 53 75 bf 35 65 03 3f
       -0.9247165 -0.5551977 -0.9583075 0.51326305
0001e0 5b 5f d8 be 2b a1 04 be cb f3 30 3d 42 10 8b 3d
       -0.4226025 -0.12952106 0.04320125 0.0679021
0001f0 5e a8 41 bf 09 3c c3 bd d7 4b 00 c0 de 5b b8 bf
       -0.7564753 -0.09532935 -2.004629 -1.4403036
000200 9a f6 78 3e 9f 96 20 3e 14 c8 53 bf 42 f6 32 3e
       0.24312821 0.15682457 -0.8272717 0.17476752
000210 ea 7a dd 3d b4 e8 8d bf 49 9f 89 bd 68 fe d3 bd
       0.108144596 -1.108664 -0.06719834 -0.103512585
000220 7d 06 ec bd cd d0 c3 bd cf f8 87 3d bd 06 a0 be
       -0.11524675 -0.0956131 0.06639253 -0.3125514
000230 67 6a 04 3e 66 9f 93 3e f9 dc 33 3e 5f 31 96 bf
       0.12931214 0.2883255 0.17564763 -1.1733817
000240 9b b6 e4 3d 56 57 33 be a3 01 e9 bd 73 79 a3 bf
       0.11167642 -0.17513785 -0.11377265 -1.2771438
000250 98 bf 1a 3e 85 4d b8 bd 7e f3 a2 3d 6b a1 c5 bf
       0.1511215 -0.08999161 0.07956599 -1.5439886
000260 d8 ac bd 3c b8 fe 81 bd 9c cf fe be 38 50 29 bd
       0.023153707 -0.06347412 -0.49767768 -0.04133627
000270 42 0e 78 bf a7 13 82 3e e5 0b 50 3f 7d 30 d6 bd
       -0.96896756 0.2540562 0.8126815 -0.10458467
000280 e5 ad b0 bd c3 1e 5e 3e 3e 36 51 bf 82 04 a3 be
       -0.08626918 0.21691422 -0.8172339 -0.31839377
000290 1c 95 ec 3e 34 43 5f bf 1e 42 8a bf eb b5 57 be
       0.4620751 -0.8721192 -1.0801427 -0.2106549
0002a0 b0 60 df be a4 ed c4 be 7a f6 4e bf 64 53 09 3e
       -0.43628454 -0.38462555 -0.80844843 0.13410717
0002b0 fa 2e d2 bd ee 2e c5 bd dc 5e 26 3f 1f f2 1a 3e
       -0.10262866 -0.09628092 0.64988494 0.15131424
0002c0 96 95 f5 3b 11 35 42 3e de 77 7b bf 34 42 ea 3e
       0.0074946387 0.18965556 -0.9822978 0.45753634
0002d0 41 07 72 3d 48 00 47 bd a4 54 f7 bd 2f ba d2 bf
       0.05908895 -0.048584253 -0.12076691 -1.6463069
0002e0 83 83 af 3e 66 ea 0a be c5 08 81 bf 37 be bd be
       0.34280023 -0.13565978 -1.0080801 -0.37059185
0002f0 06 0c b9 bd 68 2b 27 bf d5 0d a3 3c fc ed 22 bd
       -0.090354964 -0.6530061 0.019904057 -0.03977774
000300 eb bc 03 c0 a1 2e 9e bc 56 40 bf be a3 8c f5 3e
       -2.0584056 -0.019309344 -0.37353772 0.4795886
000310 b7 01 05 bd 22 d3 58 be 2b 5b be be 39 85 be bf
       -0.03247234 -0.21174291 -0.3717893 -1.4884406
000320 2a 19 09 bf e0 e8 9b 3d 04 07 b8 bd 32 79 e4 bf
       -0.5355402 0.07612777 -0.08985713 -1.7849486
000330 59 64 97 bd 61 ba 45 be 19 bb 7a bf 1f 00 15 bf
       -0.07392187 -0.19309379 -0.9794174 -0.5820331
000340 8b 27 e0 bd a6 fb 88 bd 0d b0 0f bf 5a 74 53 bd
       -0.10945042 -0.06688623 -0.5612801 -0.051624633
000350 1b f2 73 be ea 86 96 3d 49 11 2c 3e 73 e7 a8 bc
       -0.23822825 0.073499516 0.16803469 -0.020618176
000360 d1 ee 78 3d aa 24 93 bf e9 90 ce bc c4 89 24 bd
       0.060774628 -1.1495564 -0.025215583 -0.040170446
000370 fb 0d 8f 3c 07 01 29 bf 0a 46 a0 bf 2e ed b0 bf
       0.017462721 -0.6601719 -1.2521374 -1.3822381
000380 da e0 6d 3e 5f d8 4b be 4b d2 81 bf 8a 32 93 3d
       0.23230305 -0.19906758 -1.0142301 0.07187374
000390 ce 28 bc bf 20 a6 2e bf 45 e9 85 3e 18 0d 5e be
       -1.4699953 -0.68222237 0.26154533 -0.21684682
0003a0 56 dc 3c bf cc 60 c5 bf bc 3a 58 3d 22 0f 44 3e
       -0.73773706 -1.5420165 0.05279039 0.19146398
0003b0 14 64 89 bd 9e 95 09 bf a1 65 05 bf 92 af d5 3d
       -0.067085415 -0.5374392 -0.521082 0.10433878
0003c0 86 f8 19 3f 38 cf 85 3c 77 66 58 bd 7f 23 6b 3e
       0.6014484 0.016334161 -0.052832093 0.2296276
0003d0 72 10 0c be 37 38 58 bf 33 52 cc be 8d 8e 8c bf
       -0.13678148 -0.8446078 -0.39906463 -1.0981003
0003e0 56 c0 2e bf 55 f3 61 3d 6e 1b f3 3d d9 60 95 bc
       -0.6826223 0.0551637 0.11870466 -0.018234657
0003f0 77 46 83 be 13 5e 2c 3c f9 af db be f1 a7 6f bd
       -0.25639698 0.010520476 -0.42907694 -0.05850977

network.6.weight f4 [256, 256]
000000 3b 0c e4 3b 80 e1 11 be 85 c2 79 bd 25 b1 23 be
       0.006959466 -0.14246178 -0.060976524 -0.15985544
000010 ac 59 c1 be 43 ea 1d bd 51 2a 3b be 01 34 72 be
       -0.37763727 -0.038553488 -0.18277861 -0.2365265
000020 78 e8 3c be 03 b5 78 bd f6 f5 6c be 6c 2a d9 be
       -0.18448055 -0.0607195 -0.23140702 -0.42415178
000030 0e f6 b3 be d7 9c 47 3d e5 cf 0e be 5d 11 ec bd
       -0.35148662 0.04873356 -0.13946493 -0.11526749
000040 ab 91 fd be d2 11 be bd a2 a0 aa be 6a 19 c8 3c
       -0.49525198 -0.09280743 -0.33325678 0.02442618
000050 49 c3 2e be 35 52 ab be d3 82 66 be 72 e4 b2 be
       -0.17066683 -0.33461156 -0.22510843 -0.34939915
000060 fa fb 18 be 18 57 9c be 57 69 c5 3c 90 d7 92 bd
       -0.14939871 -0.30535197 0.024098082 -0.071700215
000070 8f c5 9c 3e ec fd 76 be cb 69 60 be 87 52 a3 be
       0.30619475 -0.24120301 -0.21915357 -0.318989
000080 a7 8b 7f be 01 8e 9f bc f0 6f ac be d4 0e 15 bf
       -0.24955617 -0.019476892 -0.33679152 -0.5822575
000090 5a 6e 26 3d 56 48 e3 bb 11 42 1b be 61 3f 1c bd
       0.040632583 -0.0069361134 -0.15161921 -0.03814638
0000a0 e6 ae 15 3e c5 07 30 bd a1 4a 4c 3d 96 7d 0c be
       0.146175 -0.04297616 0.04987586 -0.13719782
0000b0 8a 3a e2 bd 28 10 7f be bb 2f e8 bd 2b 00 f6 be
       -0.11046322 -0.24908507 -0.11337229 -0.48047003
0000c0 fa 1d f2 bd e0 22 c5 3d 33 29 92 bd 97 52 73 be
       -0.11822124 0.096257925 -0.071367644 -0.23761974
0000d0 db 69 f7 3d e5 27 03 be 78 33 0a 3e 41 76 3d 3d
       0.12080737 -0.12808187 0.13496196 0.046255354
0000e0 f5 51 94 bc 15 db c4 bd d0 26 33 be 1b 13 96 bc
       -0.018105486 -0.09612099 -0.17495275 -0.018319657
0000f0 0d aa 11 be 50 38 9b 3e cd 74 01 bf 62 25 85 be
       -0.14225025 0.303164 -0.5056885 -0.26005083
000100 d5 7c ab be a6 2d 77 be 7c 6f e3 bd 8e 83 05 3e
       -0.33493677 -0.24138507 -0.11105248 0.13038465
000110 b4 44 1b 3d 7d 56 d9 be e4 9f 40 be 88 f3 c7 bd
       0.037907317 -0.42448798 -0.18810993 -0.09763247
000120 1c 3a d7 be 8e 01 05 be 98 e9 aa be d1 c6 dd bd
       -0.4203652 -0.12988874 -0.33381343 -0.10828937
000130 4c a3 44 be 9d 90 63 be c7 69 da bd 73 6d 6f be
       -0.19202918 -0.22223134 -0.10664707 -0.23381595
000140 33 dd 38 bd 16 b0 96 bd b3 22 cc bd d2 97 fd bd
       -0.045132827 -0.073578045 -0.09967556 -0.12382473
000150 b2 64 de bd 9f ee 3f bd 91 da 19 bf ce be 9b be
       -0.1085905 -0.046858426 -0.6009913 -0.3041901
000160 4d 77 17 3e 71 ee 14 3e 48 0a 2d be 3b 48 38 be
       0.14791603 0.14544083 -0.16898453 -0.17996304
000170 b3 3b ea bd dd 3e cf 3d 28 39 44 be e1 e7 3d be
       -0.11437168 0.10119412 -0.19162428 -0.18545486
000180 8e b6 cc 3d 64 19 d3 be 4d 35 1f be ea fe bf bc
       0.09995757 -0.4123031 -0.15547676 -0.023436982
000190 3e 17 35 3d ff 4e b3 3d 02 20 82 be 21 3e a1 3c
       0.04421162 0.08755302 -0.25415045 0.019682946
0001a0 44 81 0c bc 1d e2 8b be cc f8 04 be 05 df 18 be
       -0.008575741 -0.27320948 -0.12985533 -0.14928825
0001b0 14 52 ae be 79 40 21 bd 39 61 f2 bd c3 a2 9d be
       -0.34046996 -0.039368127 -0.1183495 -0.3078824
0001c0 36 e1 05 3e e1 42 9a be f2 a1 5b be e8 35 91 be
       0.13074192 -0.3012915 -0.21448496 -0.2836144
0001d0 3d e8 d6 bd 4d ae 9e bd 42 cb 07 3e b5 cb b0 be
       -0.10493515 -0.07748089 0.1326113 -0.34530416
0001e0 de 34 9a 3c 8a 85 fc be 0f e8 03 b9 59 8c a0 bd
       0.018824037 -0.49320632 -0.00012579582 -0.07839269
0001f0 4d 00 c6 bc 4c 81 a1 3d af f8 91 ba 48 c3 18 3c
       -0.024170065 0.078859895 -0.0011136736 0.009323902
000200 b2 79 3a be 9c b8 a6 be 4a ca 63 3e 0b a1 35 3d
       -0.18210486 -0.3256272 0.22245136 0.044343036
000210 d4 66 32 be 6b 39 56 be d9 54 73 be 4a 4a 49 bd
       -0.17422038 -0.2092034 -0.23762836 -0.049143113
000220 58 e2 32 3d c4 ce 98 3a a3 b6 79 be 02 bd 06 bd
       0.04367289 0.0011658301 -0.24386077 -0.032895096
000230 37 93 4c be 41 0b b3 bd 76 81 c1 be 19 69 1b bd
       -0.19978033 -0.08742381 -0.37794083 -0.037942026
000240 a1 f8 d5 bd 8c 61 58 bd 3e 1f cd bd 43 cb 06 be
       -0.10447813 -0.052827403 -0.100157246 -0.13163476
000250 38 7a 70 be 30 54 a9 3d 81 db 2c be 49 74 55 be
       -0.23484123 0.082680106 -0.16880609 -0.2084514
000260 96 53 ce be 16 04 89 be 28 3f 7b bd d1 3b ac 3d
       -0.40298146 -0.2676093 -0.061339527 0.084098466
000270 d9 7e f1 bd 70 f1 e0 be 0e 19 3e bf 49 62 05 be
       -0.117917724 -0.43934202 -0.7425698 -0.13025774
000280 30 18 76 be cc 66 87 bd 2f ec d9 bd da 82 ca bd
       -0.24032664 -0.06611404 -0.106407516 -0.09888239
000290 8f 0c 45 be 32 84 29 bc b1 b7 67 bd ae f4 97 bd
       -0.19243072 -0.010346459 -0.056571666 -0.07419716
0002a0 28 f6 dc 3d fe 9e 4f bd db 0a 78 bd 91 c1 f6 bd
       0.10789138 -0.050688736 -0.060557228 -0.120486386
0002b0 f1 9f 04 bf 6e 05 8e be 5f cc 07 bf 75 8f 46 be
       -0.5180655 -0.27738518 -0.5304622 -0.19390662
0002c0 7f b9 0f 3e 3a f1 10 bf bd d3 ad bd 7c d9 38 bd
       0.14035605 -0.5661808 -0.084876515 -0.045129284
0002d0 3f af a7 3e b2 ea 9e bd 1e 57 01 3e 65 90 5c 3e
       0.3275089 -0.07759608 0.12630889 0.21539457
0002e0 85 8c 56 be 05 94 7c bd b6 71 18 3d e9 5c 3e bd
       -0.20952041 -0.0616646 0.03721782 -0.046475325
0002f0 e8 39 f4 bd 41 a8 47 3e ff e6 2d bd a4 5a 66 be
       -0.11925107 0.19497778 -0.042456623 -0.22495514
000300 ae a7 e5 3b 38 65 af bd a0 11 18 3d 1e b0 54 be
       0.0070085144 -0.08564228 0.037126184 -0.20770308
000310 0e 81 e6 bd bd dd d2 bd d0 bb bd bd f6 ef 31 bd
       -0.11255084 -0.102961995 -0.09264338 -0.043441735
000320 1e 10 93 bd 73 ac f9 bd 81 fa a4 be a7 5a 09 3e
       -0.071808085 -0.12191095 -0.3222237 0.13413487
000330 27 1c 98 be 87 0c 9d bc ee 84 d5 bd 6e 62 07 3d
       -0.2970898 -0.019171013 -0.10425745 0.033052854
000340 74 49 7c 3d 1b d9 e4 be 51 1e b4 bc 1e 37 c6 3a
       0.061593488 -0.44696888 -0.021987112 0.0015122627
000350 c8 72 a9 3d d7 d0 c4 be 14 f4 1a 3e 8d 6e 11 bd
       0.08273846 -0.38440582 0.15132171 -0.03550582
000360 27 d7 b9 3e 6c 12 54 3d 03 e3 09 bd 2d 7c c7 bd
       0.3629696 0.05177538 -0.03366376 -0.097404815
000370 8b 0d 56 be b2 06 0b be f1 88 a3 3e fb 11 be be
       -0.20903604 -0.13576773 0.31940416 -0.37123093
000380 9e 48 40 be 68 b2 ba 3c df 01 9b bd 76 7e 13 be
       -0.18777701 0.022790149 -0.07568716 -0.1440371
000390 07 50 9f bd 46 15 b2 3c 36 de c5 be ca a7 a0 be
       -0.07778936 0.02173866 -0.38646096 -0.31378013
0003a0 60 99 55 be 68 9f 84 bd a1 55 85 3c 76 b5 15 bf
       -0.20859289 -0.06475717 0.016276183 -0.5848001
0003b0 43 99 32 be fb f2 8d 3d 34 77 1e be 89 1a 5d be
       -0.17441277 0.069311105 -0.1547516 -0.21592154
0003c0 38 d3 f5 be 58 2e 13 be 07 ee cd be d2 30 8f be
       -0.4801271 -0.14373147 -0.40220663 -0.27966934
0003d0 90 80 1c 3c d1 d9 dc bd 43 4f dc bc 45 c2 b4 3d
       0.009552136 -0.10783733 -0.026893264 0.088261165
0003e0 17 7b d8 bd 37 6d 23 be 26 7c 86 bd f7 74 8d be
       -0.105703525 -0.15959631 -0.06566648 -0.276283
0003f0 cf 70 df 3d 9d dd 6b be 12 19 3a 3d fa c7 31 be
       0.109101884 -0.23033758 0.045434065 -0.17361441

network.6.bias f4 [256]
000000 df e8 b6 be b5 98 0d bf d5 38 20 3d 95 ad c7 be
       -0.35724542 -0.5531114 0.0391167 -0.3899962
000010 88 e4 ee 3d 73 b6 82 be a3 df 11 be df 58 95 3e
       0.116646826 -0.25529823 -0.14245467 0.29169366
000020 df 7c 6d 3d eb 9f ed bd b8 9f 18 3d 7c 0c b8 3d
       0.057980414 -0.116027676 0.037261695 0.08986756
000030 f6 dd 5c 3e ed 95 b6 3d 25 f3 18 be 6a 18 72 3e
       0.21569046 0.08915315 -0.14936502 0.23642126
000040 00 24 07 3f 7a d7 0b be 1f bc 9c 3e b5 07 fe 3e
       0.52789307 -0.13656417 0.30612275 0.49615255
000050 25 06 c3 3d 85 f0 dc 3c 17 49 e3 bd 27 7c d8 bd
       0.09522656 0.026970157 -0.11097925 -0.10570555
000060 4a f0 11 be bd 93 4f bd 46 1e 35 3e e8 f8 d7 bd
       -0.14251819 -0.050678004 0.1768733 -0.10545522
000070 9c 4f 88 be 23 9f 80 3e 69 21 22 3e 15 07 c9 3e
       -0.26623237 0.25121412 0.15833057 0.39263216
000080 6c 75 76 3d 10 3b b0 3e 27 4c 0e 3e 55 f7 46 be
       0.060170576 0.3442006 0.13896237 -0.19430287
000090 e5 6f a1 bc 18 b6 0b 3b dc 0d d9 3b b3 34 63 be
       -0.019706676 0.0021318253 0.0066239666 -0.22188072
0000a0 c7 69 4d be 9b e4 40 be 1a 31 3d be f6 5a 03 be
       -0.20059882 -0.18837206 -0.18475762 -0.12827668
0000b0 4d ce 15 3d 96 6e 68 bd c7 55 8d be d2 b7 0b 3d
       0.036573697 -0.056746088 -0.27604505 0.03411085
0000c0 da df b1 3d 0f 0d 9f 3d 95 3f 5a be f1 23 d7 be
       0.086852744 0.077661626 -0.21313317 -0.4201961
0000d0 a7 34 aa 3e a6 52 b3 3e 18 70 0f be 87 7d 88 3d
       0.33243296 0.35023993 -0.14007604 0.066645674
0000e0 a7 b4 a4 bd 15 2b 0d be 14 13 01 3f 71 06 96 3c
       -0.08042269 -0.13785966 0.50419736 0.018313618
0000f0 40 94 0a be ff b3 f5 3d 62 f6 02 be aa c4 3e bd
       -0.13533115 0.11997222 -0.127893 -0.046574272
000100 ae 47 fc 3c 02 fb 96 bd cb 77 94 bb a4 43 88 3e
       0.030795898 -0.07372095 -0.004530882 0.26614106
000110 b1 0b 07 3e fa 06 89 be d0 96 91 be 50 ce 64 3d
       0.13188054 -0.26763135 -0.28435373 0.055860817
000120 5b 8f 8f be e9 b0 bd 3c d5 c2 b2 be 12 1b 0b be
       -0.2803906 0.023155646 -0.3491427 -0.13584545
000130 9c 48 0b bc b6 a6 22 be 6e a3 11 3e 41 5d 39 3e
       -0.008501198 -0.15883908 0.142225 0.1810198
000140 e4 00 24 be f1 76 e5 3e d8 79 93 3e e5 cf 9e 3d
       -0.16015965 0.44817308 0.28803897 0.077544965
000150 d8 1b 1f 3d e1 99 92 3c fd c8 35 bd ce b9 22 be
       0.038844913 0.01789564 -0.04438113 -0.15891191
000160 29 2f 94 3e c8 5b 42 be bc b6 fd bd 6c 56 f8 bd
       0.2894223 -0.18980324 -0.123883694 -0.12125859
000170 2f 8b 31 be 68 c2 43 3e 43 82 96 be c3 46 07 3d
       -0.1733825 0.19117129 -0.29396257 0.033026468
000180 67 da 31 be 29 5b 5f be a4 01 47 be 51 af f5 bd
       -0.1736847 -0.21812119 -0.1943422 -0.119963296
000190 c8 b1 e8 be df b9 a5 be db 21 df bd 22 9c 61 be
       -0.45448136 -0.3236837 -0.10895129 -0.22032216
0001a0 a7 13 9c bd de 09 85 3e 7d 69 af be 09 88 cc bd
       -0.07620936 0.2598409 -0.3426017 -0.09986884
0001b0 76 39 50 bd 77 1a d7 be 83 d7 e5 3d 83 f6 b2 3c
       -0.05083605 -0.4201238 0.11222746 0.021846062
0001c0 3b 4d c4 be 5f 74 ae be 36 81 37 3e 12 18 e2 bd
       -0.38340172 -0.3407316 0.17920384 -0.11039747
0001d0 45 51 99 bd bc ee 10 bf e4 fb cf bd 7c e6 91 3e
       -0.07486204 -0.5661428 -0.10155466 0.28496158
0001e0 b1 21 1a be 66 1a c4 bd 03 d8 3b be 3e 94 0d be
       -0.15051915 -0.095753476 -0.1834412 -0.13826081
0001f0 0f bf f7 bd 8b a4 e1 3e c2 92 03 3e a8 b0 5f 3e
       -0.120969884 0.4407085 0.12848952 0.21844733
000200 0a 1e 0e 3d cb 6a 82 3e 4a 45 e3 bd dc 9d 74 bf
       0.034696616 0.25472102 -0.110972 -0.95553374
000210 d8 b4 08 be 51 d2 38 be 77 a6 b6 be 64 e0 63 3e
       -0.13350236 -0.1804898 -0.35673878 0.22253567
000220 7b 3b 34 be dd 8d 34 3d 91 8a 93 3e 40 dd 99 3e
       -0.17600815 0.044080604 0.28816655 0.30051613
000230 49 2c a1 3d a8 f8 24 3e 2a 45 d6 bd 2a 09 b6 3c
       0.07869775 0.1611048 -0.10462411 0.022221167
000240 14 16 9d 3e f1 9d 98 3e 04 3e ad 3e 00 4b 8c 3d
       0.30680907 0.29808 0.33836377 0.068502426
000250 fc c0 a8 3d 83 9a ab bd 43 b9 38 3d 8e 74 2d be
       0.08239934 -0.0837908 0.045098554 -0.16938993
000260 a1 a8 42 3e de fc 0f 3e d8 b1 1d be b3 3e 18 3e
       0.1900964 0.14061305 -0.15399873 0.14867668
000270 e0 a9 00 be 84 2c 3c be e0 41 3d bc 9c 0c 77 be
       -0.12564802 -0.18376356 -0.01155135 -0.24125904
000280 a0 fb d6 bd db ba c5 bd 39 01 78 bd df 7e 17 be
       -0.104972124 -0.096547805 -0.06054804 -0.14794491
000290 71 9a 06 3f fa 11 c3 3e 53 9c 1d be 6e 3e c0 be
       0.5257941 0.38099653 -0.15391664 -0.3754763
0002a0 24 41 55 be 06 a7 30 bd 78 31 3f bd 4f 2e 25 be
       -0.2082563 -0.043128036 -0.046678036 -0.16130947
0002b0 68 6f 42 3e 4d 25 0e be 0d 27 b1 be e0 f1 9c 3d
       0.1898781 -0.13881417 -0.34600106 0.076633215
0002c0 36 75 06 bd e0 fe a2 3e 56 46 69 3e dc 4e b0 be
       -0.032826625 0.3183508 0.22780737 -0.34435165
0002d0 ee 4d 94 3c 88 54 bd bc 0e 25 0f bf a2 f3 84 3e
       0.018103566 -0.023111597 -0.55915916 0.25967127
0002e0 26 43 99 be 4a 6a 07 bb 04 5e 90 bc 77 d7 2d be
       -0.29934043 -0.0020662718 -0.017622955 -0.16976725
0002f0 56 bc 12 be 9c 0d c3 bd 93 cd 92 3d 85 a7 82 3e
       -0.14329657 -0.0952408 0.071681164 0.25518432
000300 3a 96 a8 bd bc 2e 23 3e 26 4c 86 3e 61 e9 19 bd
       -0.082317784 0.15935796 0.26229972 -0.037576083
000310 61 2c 7b 3e 6e 66 4f be 71 d4 a9 bc 17 ad 64 bd
       0.24528648 -0.20253918 -0.020731183 -0.055829134
000320 64 49 bb bd f1 5c 96 3c 19 29 aa 3d a0 0a e2 be
       -0.091448575 0.018354865 0.0830862 -0.4414873
000330 72 5a f7 3e ac b4 05 be 75 9e a2 be d3 a4 1f bb
       0.48311192 -0.13057202 -0.31761518 -0.0024359717
000340 39 f9 b8 bd 0f 78 35 be 07 ba bf 3b 1c b9 e8 bd
       -0.090319104 -0.1772158 0.0058510336 -0.11363432
000350 40 ca 91 3e 2c 06 96 bd 48 19 b9 bd 76 04 64 be
       0.28474617 -0.07325396 -0.09038025 -0.22267327
000360 a7 94 a3 3e 32 af e2 bc 12 cd 77 be b1 b5 12 be
       0.3194935 -0.02767143 -0.24199322 -0.14327122
000370 d8 49 2d 3e 25 0c 83 bd f4 b0 cc bd bb 54 50 3e
       0.169227 -0.06398801 -0.09994689 0.20344822
000380 aa 52 ff bd 1b b8 5a 3c 57 ab bd bd e2 48 37 be
       -0.12466939 0.013349558 -0.09261196 -0.17898896
000390 fc ca d3 bd d8 ac 5e 3d d3 1d dc 3e 0a b6 6b 3e
       -0.103414506 0.054364055 0.42991504 0.23018661
0003a0 5f bc 11 be db 4d a9 bf b4 40 03 3f 8e e0 8c bf
       -0.14232014 -1.3226885 0.51270604 -1.1006029
0003b0 3f a3 85 bd cf 1a fd bd 02 45 9e be 86 2c 31 3e
       -0.06525277 -0.12358629 -0.30912024 0.1730214
0003c0 2e a3 b3 bd 92 09 9b 3e f9 0b f8 3e 0e 4a f7 bd
       -0.087713584 0.3028074 0.48446634 -0.12074672
0003d0 66 3a 54 be 6e 0b fe bd ff df 4e bc e0 69 cd bd
       -0.20725402 -0.12404524 -0.012626647 -0.1002996
0003e0 53 a8 f1 3d 38 3b bc bd 30 a6 5d 3e d1 35 13 3d
       0.117996834 -0.091909826 0.21645427 0.035939995
0003f0 9e 4a 67 bd ae 5f cb bc 79 a8 5e 3e 5d 3e d5 3e
       -0.056467645 -0.024825897 0.21743955 0.41649142

network.9.weight f4 [1, 256]
000000 1f e8 d8 3b 6d da 00 bc a4 90 f5 bb 8c 09 80 bc
       0.006619468 -0.007864577 -0.007494049 -0.015629552
000010 45 71 fa 3c 52 1e f8 bb f7 49 55 bd 7b ef e3 bc
       0.03057159 -0.007571974 -0.05207249 -0.027824154
000020 10 37 3a 3d 83 02 9d 3b 2f 3e 17 bd f1 52 1e 3c
       0.045462668 0.004791559 -0.036924537 0.009663329
000030 0c 5f 52 bc 80 ac df 3c 07 7e 3f 3c 2c 1e d2 3d
       -0.012840044 0.027303934 0.011687762 0.10259661
000040 23 55 61 bd 06 95 2e 3a 1d 2f 0d 3d 13 76 64 bd
       -0.055012833 0.00066597795 0.03446876 -0.055776667
000050 7f c1 1e 3d da fc fe 3a 40 9a 06 bc fb 00 21 3c
       0.03875875 0.0019454018 -0.008215487 0.009826894
000060 5a cc 3b 3d b9 02 0e 3d 9d 05 71 3d 99 cf c8 bb
       0.04584918 0.034670565 0.058843244 -0.006128263
000070 b8 41 9a bb 39 ce a7 3d 18 34 4a 3c 50 39 a6 3d
       -0.0047075413 0.08193631 0.012341522 0.081164
000080 58 3c 8d bd b1 b8 9e bd bd 1a 96 3c a1 25 81 bc
       -0.06896275 -0.07750071 0.018323297 -0.015765013
000090 b1 65 5c bc 20 b7 3b bc 4a 99 3f bc bb e0 aa 3c
       -0.0134519795 -0.011457235 -0.011694262 0.020859113
0000a0 d8 ef 49 3b a9 7e 07 3e e4 ad 65 bc 11 f0 38 bd
       0.0030813124 0.13231911 -0.01401851 -0.04515082
0000b0 e3 ca a2 bd c4 a3 e2 3b 37 4a 87 3b dd ad 3e 3d
       -0.07948854 0.006916495 0.00412872 0.046552528
0000c0 02 24 e9 3c 6f 5f d1 bd 72 68 a8 3d 46 68 15 3c
       0.028459553 -0.10223281 0.08223046 0.009119099
0000d0 c6 28 52 3d 04 0b 36 be fc 1c 88 bd 0b ae 8f 3a
       0.051308416 -0.1777764 -0.06646153 0.0010961903
0000e0 6b 86 02 3c cc be e4 3b ef 92 b5 bc b7 f0 90 bd
       0.007966618 0.0069807526 -0.02216479 -0.07077163
0000f0 f1 8f f9 3b 85 6b 2b bd 5b 17 11 3c d2 4b bf bc
       0.007616036 -0.041850585 0.008855666 -0.023351584
000100 d0 5f dc bc 19 82 7b bd f3 4e 99 3c ce 62 17 bd
       -0.026901156 -0.061403368 0.018714404 -0.036959462
000110 da 55 d6 3c a8 52 86 bd 60 67 9d bc 45 2d 3b 3a
       0.026163984 -0.06558734 -0.019214332 0.00071402296
000120 83 34 31 bb 16 26 a3 bb 4f a5 91 bc 96 3c 08 3b
       -0.0027039356 -0.0049789054 -0.01777902 0.0020788065
000130 21 b6 bf bd 9c 50 12 bd 80 13 bf bc 81 f8 8c 3d
       -0.0936091 -0.035721406 -0.023324728 0.06883336
000140 11 d9 31 3d 6a 2b b7 3d fc ab f7 bb c9 e5 a0 3c
       0.0434199 0.089438275 -0.007558344 0.01964082
000150 63 5a f6 bd 72 f1 1c 3d d9 97 d8 3b 80 0a 82 bc
       -0.12028959 0.038316198 0.0066098985 -0.015874147
000160 51 1e 57 3d a9 6f 66 3a 77 5f b9 3c 2e 15 ea bb
       0.052519146 0.00087904424 0.022628529 -0.007143638
000170 67 89 5c bc 5c 2a a2 3d db e3 28 bc d0 fb 8a 3c
       -0.013460494 0.07918236 -0.010308231 0.016965777
000180 1b cc 1b 3c ec db 16 3d 1d 04 06 bc 56 ce 64 3b
       0.009509112 0.036830828 -0.008179692 0.0034913025
000190 52 20 10 bc e4 b9 c0 bb e1 25 76 3d d0 2f 96 3c
       -0.008796768 -0.005881535 0.060094718 0.018333346
0001a0 b0 cc 87 3b a6 69 b6 3d 7a ba 5a 3d 6f e5 d5 bb
       0.0041442737 0.089068696 0.053400494 -0.0065275948
0001b0 aa a9 47 3b 74 8f f7 3a cb 74 6e 3b 0b 82 7d 3c
       0.0030466118 0.0018887357 0.0036385532 0.015472899
0001c0 e7 46 60 b9 d0 a3 b4 3c 0e f3 89 3d c9 6e 27 ba
       -0.00021388718 0.022050768 0.06735812 -0.00063870527
0001d0 c3 e0 ab bd 48 5b 18 bd f9 93 ab ba d6 db 40 3c
       -0.08392479 -0.037196428 -0.0013090364 0.011771163
0001e0 d8 78 c1 3c 3b f2 16 3d 87 67 ed bc 48 66 86 bd
       0.023617193 0.036852103 -0.02898003 -0.06562477
0001f0 1f 48 cb bb 89 31 d2 3d 48 4f 53 3c da dd 9f bd
       -0.006203666 0.10263354 0.01289732 -0.07805987
000200 65 02 34 3d b3 1e 85 3c 00 ec e9 3b d4 9e b3 bc
       0.043947596 0.01624999 0.007138729 -0.021926321
000210 fd 1c 33 3c da f9 23 bc 72 27 7e 3b 28 f6 d8 3d
       0.010932204 -0.0100083 0.0038780835 0.105938256
000220 22 a8 d6 bc 0e b4 0e 3c 5c 55 0b bd e9 67 a7 bd
       -0.026203219 0.008709921 -0.034016952 -0.08174116
000230 1e 98 ac 3c 4e 1c 0d bb e6 03 8d 3c 11 88 60 bd
       0.021068629 -0.0021531763 0.017213773 -0.054817263
000240 26 e9 01 bc fb 8e 1f 3a da cb 19 3d a5 8c 20 bd
       -0.007929122 0.00060866744 0.037547924 -0.03919663
000250 4b bf 30 3d 7b 73 76 3b ba ec 30 3d 9b 6b bb 3a
       0.04315118 0.0037605453 0.04319451 0.0014299037
000260 98 0a c5 bc 10 7e 2c bb e1 6c a2 3b fd c6 87 bb
       -0.024052903 -0.0026320256 0.004956827 -0.0041435943
000270 b2 59 3e 3d f5 52 22 bc 0b bf d5 bd 05 56 07 bc
       0.04647226 -0.009907474 -0.10436829 -0.008260255
000280 a7 ce 86 3c 75 61 a0 bd 4c 90 94 3d b7 1b 44 bc
       0.016455961 -0.078310885 0.07254085 -0.011969498
000290 c1 0b 60 bd 86 b2 fa bd 38 83 81 b9 66 94 98 3a
       -0.05469871 -0.12241082 -0.00024702563 0.0011640906
0002a0 95 8f 9b 3b b7 81 e1 bc 4d 09 be ba dc 39 55 3c
       0.004747341 -0.027527673 -0.0014498621 0.013014283
0002b0 2f 34 92 bc 9b fd bc bb f5 d8 b5 3c dd 7e c0 bc
       -0.017847149 -0.005767537 0.02219818 -0.023497993
0002c0 32 6d 56 3b 23 1f 21 3d 64 39 53 bc 65 d5 79 3b
       0.0032718894 0.039336335 -0.012892101 0.0038121578
0002d0 26 ab 93 3c 37 a9 98 3d 90 f9 27 3d 23 d8 23 3d
       0.018025946 0.0745415 0.041009486 0.040001046
0002e0 47 05 35 bc 92 ab 15 bd c2 99 af bc cb 7f 49 bd
       -0.0110486215 -0.036540575 -0.021435622 -0.04919414
0002f0 28 ab fc bb bf cc f6 3b 94 04 c0 3b 1f 5c a0 3b
       -0.007710833 0.007531732 0.0058599208 0.004893794
000300 17 20 90 bb 90 ac e8 bd c2 c0 76 bc 72 e2 45 bb
       -0.0043983567 -0.11361039 -0.0150606055 -0.0030194786
000310 21 7a 93 bd 67 de b1 3d 39 19 22 3e b1 ff 13 be
       -0.072010286 0.08684998 0.15829934 -0.14453007
000320 a3 32 19 3d 75 10 c3 3d 16 9a 79 bd 52 d2 e1 3b
       0.037401807 0.09524623 -0.060937963 0.006891527
000330 ad 5b 4a 3e db eb a0 3b 50 7c 46 bb e8 1f 8d bd
       0.19761534 0.0049109287 -0.0030286498 -0.06890851
000340 96 aa ab 3c 8f 71 86 bd e9 25 83 bb 7b d5 d2 3b
       0.020955365 -0.06564628 -0.004002322 0.0064341403
000350 a1 04 96 bc 45 40 09 bd 08 d5 93 3b c9 d7 a3 bc
       -0.018312754 -0.033508558 0.0045114793 -0.020000355
000360 d0 c6 34 3c a4 f9 25 3d 70 0a 57 bc 9d b4 a0 3b
       0.011033729 0.04052128 -0.013125047 0.0049043433
000370 9b 33 b5 bc 1a f3 7f bb c1 99 8e bc c6 4e 24 3b
       -0.022119334 -0.0039054812 -0.0174073 0.0025071367
000380 dc d8 9f 3b a7 9a 82 bc ce ee c9 bc 6d 7c 97 3d
       0.0048781466 -0.015942885 -0.024650004 0.07396779
000390 3f 86 98 3c 7a ee 1b bc 9a 38 90 bd 67 c5 82 3d
       0.018618701 -0.009517306 -0.07042046 0.06385308
0003a0 56 63 0b bb bb ed 93 bc ba 8d 03 bd 9a 9e 84 bb
       -0.0021268926 -0.018057695 -0.032117583 -0.004047227
0003b0 d8 c3 8f bd d9 cb 55 37 2d 05 72 3b b4 7e 0c bd
       -0.07019776 1.2743251e-05 0.0036929355 -0.03430052
0003c0 ec 5e aa bc 0b 94 23 bb 4d 44 17 be 45 cf 8c bb
       -0.020797215 -0.0024960067 -0.14772148 -0.0042971694
0003d0 a7 a1 b5 ba 09 f7 10 bd b7 54 c9 bc 53 f5 30 bb
       -0.001385738 -0.03539184 -0.024576528 -0.0027001693
0003e0 20 3e ae 3d d0 1c 86 bc 53 c9 84 bc ee 83 0f bd
       0.08507943 -0.01637116 -0.01620928 -0.035037927
0003f0 ee 0e 64 3d 7c 2f 83 3d bc 4c eb bb d7 03 20 bc
       0.0556783 0.06405541 -0.0071807783 -0.0097665405
