animation_PPO/models/third_actor.pt (torch, 285573 bytes, 8 tensors)

log_std f4 [1, 2]
0	0xc00e88fc	-2.2271109
1	0xc003ddb6	-2.0604072

shared.0.weight f4 [256, 14]
0	0xbd449cab	-0.048000973
1	0xbc9ea00a	-0.019363422
2	0xbdaaa16a	-0.083315685
3	0x3e1652ed	0.14680071
4	0x3e7bea9c	0.24601215
5	0xbe6bc9f2	-0.23026255
6	0x3db069d7	0.08613937
7	0x3e0768ac	0.13223523
8	0xbc9aa676	-0.018878203
9	0xbe3c8356	-0.18409476
10	0xbe0fa632	-0.14028242
11	0x3d9845a3	0.07435157
12	0x3e70c2e0	0.23511839
13	0x3cbfe30c	0.023423694
14	0xbe99af39	-0.30016497
15	0xbe8261dd	-0.2546529
16	0x3dabe197	0.08392637
17	0xbd0ad340	-0.03389287
18	0xbe4cd2d9	-0.20002307
19	0xbb279777	-0.0025572458
20	0xbd4bb394	-0.049731806
21	0x3e4e0d36	0.20122227
22	0xbe1c5155	-0.152654
23	0xbe711b87	-0.23545657
24	0xbcca7830	-0.024715513
25	0x3ca56bfc	0.020193093
26	0xbde03455	-0.109474815
27	0x3d8247a1	0.063613184
28	0xbe84ac33	-0.25912628
29	0xbe007843	-0.12545876
30	0x3d3ced3a	0.046124674
31	0xbd37061b	-0.044683557
32	0x3c947e5a	0.018126655
33	0xbe9a74e6	-0.3016731
34	0x3e92b591	0.2865415
35	0x3e692ef2	0.22771814
36	0x3e24f37d	0.16108508
37	0xbfa08cab	-1.2542928
38	0x3e129869	0.14315952
39	0xbe13c253	-0.14429598
40	0xbe726407	-0.2367097
41	0xbd6dea5f	-0.05808484
42	0xbd96eefe	-0.07369803
43	0x3dd89604	0.10575488
44	0x3d1bc14e	0.038026147
45	0xbe65a809	-0.22427382
46	0xbe810a62	-0.25203234
47	0xbe14fcab	-0.1454951
48	0x3d00dfc3	0.031463396
49	0xbe7e83b8	-0.24854934
50	0xbe30bbc1	-0.17259122
51	0x3e820f85	0.25402465
52	0xbcb56aa7	-0.022145582
53	0xbe476b64	-0.1947456
54	0xbd3115fd	-0.04323386
55	0xbcf7ef01	-0.030265333
56	0xbc9a0a9a	-0.018803883
57	0xbe977952	-0.29584748
58	0xbebc9988	-0.36835885
59	0x3d802ebc	0.06258914
60	0xbdbe5f8e	-0.09295569
61	0x3e4ef412	0.20210293
62	0xbe023554	-0.12715656
63	0xbd243a61	-0.040094737
64	0xbe40cd1f	-0.18828247
65	0xbd742fd4	-0.059615925
66	0xbd481cbd	-0.048855532
67	0xbe62e359	-0.22157039
68	0xbf073ebf	-0.5283012
69	0x3cfeff36	0.031127553
70	0x3e3c846a	0.18409887
71	0xbe6f0989	-0.23343481
72	0x3e8edc80	0.27902603
73	0x3d9ccd76	0.07656376
74	0xbe838f07	-0.2569506
75	0x3e0ed98f	0.1395018
76	0xbec4dad8	-0.38448215
77	0xbd8d91df	-0.06912588
78	0x3d7f3415	0.06230553
79	0x3dff4295	0.124638714
80	0x3dedc345	0.1160951
81	0xbfb15ba1	-1.3856088
82	0x3c0d36be	0.008619009
83	0x3da4a16d	0.08038602
84	0x3edff527	0.43741724
85	0xbef10e81	-0.47081378
86	0x3d8d2232	0.06891288
87	0xbea52dc9	-0.32261494
88	0xbc83ee76	-0.016104918
89	0xbee55154	-0.4478861
90	0xbe30360e	-0.1720812
91	0x3dd66d86	0.10470109
92	0x3d677c1b	0.05651484
93	0x3cca9425	0.024728844
94	0x3dd906e4	0.105970174
95	0x3d9e56c6	0.077313945
96	0xbf4f2032	-0.809085
97	0x3c903115	0.01760153
98	0xbeec804f	-0.46191642
99	0xbd93b126	-0.07211523
100	0xbd65eece	-0.056135945
101	0xbcd9d54e	-0.02659097
102	0xbd9e94c8	-0.077432215
103	0x3df68095	0.12036244
104	0x3da3560c	0.079753965
105	0xbf002fe5	-0.5007308
106	0xbe903abc	-0.2816981
107	0x3d0ab7af	0.03386658
108	0x3cae374f	0.021266608
109	0xbe3eb3c1	-0.18623258
110	0x3e1d54ba	0.15364352
111	0x3d854cc1	0.0650878
112	0x3e3c84f3	0.18410091
113	0xbdecce97	-0.115628414
114	0x3e20b80e	0.15695211
115	0xbd43f594	-0.047841623
116	0xbd8174ca	-0.06321104
117	0x3c4fe858	0.012689672
118	0xbe6b2e89	-0.2296697
119	0xbe6268d8	-0.22110307
120	0xbde061d4	-0.10956159
121	0x3d8ceafa	0.06880756
122	0x3e8ba90e	0.27277416
123	0x3e1e6fec	0.15472382
124	0x3dce1e46	0.10064368
125	0xbfa79443	-1.3092121
126	0x3dbf282a	0.093338326
127	0xbe4b90b2	-0.19879416
128	0xbebecdc9	-0.37266377
129	0xbeef0072	-0.46680027
130	0x3e223dbd	0.15843864
131	0x3dec0e81	0.11526204
132	0xbe587dca	-0.21141735
133	0x3db32114	0.087465435
134	0x3e574628	0.21022856
135	0xbd967666	-0.073468015
136	0xbf1cb95a	-0.61220324
137	0xbd23b983	-0.03997184
138	0xbc92c881	-0.017917873
139	0xbe56cfb8	-0.20977676
140	0x3e9acdc0	0.302351
141	0xbeb2ac29	-0.34896973
142	0x3e3ae776	0.18252358
143	0xbbae5a01	-0.005320788
144	0xbea266be	-0.3171901
145	0xbe4a1d48	-0.19737732
146	0x3d440ba2	0.047862656
147	0xbdf6bfdb	-0.12048312
148	0xbe6db353	-0.23212938
149	0xbe948fff	-0.2901611
150	0x3d2e263f	0.042516943
151	0xbe1fef9e	-0.1561875
152	0xbccdfb62	-0.025144283
153	0x3d3a7e57	0.045530643
154	0xbf0c9b6f	-0.5492467
155	0x3d9f0e0d	0.07766352
156	0x3e7ac594	0.24489433
157	0xbeab0bdb	-0.33407483
158	0x3e0e1104	0.13873678
159	0xbe775a63	-0.24155574
160	0xbd8382aa	-0.064214066
161	0xbe520c08	-0.20512402
162	0x3df2aa70	0.118489146
163	0xbd530c8b	-0.051525634
164	0x3e44b906	0.19211206
165	0x3e6954d7	0.2278627
166	0xbe3cf242	-0.18451789
167	0xbd82ce40	-0.06386995
168	0x3e2092f8	0.15681064
169	0xbd9e27c8	-0.077224314
170	0x3e2d09af	0.16898225
171	0x3d945cb0	0.07244241
172	0x3e913c3d	0.2836627
173	0xbe3695d2	-0.1783059
174	0x3c16a028	0.009193458
175	0xbdf8ef2e	-0.12154995
176	0x3e7e654c	0.24843329
177	0xbe9f8864	-0.31158745
178	0xbe90e3fc	-0.28298938
179	0xbdf0488c	-0.11732587
180	0xbe95d168	-0.29261327
181	0xbe8326f0	-0.25615644
182	0x3eb03e55	0.34422556
183	0x3e4f30c9	0.20233454
184	0x3d31cb26	0.043406628
185	0xbf16961c	-0.588228
186	0xbcc26995	-0.023731986
187	0x3e0e2606	0.13881692
188	0xbe58022f	-0.21094583
189	0xbe729d45	-0.23692806
190	0x3dd26b1d	0.102743365
191	0x3e12a31a	0.14320031
192	0x3e27e7f3	0.16397075
193	0x3e4b4b9a	0.19853058
194	0xbead0517	-0.33792946
195	0x3e440ba0	0.1914506
196	0xbe972897	-0.29523155
197	0xbe3b24f0	-0.1827581
198	0x3e5b1e36	0.21398243
199	0x3da92e2d	0.082607605
200	0xbda0fb42	-0.078604236
201	0xbd749f52	-0.059722252
202	0xbe633c0d	-0.22190876
203	0xbeae84dc	-0.3408574
204	0xbdf85dbb	-0.12127253
205	0xbcc9a708	-0.02461578
206	0x3e222da8	0.15837729
207	0x3e828a27	0.25496027
208	0xbe515cc1	-0.20445539
209	0xbf0625bd	-0.52401334
210	0x3e97807f	0.29590222
211	0xbe9901b3	-0.2988411
212	0xbed63bad	-0.41842404
213	0xbe17e467	-0.14833222
214	0x3e3a9da5	0.18224199
215	0xbe4d127a	-0.2002658
216	0xbe9cf197	-0.30653068
217	0x3def789a	0.11692925
218	0xbeb87e41	-0.36033824
219	0xbe591072	-0.2119768
220	0x3d81c5ed	0.063365795
221	0x3e292010	0.16516137
222	0xbe09de64	-0.13463742
223	0x3ca5226a	0.020158011
224	0xbd98cf69	-0.07461435
225	0xbe75fc59	-0.24022044
226	0x3e4b10ac	0.19830579
227	0xbe32054b	-0.17384832
228	0x3e3a158e	0.18172285
229	0x3ddc7a3a	0.107655
230	0xbe80d925	-0.25165668
231	0x3e76ea85	0.241129
232	0x3e92bc1f	0.2865915
233	0xbe487048	-0.19574082
234	0xbe30544d	-0.17219658
235	0xbe806263	-0.25075063
236	0xbe366232	-0.17810896
237	0xbec222c8	-0.3791716
238	0xbe1e3ebe	-0.15453622
239	0xbe34ae89	-0.17644705
240	0xbdfcf528	-0.12351447
241	0x3e76ce82	0.24102214
242	0x3dd0bd4b	0.10192355
243	0xbe45871f	-0.19289826
244	0xbe18bf78	-0.1491679
245	0xbeb106f3	-0.34575614
246	0xbe85f98f	-0.2616696
247	0xbe08d1c0	-0.13361263
248	0xbe9ae225	-0.3025066
249	0x3c71ab87	0.014750368
250	0xbea4e2b3	-0.32204208
251	0x3e5ba1f4	0.21448499
252	0x3f02cc3e	0.510929
253	0x3cb568fe	0.02214479
254	0x3dede589	0.11616046
255	0x3e63e23e	0.22254273

shared.0.bias f4 [256]
0	0xbd02422d	-0.03180139
1	0xbe3c66dc	-0.18398613
2	0x3c2783bf	0.010224282
3	0xbe846f7a	-0.258663
4	0x3e053d1a	0.1301159
5	0x3d1f2c48	0.03886059
6	0xbdab7ece	-0.083737954
7	0xbcf53bd1	-0.02993575
8	0xbd6e3c8a	-0.058163203
9	0x3e337ea9	0.17528786
10	0x3e427ebc	0.18993658
11	0x3e6abc7a	0.2292346
12	0xbe1c2a6f	-0.15250562
13	0x3d6c59b8	0.05770275
14	0x3df86ca1	0.12130094
15	0x3d2242d5	0.039614517
16	0xbddecd51	-0.10879005
17	0x3d79ec1b	0.061016183
18	0x3d2403b6	0.0400426
19	0x3d9c690b	0.07637223
20	0x3e3f4b54	0.18681079
21	0xbe7ccd23	-0.24687628
22	0xbdad4e0b	-0.08462151
23	0x3e90598b	0.28193316
24	0xbe4cfb79	-0.20017804
25	0x3d1c8be4	0.038219348
26	0xbd4ab154	-0.04948552
27	0xbe0d4476	-0.13795647
28	0x3dcc59e9	0.099780865
29	0xbe57034c	-0.20997351
30	0xbe74f93a	-0.23923197
31	0x3e9e49eb	0.3091577
32	0x3d1746a1	0.03693259
33	0xbd1478b3	-0.03624792
34	0x3e1c8f0b	0.15288942
35	0xbe2475e0	-0.1606059
36	0x3d05d505	0.032673854
37	0xbe1aaf27	-0.15105878
38	0xbcfa5b9b	-0.030561259
39	0x3e9c99b4	0.30586016
40	0xbd7a93c7	-0.061176088
41	0x3e80d50e	0.25162548
42	0xbe95ce29	-0.2925885
43	0xbce6f8fc	-0.028194897
44	0x3e9affdc	0.3027333
45	0xbe1c5d76	-0.15270028
46	0xbced787b	-0.028988114
47	0x3e6261fb	0.22107689
48	0xbe29273f	-0.16518877
49	0xbe8a5d7c	-0.27024448
50	0x3da6c776	0.08143513
51	0xbdf84ea8	-0.121243775
52	0xbe6df61b	-0.23238413
53	0x3df41264	0.1191757
54	0xbdf57795	-0.11985699
55	0x3e0fd476	0.14045891
56	0x3e8b7bda	0.2724293
57	0x3e040efb	0.1289634
58	0x3e0722d4	0.1319688
59	0xbdf31ba4	-0.118705064
60	0x3da5e53b	0.08100363
61	0x3e508e74	0.20366842
62	0x3e8254ca	0.25455314
63	0x3e2be3d6	0.16786131
64	0x3e8b7119	0.27234724
65	0xbe3ffbde	-0.18748423
66	0x3e88dd0a	0.2673114
67	0xbea31386	-0.31850833
68	0xbe596b2f	-0.21232294
69	0xbe03fcb7	-0.12889372
70	0x3d8ff391	0.070288785
71	0x3e9bf167	0.30457613
72	0xbe853c3a	-0.26022512
73	0x3d770b15	0.060313303
74	0x3e81bad4	0.2533785
75	0xbdbc589d	-0.09196589
76	0xbcda4d05	-0.026648054
77	0x3d93cb45	0.07216505
78	0xbde6929c	-0.11258432
79	0x3e15f374	0.14643651
80	0xbdb849cd	-0.089984514
81	0x3e3b3d37	0.1828507
82	0xbe8dc0ec	-0.2768625
83	0x3e81a49d	0.25320902
84	0x3d0ecdea	0.034864344
85	0xbe874585	-0.26420227
86	0xbdecc3a6	-0.115607545
87	0xbe436b09	-0.190838
88	0xbd1f7dbc	-0.03893827
89	0x3e071cef	0.13194631
90	0xbe734545	-0.23756893
91	0xbded3f80	-0.11584377
92	0x3e51bf65	0.20483167
93	0x3e0479ba	0.1293706
94	0xbe8d8fc5	-0.2764875
95	0x3db3a0e8	0.08770925
96	0xbe7d6cfd	-0.24748607
97	0xbcf68348	-0.030091897
98	0xbd251b2b	-0.040309113
99	0xbe94da6b	-0.2907289
100	0xbdcd81e9	-0.10034544
101	0xbe5b174a	-0.21395603
102	0x3da69a3b	0.08134886
103	0x3d82095f	0.06349444
104	0x3e23cae4	0.15995365
105	0x3e206a95	0.15665658
106	0xbd89c351	-0.06726707
107	0x3da019e3	0.078174375
108	0xbc030025	-0.00799564
109	0xbe8a90aa	-0.27063495
110	0xbe3e65c2	-0.18593505
111	0x3e204b26	0.15653667
112	0xbe91499e	-0.28376478
113	0xbe918169	-0.28419045
114	0xbd460335	-0.048342902
115	0x3e30886d	0.17239542
116	0xbd9eca36	-0.077534124
117	0x3d6bbb57	0.057551708
118	0xbdba41d3	-0.09094586
119	0x3e8370f6	0.2567212
120	0x3e8c3211	0.27381948
121	0xbe1aaaa4	-0.15104157
122	0x3d2bbce5	0.04192819
123	0x3c7f1991	0.01557006
124	0xbe5d993f	-0.2164049
125	0x3c90d4e0	0.017679632
126	0xbd8cc967	-0.06874352
127	0x3e44e622	0.19228414
128	0x3da95d62	0.082697645
129	0x3d603dc3	0.0547464
130	0xbda434b1	-0.080178626
131	0xbe8f3239	-0.27968004
132	0x3e13eafd	0.1444511
133	0x3dd7c4ef	0.10535609
134	0x3dde85b8	0.108653486
135	0x3de4a50a	0.11164291
136	0x3e6e436d	0.23267908
137	0xbb42b27a	-0.002970843
138	0x3e2dda3e	0.16977784
139	0x3cdf02b3	0.027222967
140	0x3e0f56bb	0.13997929
141	0x3e6de027	0.23230039
142	0xbdda9c6e	-0.10674368
143	0xbe383720	-0.17989779
144	0x3e84e15b	0.25953183
145	0x3e44e565	0.19228132
146	0xbe7f3a23	-0.24924521
147	0x3e1ff44e	0.15620539
148	0xbccbe65d	-0.02489012
149	0xbe7152c5	-0.2356673
150	0xbe8042c0	-0.25050926
151	0xbe34a9c5	-0.17642887
152	0xbe0b60dc	-0.13611168
153	0xbd4551aa	-0.048173584
154	0xbe81af45	-0.25329033
155	0x3e3acd89	0.18242468
156	0x3e437cbe	0.19090554
157	0xbd66b105	-0.056321163
158	0x3dc69315	0.096960224
159	0x3e8488a5	0.25885502
160	0xbd1cb554	-0.038258865
161	0xbe5e7f5e	-0.21728274
162	0x3d989ac8	0.07451397
163	0x3e72c716	0.23708758
164	0x3c60e4b4	0.013726402
165	0xbe17338d	-0.14765759
166	0xbdd01813	-0.10160842
167	0x3defa385	0.11701111
168	0x3d0a4272	0.033754773
169	0x3cb1b223	0.021691388
170	0x3e29f946	0.16598997
171	0x3e927f89	0.28612927
172	0x3cd57ab6	0.02605949
173	0x3e66023e	0.22461793
174	0x3c4ac834	0.012376834
175	0xbe0dd910	-0.13852334
176	0xbcfd6637	-0.030932529
177	0xbc500335	-0.012696077
178	0x3cfc8ca8	0.030828789
179	0x3dd228dc	0.102616996
180	0xbd7cd5eb	-0.061727446
181	0x3e376977	0.17911325
182	0x3dd0925a	0.10184164
183	0xbdd58173	-0.10425081
184	0x3e7e33a0	0.24824381
185	0xbeac586a	-0.33661205
186	0x3dfda763	0.12385442
187	0xbd58ce76	-0.05293127
188	0xbe10c0ba	-0.1413602
189	0x3e8df624	0.27726853
190	0x3e0fe044	0.14050394
191	0x3dacea7d	0.084431626
192	0x3c322bee	0.0108747315
193	0xbd25eee4	-0.040511027
194	0xbd8efb12	-0.069814816
195	0xbe20b32d	-0.1569335
196	0x3c6a449f	0.014298587
197	0x3d905faf	0.070495
198	0xbd939f08	-0.07208067
199	0xbdc2d1e7	-0.09512692
200	0x3dca0d5a	0.09865828
201	0xbd827b5d	-0.06371186
202	0x3e91e9dd	0.28498736
203	0x3e7d7293	0.24750738
204	0xbde8daa3	-0.11369827
205	0xbaf164d8	-0.0018416895
206	0xbe057655	-0.13033421
207	0xbe6d2c8e	-0.23161528
208	0x3dd37b01	0.103261955
209	0xbe6ae0cf	-0.2293732
210	0xbd53b343	-0.05168463
211	0x3e387237	0.1801232
212	0xbe42f374	-0.19038182
213	0xbcd7ad63	-0.026327794
214	0xbcfd27ae	-0.03090271
215	0xbc5f40cf	-0.013626291
216	0x3dd2f516	0.10300653
217	0xbd240352	-0.04004223
218	0x3dbee47d	0.093209244
219	0x3e3351e5	0.17511709
220	0x3d6d5ee2	0.057951815
221	0x3e1eea97	0.15519176
222	0xbe0a5f53	-0.13512926
223	0x3c390b6b	0.011294226
224	0x3e122e23	0.14275412
225	0x3e88263c	0.2659167
226	0xbd363ffd	-0.044494618
227	0xbd98e7c3	-0.0746608
228	0x3d5177e6	0.051139735
229	0x3e41196f	0.18857358
230	0x3e0b8021	0.13623096
231	0x3d8840ae	0.06652962
232	0x3e98a588	0.2981379
233	0xbdbf1571	-0.093302615
234	0x3e7a5667	0.24447022
235	0xbeba2afa	-0.36360914
236	0x3e3a2b03	0.1818047
237	0xbe337b01	-0.17527391
238	0xbdbd830d	-0.092535116
239	0xbce27652	-0.02764431
240	0xbe58a4cd	-0.21156617
241	0x3e52200b	0.20520036
242	0xbdf1ddcc	-0.118098825
243	0x3d96ab06	0.07356839
244	0xbd64e09d	-0.05587827
245	0xbe1f8cea	-0.15581098
246	0x3db0d35f	0.08634066
247	0x3e016c98	0.12639081
248	0x3db3a1fd	0.08771131
249	0xbe32ea09	-0.1747209
250	0xbe0703ad	-0.13184996
251	0xbe1991c3	-0.1499701
252	0xbe3e5e92	-0.18590763
253	0x3deca1a4	0.11554268
254	0xbce214d5	-0.027597824
255	0x3eb707cd	0.3574814

shared.2.weight f4 [256, 256]
0	0xbb5646d4	-0.0032696025
1	0xbd4e6dc7	-0.05039766
2	0x3a1ef629	0.00060639024
3	0xbc03b4c0	-0.0080387
4	0xbc248f78	-0.010043971
5	0xbd7f517a	-0.06233356
6	0xbc913577	-0.01772569
7	0x3d324d56	0.043530785
8	0x3cab0a6c	0.020878993
9	0x3d56853e	0.052373163
10	0xbd77f071	-0.060532037
11	0xbced4dcd	-0.028967762
12	0x3c1040cd	0.008804512
13	0x3bae3fc0	0.005317658
14	0x3d0caf38	0.03434679
15	0x3d668ed3	0.05628855
16	0xbd145d9a	-0.036222078
17	0x3d21b2e4	0.039477244
18	0x3c51ff84	0.012817267
19	0x3cb2bf8a	0.021819849
20	0xbd6d8502	-0.057988174
21	0xbd4d56bd	-0.05013155
22	0xbd3b2f89	-0.04569963
23	0x3d3cd0ce	0.04609757
24	0x3d73c349	0.05951241
25	0x3b848a9f	0.0040448452
26	0xbca9b7a3	-0.020717448
27	0x3d127434	0.03575535
28	0x3d083998	0.03325805
29	0x3cca32a7	0.024682356
30	0x3d738f44	0.0594628
31	0xbd84adcc	-0.064784616
32	0xbcf1878e	-0.029483583
33	0x3c31d108	0.01085306
34	0xbd006645	-0.03134753
35	0xbd94384d	-0.07237301
36	0x3d055804	0.03255464
37	0xbd241216	-0.04005631
38	0xbd2a63ae	-0.04159897
39	0x3d20d394	0.039264277
40	0xbcb127f5	-0.021625498
41	0x3d294a00	0.041330338
42	0xbd56d572	-0.05244965
43	0x3b882f80	0.004156053
44	0xbd53111c	-0.05152999
45	0x3d1b41ea	0.037904657
46	0x3cc38868	0.023868755
47	0xbd8e5641	-0.069500454
48	0xbce4e838	-0.027942762
49	0x3d3d31ae	0.046189956
50	0x3c089695	0.008336683
51	0xbd4a17f4	-0.04933925
52	0xbd49b119	-0.04924116
53	0xbd820d68	-0.06350213
54	0x3d2a400c	0.041564986
55	0xbd7b37cf	-0.06133252
56	0xbd52c562	-0.05145777
57	0xbd65c721	-0.056098107
58	0xbcc91c6b	-0.024549684
59	0x3d3bf736	0.045890056
60	0xbc3f3b30	-0.011671826
61	0x3c865174	0.016396262
62	0xbc365940	-0.011129677
63	0xbc10b8ac	-0.008833092
64	0xbd030ae6	-0.031992815
65	0xbcddb420	-0.02706343
66	0x3ca61010	0.020271331
67	0x3c7bd591	0.015370742
68	0xbd42e952	-0.047585793
69	0xbc22b6ab	-0.009931247
70	0x3d281550	0.04103595
71	0xbcb617d9	-0.022228168
72	0x3d3067ae	0.043067627
73	0xbd18be7d	-0.03729104
74	0x3d1232cc	0.035692975
75	0x3c69e5e7	0.014276004
76	0xbd045ea8	-0.032316834
77	0x3d596000	0.05307007
78	0xbd9f1a5b	-0.07768699
79	0x3d87766c	0.06614384
80	0x3d12c6d8	0.035834163
81	0xbd0dfeec	-0.03466694
82	0xbd360472	-0.044437833
83	0xbcfd282a	-0.03090294
84	0x3c8b0979	0.01697229
85	0xbc3dc590	-0.011582747
86	0xbd253c63	-0.040340792
87	0x3c621b46	0.013800448
88	0x3cc42e22	0.02394778
89	0xbbcc0389	-0.0062260074
90	0x3cc72ba1	0.024312796
91	0xbb1c962f	-0.0023893227
92	0x3cb9af32	0.022666547
93	0xbd0dce62	-0.03462065
94	0xbd6aae64	-0.057295218
95	0xbd9c3781	-0.07627774
96	0x3d0937df	0.03350055
97	0xba006f15	-0.0004899365
98	0xbd53ec50	-0.051739037
99	0xbd4335f0	-0.04765886
100	0x3c7b9b85	0.015356903
101	0x3d4504aa	0.04810015
102	0x3d2f8d19	0.04285917
103	0x3d4d8d44	0.05018355
104	0xbd4e8e9f	-0.050428983
105	0x3cea4fb4	0.028602459
106	0x3d34c9db	0.044137817
107	0xbc308fd3	-0.010776478
108	0xbc154c91	-0.009112493
109	0xbc00f30b	-0.007870446
110	0xbd236581	-0.039891724
111	0xbcffd654	-0.03123013
112	0xbd0567c6	-0.03256967
113	0xbd4446f6	-0.047919236
114	0xbd367c17	-0.044551935
115	0xbd82490f	-0.06361591
116	0xbc7d2cf8	-0.015452616
117	0xbb7a11e0	-0.0038157627
118	0xbd370a64	-0.044687644
119	0xbd835d1e	-0.06414245
120	0x3c8df0aa	0.017326672
121	0x3cc6dff7	0.024276717
122	0x3c2c8de0	0.0105318725
123	0xba347600	-0.00068840384
124	0xbcd47713	-0.025935685
125	0xbd494afa	-0.04914377
126	0x3c475cd3	0.012168127
127	0xbcd3143c	-0.025766484
128	0xbd8d1a03	-0.06889727
129	0xbabd8881	-0.0014460237
130	0x3b928bb9	0.0044722226
131	0xbc6a8088	-0.014312871
132	0xbd947d21	-0.07250429
133	0x3d3c534e	0.045977883
134	0xbcb07164	-0.021538444
135	0xbbe52804	-0.0069932956
136	0xbd60f985	-0.05492546
137	0xbc192300	-0.009346724
138	0xbc6f8090	-0.014618054
139	0x3c0f6f40	0.008754551
140	0xbd7c9e98	-0.061674684
141	0xbcca2a24	-0.024678297
142	0xbd45ecca	-0.048321523
143	0x3d1714bb	0.036885004
144	0x3d427e17	0.04748353
145	0xbb75cac5	-0.0037504893
146	0xbc8d95d6	-0.017283361
147	0xbd59ce0f	-0.05317503
148	0xbc265857	-0.010152898
149	0x3d7079be	0.058709852
150	0xbca4ec38	-0.02013217
151	0x3c585bf8	0.013205521
152	0x3d2c117e	0.04200887
153	0xbc8a3fcc	-0.016876124
154	0x3c5c688c	0.01345266
155	0xbd00b5bd	-0.03142332
156	0x3cd98f01	0.026557447
157	0x3c37a9a7	0.011209882
158	0xbc89daf4	-0.016828038
159	0xbd2517dd	-0.04030596
160	0x3b57ac67	0.0032909156
161	0xbc9f57b0	-0.019450992
162	0x3d075f20	0.033049703
163	0xbd584a78	-0.052805394
164	0xbca01a62	-0.01954383
165	0xbcd6ed44	-0.026236184
166	0xbb9d6540	-0.0048033297
167	0xbc350cad	-0.011050385
168	0x3cdc4530	0.02688846
169	0xbd511aab	-0.051050823
170	0xbd0a1c24	-0.033718243
171	0x3d02203a	0.031769015
172	0xbd734273	-0.059389543
173	0xbd26e2f9	-0.0407438
174	0x3c921b53	0.017835295
175	0xbd6b541e	-0.057453267
176	0x3d7885d2	0.060674496
177	0xbd9e7082	-0.07736303
178	0xbcefca4e	-0.029271271
179	0xbd2338c3	-0.039849054
180	0xbc578ed7	-0.013156614
181	0xbcee1ba8	-0.029065922
182	0x3cc4eba4	0.024038143
183	0xbd71ca19	-0.059030626
184	0x3cf8b166	0.030358028
185	0xbd7e8a5d	-0.062143672
186	0xbb916bbe	-0.0044378927
187	0xbd3b9baa	-0.04580275
188	0xbd315e11	-0.0433026
189	0x3d388098	0.04504451
190	0xbbe37435	-0.006941343
191	0xbcb6af44	-0.02230037
192	0x3cf281fc	0.029602997
193	0xbd2f184c	-0.04274778
194	0xbba8f0ba	-0.00515565
195	0x3b66d354	0.0035221176
196	0x3c9af3b4	0.018915035
197	0x3d455149	0.048173223
198	0xbbac17e6	-0.0052518724
199	0xbd7f6ee8	-0.062361628
200	0x3d30e245	0.043184537
201	0xbd1b0894	-0.037849978
202	0xbc7f6598	-0.015588187
203	0x3bf7af27	0.0075587216
204	0x3c4abdcd	0.012374354
205	0xb7efc546	-2.8582883e-05
206	0x3ca3d589	0.019999282
207	0x3d5ddb28	0.05416408
208	0x3d114e31	0.03547496
209	0xbd5a8047	-0.05334499
210	0x3bb4bb30	0.0055154786
211	0xbd003fba	-0.031310774
212	0x3d1b0677	0.037847962
213	0x3c18fe9c	0.009338047
214	0x3bd36cb0	0.0064521655
215	0x3d0af2e7	0.033923056
216	0x3d38b0db	0.045090538
217	0x3d2e475e	0.04254853
218	0x3ca2db2c	0.0198799
219	0xbcae7149	-0.021294253
220	0xbd0631da	-0.032762386
221	0xbce3eb9e	-0.027822312
222	0xbd398668	-0.045294195
223	0x3ca328ec	0.019916974
224	0xbd187890	-0.037224352
225	0xbd59bf40	-0.053160906
226	0xbc8e5a44	-0.017377026
227	0x3cbba85c	0.022907428
228	0xbd7ea602	-0.062170036
229	0xbd58736e	-0.052844457
230	0xbce99d96	-0.028517526
231	0xbd116696	-0.035498224
232	0xbbf69b70	-0.007525854
233	0x3d67ea20	0.056619763
234	0xbcd5de84	-0.02610708
235	0xbcba553e	-0.022745725
236	0xbce5d7bc	-0.028056972
237	0x3cd11854	0.025524296
238	0xbd2949b0	-0.04133004
239	0xbc991b74	-0.018689848
240	0xbd89b8ab	-0.06724676
241	0xbc83c3fa	-0.01608466
242	0xbcb1b768	-0.0216939
243	0x3cbcdef4	0.023055531
244	0x3d4b330a	0.04960922
245	0xbd7e62f2	-0.06210608
246	0xbd077577	-0.033071008
247	0xbd215c73	-0.039394807
248	0xbd3296e3	-0.043600928
249	0xbc87dec7	-0.01658572
250	0xbc776e5f	-0.015101998
251	0xbbbe4020	-0.005805984
252	0xbd4cec8c	-0.050030276
253	0x3cf9c56b	0.030489644
254	0x3bd8053b	0.0065924204
255	0x3d0d9b43	0.034571897

shared.2.bias f4 [256]
0	0xbc9d31d0	-0.019188792
1	0xbdc4f507	-0.09617048
2	0xbbd2a73b	-0.006428627
3	0x3ddfe1d1	0.10931743
4	0xbd0a6471	-0.033787195
5	0xbc1634b5	-0.00916784
6	0x3dabe17c	0.08392617
7	0x3d101cac	0.035183594
8	0xbb7e94f3	-0.0038846105
9	0x3b95f856	0.004576723
10	0x3d8e296a	0.06941493
11	0xbd118074	-0.035522893
12	0x3d298f33	0.04139633
13	0x3b93d347	0.00451127
14	0xbd97b123	-0.07406833
15	0xbdc4b355	-0.09604517
16	0x3df5d6b0	0.12003839
17	0x3d00e592	0.031468935
18	0xbd1a23ab	-0.037631672
19	0xbd834413	-0.064094685
20	0xbbea4095	-0.007148812
21	0x3d1db685	0.038504142
22	0xbd744443	-0.059635412
23	0x3df8d9be	0.12150906
24	0xbd179e67	-0.0370163
25	0x3d83e08c	0.06439313
26	0x3d8b2ef0	0.06796062
27	0x3c4c814c	0.012481999
28	0xbc86af17	-0.016440911
29	0x3d3d47a5	0.046210904
30	0xbcb8c4f8	-0.02255486
31	0xbd1ac1d4	-0.037782505
32	0x3c8d412a	0.017242987
33	0x393576c2	0.00017305746
34	0xbc0b7cca	-0.008513639
35	0x3db724a9	0.08942539
36	0xbc246fe9	-0.010036447
37	0xbc901556	-0.017588299
38	0xbd8747ff	-0.06605529
39	0xbd5fdf4a	-0.054656304
40	0x3cbe0186	0.023194086
41	0xbd8efc4d	-0.06981716
42	0x3a808ee1	0.0009808206
43	0x3daa9018	0.08328265
44	0x3ce16a64	0.027516551
45	0xbd700217	-0.058595743
46	0x3cc42a65	0.023945997
47	0x3ca58c94	0.020208634
48	0x3dc4d75a	0.096113876
49	0x3c8a13e7	0.016855193
50	0x3da73cdb	0.08165904
51	0x3d106494	0.03525217
52	0xbc0961a3	-0.008385095
53	0x3d27971f	0.040915605
54	0x3d2c63f9	0.04208753
55	0x3c061b9a	0.008185292
56	0x3cd1be3b	0.025603404
57	0x3ca345ea	0.019930799
58	0xbd0c6f97	-0.034286108
59	0x3a8615bf	0.001022987
60	0xbcf4b5b3	-0.029871797
61	0x3b0b388b	0.002124342
62	0xbda221f1	-0.0791663
63	0x3c897824	0.01678092
64	0xbcca8f1d	-0.024726445
65	0x3ce13e9e	0.027495679
66	0x3caaf69e	0.02086955
67	0x3ae4c5cd	0.0017453969
68	0x3c4cbc08	0.012496002
69	0xbc724125	-0.0147860395
70	0xbc9d0978	-0.019169554
71	0xbda2f14a	-0.079561785
72	0xbd97c073	-0.07409754
73	0x3a700604	0.000915617
74	0x3dc11cac	0.09429297
75	0x3db5344a	0.08847864
76	0x3c99e701	0.018786909
77	0xbb8bfbae	-0.004271946
78	0x3df3b8b5	0.119004644
79	0xbc11147e	-0.008854983
80	0x3db298e4	0.08720568
81	0xbcf87474	-0.030328967
82	0x3bad42c0	0.0052874982
83	0xbd8e611c	-0.06952116
84	0x3d048262	0.032350905
85	0xbccb98d2	-0.024853144
86	0xbc63634b	-0.013878654
87	0x3d070a34	0.032968715
88	0xbd1f4da6	-0.03889241
89	0x3c86cafd	0.016454214
90	0xbcf2a810	-0.029621154
91	0x3e0f44d3	0.13991098
92	0x3d383c7e	0.044979565
93	0x3dcc36dd	0.09971402
94	0xbbf7357d	-0.007544218
95	0xbd04febb	-0.032469492
96	0x3b89b8ec	0.0042029526
97	0xbd1799ff	-0.037012096
98	0x3dbced7a	0.092249826
99	0xbd1d9ec4	-0.03848149
100	0x3e195099	0.14972152
101	0x3d71b5b4	0.059011176
102	0xbd22afdd	-0.039718498
103	0x3c0fa882	0.008768203
104	0x3d6ac3e2	0.057315715
105	0xbcccffcb	-0.025024315
106	0x3d86921b	0.06570836
107	0xbd6d583d	-0.05794548
108	0x3d3b6f7c	0.045760617
109	0x3db0c57f	0.086314194
110	0x3cc6aad1	0.024251373
111	0xbd0b834d	-0.034060765
112	0x3d85a516	0.06525628
113	0x3db1ac54	0.08675447
114	0xbd143f53	-0.036193203
115	0x3d947e72	0.0725068
116	0xbcb03b1e	-0.021512564
117	0xbcf88d81	-0.030340912
118	0xbd252e24	-0.040327206
119	0x3db8bd63	0.09020498
120	0x3d7a3129	0.06108204
121	0xbdb3754a	-0.087626055
122	0xbd179bcc	-0.037013814
123	0xbc370dc0	-0.011172712
124	0x3db7d1ac	0.089755386
125	0x3daac27e	0.08337878
126	0x3d768b4c	0.060191438
127	0xbc1adeaa	-0.009452501
128	0xbd66e5ec	-0.056371614
129	0x3d9fe9db	0.07808276
130	0xbcb59edb	-0.022170475
131	0x3dafdc14	0.085868984
132	0x3d2d389b	0.04229031
133	0xbd946c9a	-0.072472766
134	0x3d37e640	0.044897318
135	0xbd915372	-0.07095994
136	0x3cbaa97e	0.022785898
137	0xbd6a68aa	-0.05722872
138	0x3ba7ecd8	0.0051246695
139	0xbd924309	-0.07141692
140	0xbd8db0ca	-0.069184855
141	0xbcd480ae	-0.025940266
142	0xbcf58ab8	-0.029973373
143	0xbcca29c0	-0.024678111
144	0x3d9bb5a0	0.076030016
145	0x3d396eb7	0.0452716
146	0x3dbb53ef	0.091468684
147	0x3d5fee38	0.054670542
148	0x3dff2673	0.124585055
149	0x3d0a0295	0.03369387
150	0x3c90f37b	0.017694226
151	0xbc9d568c	-0.019206308
152	0x3dcfb856	0.10142581
153	0x3d12239c	0.03567849
154	0xbcef3af9	-0.029202925
155	0xbd74eebd	-0.05979799
156	0x3dfe16a2	0.124066606
157	0xbd5542ba	-0.05206559
158	0xbb1f3a24	-0.002429613
159	0x3e199081	0.1499653
160	0x3c80f98a	0.01574399
161	0x3d311494	0.043232515
162	0x3d42c13b	0.04754756
163	0x3d2e1975	0.042504746
164	0x3c89b865	0.016811559
165	0xbd77a88e	-0.06046348
166	0x3c1539c8	0.009108014
167	0x3cb61ac9	0.022229569
168	0x3dcaa32d	0.098944046
169	0xbd653c80	-0.0559659
170	0xbd16af10	-0.036788046
171	0xbc17366f	-0.009229287
172	0x3cd2c907	0.025730623
173	0x3d78c749	0.060736928
174	0x3aa45af0	0.0012539309
175	0x3ba4db13	0.0050309985
176	0x3c459f66	0.012061929
177	0xbca4f487	-0.020136131
178	0xbd037974	-0.03209825
179	0x3d876aea	0.06612189
180	0x3d056a92	0.032572336
181	0xbd17b53a	-0.037038065
182	0x3ceb4d70	0.028723449
183	0x3d17973a	0.037009455
184	0xbad9f5d0	-0.0016629044
185	0xbc83643d	-0.016039008
186	0x3c1e3583	0.009656313
187	0x3cd61b14	0.026135959
188	0xbd8a1099	-0.06741447
189	0xbd06b078	-0.032883137
190	0x3d6bfb54	0.057612732
191	0xbc8e58fd	-0.017376417
192	0xbd783986	-0.060601734
193	0xbd91fd1d	-0.07128356
194	0x3e182377	0.14857279
195	0xbd80272b	-0.06257471
196	0xbd7ebe8e	-0.062193446
197	0xbc2a99ce	-0.010412646
198	0x3cb7d8af	0.02244219
199	0xbd8b7f5c	-0.06811401
200	0x3de557be	0.11198376
201	0x3c416ec9	0.011806198
202	0x3d0556dd	0.032553542
203	0x3cd0d52a	0.02549227
204	0xbc571c21	-0.013129265
205	0x3d9cb720	0.07652116
206	0x3dbf0973	0.09327974
207	0x3d86bb2d	0.0657867
208	0xbc8c453b	-0.017122855
209	0x3d7908f7	0.060799565
210	0x3d9e32ab	0.07724508
211	0xbcca8890	-0.024723321
212	0x3d15c673	0.03656621
213	0xbd61f470	-0.055164754
214	0x3d81915b	0.063265525
215	0xbcc5981b	-0.024120381
216	0xbcbec373	-0.023286557
217	0x3cad75e1	0.021174373
218	0x3d1749cf	0.036935624
219	0x3de945f6	0.11390297
220	0xbd21a326	-0.03946223
221	0xbd656b03	-0.056010257
222	0xbd4ca398	-0.049960703
223	0x3da5a0fe	0.080873474
224	0x3689e8c4	4.1100157e-06
225	0xbcdb5428	-0.026773527
226	0xbd309dd9	-0.043119285
227	0xbd817c62	-0.06322552
228	0x3dafd484	0.08585456
229	0x3df644e3	0.12024858
230	0xbdc1db66	-0.09465675
231	0xbd8f0ab3	-0.069844626
232	0x3ca7c7ff	0.020481108
233	0x3bb59797	0.0055417526
234	0xbbbc0cf1	-0.0057388474
235	0xbcd7f1af	-0.02636036
236	0xbd184e4d	-0.03718405
237	0xbce6632a	-0.028123457
238	0x3d103c27	0.035213616
239	0xbd87a550	-0.06623328
240	0x3cd0eb76	0.025502902
241	0x3c487902	0.012235882
242	0x3d23cf04	0.039992347
243	0xbd689b2c	-0.05678861
244	0x3d0c08ed	0.0341882
245	0xbbf774e0	-0.0075517744
246	0x3d0529b9	0.032510493
247	0xbd4cbde5	-0.049985785
248	0xbbdc8d8e	-0.006730742
249	0xbad03b7f	-0.0015886872
250	0xbd950c57	-0.07277744
251	0x3d3a3c56	0.045467697
252	0x3cd1d7de	0.025615629
253	0x3d99e5b9	0.07514519
254	0xbba6b8aa	-0.0050879316
255	0x3d1718c6	0.03688886

actor.weight f4 [2, 256]
0	0xbada476c	-0.0016653365
1	0xbcdbc4fb	-0.026827326
2	0xbc8aedb4	-0.016959049
3	0xbc9c042b	-0.019044956
4	0xbdba8bcb	-0.09108695
5	0x3a9c9ac8	0.0011947984
6	0x3b7ad65c	0.003827474
7	0xb9a25d00	-0.00030968338
8	0xbd6b38c3	-0.05742718
9	0x3b6adee8	0.003583843
10	0xba26fc0e	-0.00063699565
11	0xbda329d5	-0.07966963
12	0x3ae38aa6	0.0017360046
13	0x3d2e72a9	0.042589817
14	0xbc518983	-0.012789133
15	0xbe92d961	-0.28681472
16	0x3a03e056	0.0005030682
17	0xbc803c1a	-0.015653659
18	0x3e5ddcec	0.21666306
19	0x39b20d10	0.00033960538
20	0x3dc5e02b	0.09661897
21	0x3d4ef5fa	0.05052755
22	0xbd3e6f5f	-0.04649293
23	0x3b9b2c35	0.0047354945
24	0x3d6ab1cd	0.05729847
25	0x3e9a0f78	0.30089927
26	0x3c0c3bc7	0.008559174
27	0xbd66f980	-0.056390285
28	0x3e72c6d2	0.23708656
29	0xbd2b7501	-0.04185963
30	0x3d35ff55	0.044432957
31	0x3da57e97	0.08080786
32	0x3d58ca22	0.052927144
33	0xbce25379	-0.027627693
34	0x3bbec585	0.005821886
35	0x3b346950	0.0027528591
36	0x3c9517a6	0.018199753
37	0xbc84187b	-0.016124954
38	0x3d62232a	0.055209316
39	0x3baa8cdd	0.0052047805
40	0x3ccb6858	0.024830028
41	0xbd25f2ac	-0.040514633
42	0xbc369fc7	-0.011146492
43	0x3defc0e7	0.11706715
44	0x3aed1703	0.0018088523
45	0x3b1aac84	0.0023601362
46	0x3d922cdd	0.07137463
47	0x3be1942d	0.006884119
48	0xbab46868	-0.0013764026
49	0xbd7f18df	-0.06227958
50	0x3d5bf84f	0.053703602
51	0x3b0f06cc	0.002182412
52	0xbc8d0c02	-0.01721764
53	0x3ad63524	0.0016342741
54	0x3e109f76	0.1412333
55	0xbb835c75	-0.0040088245
56	0xbe0d715e	-0.13812777
57	0x391ecf8b	0.0001514537
58	0xbd190437	-0.037357535
59	0xbd9ab67d	-0.07554338
60	0x3df8170b	0.1211377
61	0x3d1aef45	0.03782584
62	0x3e5b7bb2	0.21433905
63	0xbe00a9b5	-0.12564738
64	0x3e271166	0.1631523
65	0xbc9f89c7	-0.019474877
66	0x3b1fb65d	0.0024370172
67	0x3d85500f	0.065094106
68	0xbe010b0a	-0.12601867
69	0x3b7d7287	0.0038673
70	0xbe332b87	-0.17497073
71	0x3c3a1e8c	0.011359822
72	0xbb180f9c	-0.0023202663
73	0xbc47bc39	-0.012190872
74	0x3b23e43d	0.0025007867
75	0x3b3d9c14	0.002893214
76	0xbbd609ce	-0.0065319305
77	0x3d62fe22	0.05541814
78	0x3c6f7fc4	0.014617864
79	0xbd6a8987	-0.057260063
80	0x3b8bed52	0.004270234
81	0xbcf5cb16	-0.030004065
82	0xbc0a498b	-0.008440386
83	0x3c2a3b78	0.010390155
84	0xbd84bb0b	-0.06480988
85	0x3d8571ec	0.065158695
86	0xbd21e9cb	-0.039529603
87	0xbeab8df2	-0.33506733
88	0xbd2797b1	-0.04091615
89	0xbd2ee6e3	-0.04270066
90	0x3a750528	0.00093467766
91	0x3b540487	0.0032351331
92	0x3c4076bc	0.0117470585
93	0x3bd3dc35	0.0064654597
94	0x3db7bb47	0.08971267
95	0x3d5ec18a	0.054383792
96	0xbd70338c	-0.05864291
97	0x3de5c247	0.11218696
98	0xbcd9fed7	-0.026610775
99	0x3cb7a5c4	0.02241791
100	0x3c958a12	0.018254314
101	0x39dccf55	0.00042116144
102	0xbd8d2415	-0.06891648
103	0x3c1f3b49	0.0097187245
104	0x3dfa30ce	0.1221634
105	0x3b861065	0.00409131
106	0x3b9ac4ed	0.0047231824
107	0xbcc1f587	-0.023676647
108	0x3cc24608	0.023715034
109	0x3e55f372	0.20893648
110	0xbe434117	-0.19067799
111	0xbd098273	-0.03357167
112	0x3c2f9236	0.010716012
113	0x3c6ce2fe	0.014458416
114	0xbc920ed7	-0.017829342
115	0xbda552a4	-0.08072403
116	0x3d3b1c0b	0.04568104
117	0x3e833b7e	0.25631326
118	0xbc09ee07	-0.008418567
119	0x3c6bba6d	0.014387709
120	0x3d31954c	0.04335527
121	0x3e888060	0.26660442
122	0xbdcdbaab	-0.1004537
123	0x3d292d37	0.041302886
124	0xbd19c082	-0.037537105
125	0xbd4b254f	-0.049596127
126	0xbba90749	-0.005158339
127	0xbdcbb796	-0.099471256
128	0xbd1ab7c0	-0.037772894
129	0x3def7206	0.1169167
130	0x3e24603e	0.16052338
131	0xbd341474	-0.043964818
132	0xbeadc4f8	-0.33939338
133	0xbd211d76	-0.039334737
134	0xbd5fae05	-0.054609317
135	0xbdcdd14c	-0.10049686
136	0xbccb9b58	-0.024854347
137	0x3bc5e02e	0.006038687
138	0xbc9cd256	-0.019143265
139	0xbde29543	-0.11063626
140	0x3c5cf308	0.013485678
141	0xbdd964c3	-0.10614922
142	0xbd0385d9	-0.03211007
143	0x3c93dd35	0.018049816
144	0x3c2ab8ab	0.010420005
145	0xbbc73a3a	-0.006079939
146	0xbe37f67c	-0.1796512
147	0xbb8c9ca4	-0.004291134
148	0x3c1c0a95	0.009524007
149	0xbb5409f0	-0.0032354556
150	0x3d266ed4	0.040633038
151	0xbc065b49	-0.008200475
152	0x3ba9e7be	0.0051850965
153	0xb979a71a	-0.0002380874
154	0x3e432bb4	0.1905964
155	0xbde3057d	-0.11085031
156	0x3bae0fdf	0.0053119506
157	0x3c6e4987	0.0145438975
158	0x3dc118d4	0.09428564
159	0x3bc336cc	0.00595746
160	0xbd9adf23	-0.07562091
161	0xbe2d3325	-0.16914041
162	0x3da24457	0.07923191
163	0x3cb44fda	0.022010732
164	0x3af9ef01	0.0019068421
165	0x3de1b1b6	0.11020224
166	0xbcb740b4	-0.02236972
167	0x3ba12197	0.0049173343
168	0xbc51705d	-0.012783137
169	0x3e2662dc	0.1624865
170	0xbc86fcdf	-0.016478
171	0xbd7fa4e2	-0.062413104
172	0xbd0f6ad1	-0.035013977
173	0x3c74b36f	0.014935358
174	0xbc5153d6	-0.012776336
175	0x3d0830a4	0.033249512
176	0x3b05ce41	0.0020417126
177	0xbcba48dc	-0.02273982
178	0xbdb43d20	-0.08800721
179	0xbc4ca47a	-0.012490386
180	0xbd159c3d	-0.036525954
181	0x3c90623c	0.017624967
182	0x3945b3e4	0.00018854399
183	0x3c5aa428	0.013344802
184	0xba36b7a8	-0.0006970116
185	0x3c2d9f9d	0.010597137
186	0xbd1f7d2c	-0.038937733
187	0x3e224c93	0.15849523
188	0xbad65000	-0.0016350746
189	0x3c55a293	0.013039249
190	0x3da204b3	0.079110526
191	0xbcda4d71	-0.026648255
192	0x3c7950a8	0.015216984
193	0x3cb93c33	0.022611713
194	0x3c0bb55c	0.008527126
195	0xbcca0d95	-0.02466468
196	0xbc31935e	-0.010838358
197	0xbc6dc5bc	-0.014512476
198	0xbcdb0bc1	-0.026739003
199	0x3d67d63f	0.056600805
200	0xbc21baeb	-0.009871225
201	0x3d28d80d	0.041221667
202	0x3daad252	0.08340897
203	0x3baa2414	0.005192289
204	0xbc83a90f	-0.016071824
205	0xbe5434f8	-0.20723331
206	0xbd9cb173	-0.07651033
207	0x3c073e64	0.008254621
208	0xbce2f551	-0.027704867
209	0x3e99ebb3	0.30062637
210	0x3db585fe	0.088634476
211	0xbd75ebd4	-0.060039356
212	0xbc0edb1e	-0.008719234
213	0x3c15c438	0.0091410205
214	0x3d0d46f1	0.034491483
215	0x3e37676d	0.17910548
216	0x3da7bfe1	0.08190895
217	0xbcdce63e	-0.026965257
218	0xbb91d565	-0.0044504874
219	0x3b3a14dd	0.0028393783
220	0x3d3614fd	0.04445361
221	0x3c70edc2	0.014705123
222	0x3b837dea	0.004012813
223	0x3c29304a	0.010326454
224	0x3eced935	0.4040009
225	0xbe3c9906	-0.18417749
226	0xbe7f88f8	-0.24954593
227	0x3ce4a66d	0.02791139
228	0x3c0fffa3	0.008788976
229	0x397a3ff0	0.00023865676
230	0x3dd80810	0.10548413
231	0xbd3bfcd6	-0.04589542
232	0x3d124e89	0.03571943
233	0x3c1c7be9	0.009551027
234	0xbc858922	-0.016300742
235	0x3cc253a7	0.02372153
236	0xbd3ae83d	-0.045631636
237	0x3d6988ea	0.057015337
238	0xbc2cef81	-0.010555149
239	0x3c263800	0.010145187
240	0xbbd97da1	-0.0066372906
241	0xbc04f864	-0.008115862
242	0x3ce5306c	0.02797719
243	0xbdc11e36	-0.094295904
244	0x3cee3b9c	0.029081158
245	0xbb78e776	-0.0037979758
246	0x3c750a3f	0.014956056
247	0xbcf01aec	-0.029309712
248	0xbb1c3db9	-0.00238405
249	0x3c6b11f2	0.01434754
250	0x3d45d979	0.0483031
251	0xbdab3a66	-0.08360748
252	0xbd666a85	-0.05625393
253	0x3be8806e	0.007095388
254	0x3bb9cf9c	0.005670501
255	0x3d6c518f	0.057694968

actor.bias f4 [2]
0	0x3c836a3c	0.016041867
1	0xbc9af2d8	-0.018914625

critic.weight f4 [1, 256]
0	0x3cdce221	0.026963295
1	0xbf02eb24	-0.51140046
2	0xbef3130d	-0.47475472
3	0x3e3b1c3a	0.18272486
4	0x3d6b869d	0.057501424
5	0xbcf6e650	-0.030139118
6	0x3e15b750	0.1462071
7	0xbcd160c5	-0.025558839
8	0x3cb637a6	0.022243332
9	0x3e568a39	0.20951165
10	0x3e7ccc99	0.24687423
11	0xbef883eb	-0.48538145
12	0x3e460c5d	0.19340654
13	0x3ca0de70	0.019637316
14	0xbc0db7a2	-0.0086497385
15	0x3e5a889a	0.21341172
16	0x3e3451d0	0.17609334
17	0xbca9ba6c	-0.020718776
18	0x3e24229e	0.1602883
19	0x3deeb15c	0.11654922
20	0xbcd41037	-0.025886638
21	0x3d322ecd	0.043501664
22	0xbc8610b6	-0.01636539
23	0x3e68240d	0.22670002
24	0x3e340138	0.1757859
25	0xbe3641c9	-0.17798533
26	0x3e48a14d	0.19592781
27	0xbd032205	-0.032014865
28	0xbeb3a364	-0.35085595
29	0x3d6b0823	0.057380807
30	0xbd34786b	-0.044060152
31	0x3d3993dc	0.045307025
32	0xbdb5a8a2	-0.08870055
33	0x3d70edad	0.058820415
34	0xbd2aadff	-0.04166984
35	0x3e310392	0.17286518
36	0x3e45d080	0.19317818
37	0x3d8e0b11	0.069357045
38	0xbd1ad4f3	-0.03780074
39	0xbd0ad0be	-0.03389048
40	0xbeff74a7	-0.49893686
41	0x3ae1fb2b	0.0017240992
42	0xbe3a0bea	-0.18168607
43	0xbf0b3a35	-0.5438569
44	0x3e388280	0.18018532
45	0x3b4c12ab	0.0031139057
46	0xbebd76fd	-0.37004843
47	0x3e366bcc	0.17814559
48	0x3e38a0e3	0.18030123
49	0xbe954925	-0.29157367
50	0xbe94e324	-0.29079545
51	0xbdaa0a65	-0.08302764
52	0xbdab7685	-0.08372215
53	0x3e260717	0.16213642
54	0x3e2a0d12	0.16606548
55	0xbd191c15	-0.037380297
56	0xbe528282	-0.20557597
57	0x3c822979	0.015888916
58	0xbdab1fe4	-0.08355692
59	0x3e36e263	0.17859797
60	0xbd159457	-0.03651842
61	0x3ce0a5bb	0.027422776
62	0xbd088f41	-0.033339743
63	0xbe8f6b95	-0.28011766
64	0xbe9a6cf7	-0.3016126
65	0x3e0942df	0.13404416
66	0x3e52f56c	0.20601434
67	0xbd092fbb	-0.033492785
68	0x3e5c3d47	0.2150775
69	0xbdc4e499	-0.09613914
70	0x3dfa528f	0.12222778
71	0xbd904714	-0.07044807
72	0xbcf3ad11	-0.02974561
73	0xbdc0fa7b	-0.09422775
74	0x3e736dcf	0.23772357
75	0x3e52a57e	0.20570943
76	0xbdf124c9	-0.11774594
77	0xbc9856ce	-0.01859608
78	0x3e7413bb	0.23835652
79	0xbf3cef0c	-0.73802257
80	0x3e34c65c	0.17653793
81	0xbd0c9b9e	-0.034328096
82	0xbd4eeecc	-0.050520703
83	0x3d7f8010	0.06237799
84	0x3d97eece	0.07418595
85	0xba24e97b	-0.0006290895
86	0x3c831a02	0.016003612
87	0x3b8c2cd1	0.0042778035
88	0xbd385656	-0.04500421
89	0x3d7c3c54	0.06158097
90	0xbba787e4	-0.005112635
91	0x3e5685f1	0.20949532
92	0x3e35a986	0.1774045
93	0x3e22c210	0.15894341
94	0xbe3cd3f4	-0.18440229
95	0xbec8a2d9	-0.39186743
96	0xbca95aaf	-0.020673124
97	0xbebf798d	-0.37397423
98	0x3e82dad1	0.2555757
99	0x3c85f60c	0.016352676
100	0x3e274a35	0.16336901
101	0x3e39c673	0.18142109
102	0xbdcf1a3f	-0.10112428
103	0x3cbee2a6	0.023301434
104	0xbe9af9dd	-0.30268756
105	0x3d2e51c3	0.042558443
106	0x3e5c121f	0.21491288
107	0x3cd3fa80	0.025876284
108	0x3e2e19c9	0.17002024
109	0xbec9734f	-0.39345786
110	0x3e54a500	0.20766068
111	0x3c20c64f	0.009812905
112	0x3e2aaa21	0.16666462
113	0x3e1ee70c	0.15517825
114	0xbbbaa7e4	-0.0056962837
115	0x3e7e7dad	0.24852629
116	0x3d5e28fa	0.054238297
117	0xbe820c0a	-0.2539981
118	0x3e265343	0.162427
119	0x3e0b8a05	0.13626869
120	0x3e0eef69	0.13958515
121	0x3d95f97e	0.073229775
122	0xbe2eed2b	-0.1708266
123	0x3dfda879	0.12385649
124	0xbe88dc0e	-0.26730388
125	0x3e8855df	0.26628014
126	0x3e34d583	0.17659573
127	0x3eb569a6	0.35432166
128	0xbc2b1908	-0.01044298
129	0xbe87c62b	-0.26518378
130	0xbe8d1fa8	-0.27563214
131	0xbf3e38ab	-0.7430522
132	0xbe090511	-0.13380839
133	0xbd009307	-0.031390216
134	0xbd21641e	-0.03940212
135	0xbedab6b8	-0.42717528
136	0xbebbd678	-0.36687064
137	0x3d3bd05d	0.045853008
138	0xbe22bc3c	-0.15892118
139	0x3e39912a	0.18121782
140	0x3c000ec6	0.007816022
141	0xbe898848	-0.26861787
142	0xbc6fe046	-0.014640873
143	0xbe7e80f1	-0.24853875
144	0x3e39140e	0.18074057
145	0x3e3a51d8	0.18195283
146	0xbe9d29a0	-0.3069582
147	0x3e2d178b	0.16903512
148	0x3e478d72	0.19487551
149	0x3e3eed30	0.18645167
150	0x3b832ee6	0.0040033935
151	0x3e52309b	0.20526354
152	0x3e282982	0.16422084
153	0x3c4095c2	0.011754455
154	0xbe9e6c74	-0.30942118
155	0x3c5010e6	0.012699341
156	0x3e27343e	0.16328523
157	0x3be3239a	0.0069317343
158	0x3e6d4622	0.23171285
159	0x3e32bcc7	0.17454825
160	0x3e6ee979	0.2333125
161	0x3f009cc1	0.5023919
162	0x3e0aaee9	0.13543285
163	0xbcb61f86	-0.022231828
164	0x3e091610	0.13387322
165	0xbe30237a	-0.17201033
166	0x3e086b51	0.13322188
167	0x3e35d9d0	0.1775887
168	0x3e59030b	0.21192567
169	0xbd870123	-0.06592014
170	0xbe85cb31	-0.26131585
171	0xbd704223	-0.058656823
172	0x3d285a83	0.041101944
173	0x3e1cc836	0.1531075
174	0x3ddd9bc5	0.10820726
175	0xbdad454b	-0.08460482
176	0xbd33b678	-0.043875188
177	0xbeaf891c	-0.34284294
178	0xbee7463b	-0.4517077
179	0x3e79fdda	0.24413243
180	0x3d2421b3	0.0400712
181	0x3da4f434	0.080543905
182	0x3e23c90a	0.15994659
183	0x3e2bfda1	0.1679597
184	0xbbff3e1a	-0.0077893855
185	0x3d25943c	0.04042457
186	0xbd0460ca	-0.032318868
187	0x3d5daeef	0.054121908
188	0x3cb73802	0.022365574
189	0x3e3553f7	0.17707811
190	0x3de8835b	0.11353179
191	0x3e0139b4	0.12619668
192	0x3d46b44a	0.04851178
193	0xbeee8cc5	-0.46591774
194	0x3e3355b2	0.17513159
195	0xbce512d7	-0.027963085
196	0xbd816201	-0.06317521
197	0x3cc13592	0.023585115
198	0xbb3400d8	-0.0027466323
199	0x3cf86f40	0.030326486
200	0x3e19e615	0.15029176
201	0x3ce8e88c	0.0284312
202	0x3dbed35b	0.093176566
203	0xba29d013	-0.0006477844
204	0x3c92d352	0.017923031
205	0xbf395c38	-0.7240634
206	0xbed48c46	-0.4151327
207	0x3e330a50	0.17484403
208	0x3cbb9232	0.02289686
209	0xbe9dd4f7	-0.30826542
210	0xbf0768fa	-0.52894557
211	0x3eb9b96e	0.36274284
212	0x3e4fb898	0.2028526
213	0xbb56ffa0	-0.0032806173
214	0xbefdd134	-0.49573672
215	0xbed4ebb7	-0.41586086
216	0xbd68a951	-0.056802098
217	0xbdebbc16	-0.11510484
218	0x3e339bd6	0.17539915
219	0x3e3f1ddc	0.18663734
220	0x3ca99bef	0.020704238
221	0xbdb813fd	-0.089881875
222	0x3ca9d029	0.020729141
223	0x3e497876	0.19674858
224	0x3ea8902f	0.32922503
225	0xbee89958	-0.45429492
226	0xbe66db0f	-0.22544502
227	0x3bfd0027	0.0077209654
228	0x3e856fc8	0.26061845
229	0x3e46e262	0.19422296
230	0xbcd054c5	-0.025431046
231	0x3d5287bd	0.05139898
232	0x3cde33ca	0.027124304
233	0xbcb7dc20	-0.022443831
234	0x3dcae4f0	0.099069476
235	0xbd068fb2	-0.032851882
236	0xbe72788c	-0.23678797
237	0x3d3f5b38	0.046717852
238	0x3e90fa57	0.28315994
239	0x3d59be62	0.05316008
240	0x3e44bbaa	0.19212213
241	0xbe921e86	-0.28538913
242	0xbdfadf3a	-0.12249608
243	0x3d723efe	0.059142105
244	0xbeca0aca	-0.39461356
245	0xbd9f7670	-0.07786262
246	0x3e524f10	0.20537972
247	0x3b3fa316	0.0029241494
248	0x3d8785ec	0.066173404
249	0x3e4c667d	0.19960971
250	0x3c104d12	0.0088074375
251	0x3d0e4a9c	0.03473912
252	0x3ccfe2a1	0.02537662
253	0x3e2c73aa	0.16840997
254	0xbc925c94	-0.01786641
255	0xbdadab03	-0.084798835
